artifacts/pre-trained/fashion-mnist/ae.pt (torch, 328417 bytes, 8 tensors)

encoder.1.weight f4 [50, 784]
00000000: 43d4 84be 8ef3 b23d 32d4 a03d 6164 093d
00000010: e617 d03e 9c99 3f3d c4ba 823e 46a9 24be
00000020: 1463 febd 1e97 33be 3ca4 88be 32ae 6ebe
00000030: 7ae1 acbd 24a0 e0bb 5461 5b3d 37ad ce3b
00000040: 49d2 15be 1e90 88be 3022 a1be 7e3b 9ebe
00000050: dd1c 9fbe ca2e 76be b8f7 63be a629 48bd
00000060: 261f 65be ba1f 73be ba29 72bd 0984 263c
00000070: 7e65 7ebe e392 353e 6b9e 323e d7f9 293d
00000080: eecb c8bd 8cdf 8ebd 1e5d 62be 2316 4bbd
00000090: f3fe 4dbe 2cce afbe d209 96bd 6f5e 55bd
000000a0: 5a97 8c3b c9d8 543d cd46 c93c 2452 ab3d
000000b0: 2850 4b3c f848 96bc 19ee 9dbe 8072 e9be
000000c0: d9f4 56be 73e2 48be 6d2b 48be 64f0 93be
000000d0: 3ab8 e2bd 23d0 b43d 4e3a ddbd 113d 143e
000000e0: 18a0 9d3b 30d8 20bd 8c31 e5bd 56be 1c3e
000000f0: 9fe1 0ebe f9c7 b0bd 66e2 1dbe 2c3c 6fbe
00000100: e135 efbd 1575 e9bc 305c 193d 09e7 2f3d
00000110: 6b76 183e e5e6 413e a0de 143e cd5e 313e
00000120: 8587 2d3e f08d 693d feed 26bc 1367 43be
00000130: aa47 46be 0d08 b6bd e727 7abd d5b7 a23b
00000140: d5a1 8ebd ff53 97bd d170 34be a2f8 b63c
00000150: c622 643d 6866 12bc f41b c83d 4cde e63c
00000160: f355 13be 3961 86be d2bc 4bbd 980f 22be
00000170: 15d6 a2bd e88b d63c 59d6 f53d 2b66 d13d
00000180: 86ae 1b3e 2b01 193e 50e8 0c3e 90ae 0b3e
00000190: 266d 163e ef00 313e cf7a ec3d 2b7f c6bd
000001a0: c1d9 b1bd 5a80 f8b9 f68a 413d e670 96bd
000001b0: d424 89bc 1771 66bc 6ddc 35bd eb6c 8fbd
000001c0: bc86 8dbd 0404 f5bd d935 0fbe eae2 1e3e
000001d0: 30c9 8ebd 6759 47be 875e 9dbd 78bc debc
000001e0: 7498 7a3d b8aa 063d 67bf a73d f5dc b23c
000001f0: fd69 f23d 231b 1b3d b362 283d 1fca a13d
00000200: fa5e de3d aa6c a93d 66aa 0a3e 6225 0f3d
00000210: 2a29 27bd 63dc a43c cf62 9a3d 743c 4ebd
00000220: 1a33 1cbd 45fb cdbd 6333 473d 4958 fb3d
00000230: b579 363e dc3c 2a3d a385 84bd 6a70 aebd
00000240: 0504 dcbd f19d 12be 714c fc3c 4339 8abd
00000250: 80db 6bbc ac5d 6ebc 769e 963c a3e6 49bd
00000260: bc53 5539 f4ee ccbb d075 55bc 026d 743b
00000270: 6cbe 443d 1014 8e3c 67cd 4d3d e792 03bd
00000280: f1e8 dcbc 4967 9bbc e563 5c3d 1415 8cbd
00000290: 9516 c5bd 638c 993d bb73 f03c 176d ad3c
000002a0: c88e 0dbe 8988 183d 6a0b 6ebe ad2b 1bbe
000002b0: e993 04be ab43 c1bd 91bf 16bd 0fb9 98bc
000002c0: c5fd ef3b a5e8 dabc 8362 7ebd a885 81bd
000002d0: b22f d1bd 0bbe 98bd 4144 11bd 33e0 59bd
000002e0: 17c9 27bd 3d75 96bd 2f36 0cbc 65fd a7bd
000002f0: 271a 60bd a96b 59bd 160c 8ebd 0325 d93c
00000300: 7c74 93bb 0711 8bbc 5f10 713d 0eac 283d
00000310: f484 75bd 52d6 2fbd 93c4 f8bd 1d38 d1bd
00000320: a0a4 a8bd 0d7e 68bd a37b 793c 555f 20bc
00000330: 3efc a0bc 35db 72bc c44f b4bd 19d3 f4bd
00000340: dfab efbd ab85 d9bd 6ab7 81bd ca16 1bbd
00000350: 49f7 cdbc 13d3 02be 3fa7 ffbc c66d 6dbd
00000360: 8a21 82bd 3e8b 2cbd 1e45 093d 9cdf 0b3d
00000370: 288a 7c3d b41f 2a3e ff7f 1e3d b292 11be
00000380: 0366 24bd 02ef 743c c7e2 5bbd 02ee f3bd
00000390: 859f 13be 5dd6 29ba 64c6 073d 8969 12bd
000003a0: 214f d8bc 60ce 43bd d704 77bd 444d f1bd
000003b0: 6857 b5bd 2188 9fbd 69dd 03bd 150b 0cbd
000003c0: 4ba5 4d3b 8ce8 86bd 4786 3abd 51cf 59bc
000003d0: 119b 5abc 5cd1 10bb d3d7 8b3d 55db f33d
000003e0: e47f f93d d973 e83d 2bf0 fc3d 7488 2f3d
000003f0: 121e ea3d 1e16 afbd c520 dbbd 9341 95bd
-0.25943193 0.087378606 0.07852973 0.033542994 0.40643233 0.046777353 0.25533116 -0.16080198
-0.124212414 -0.17538115 -0.266878 -0.23308638 -0.08441444 -0.0068550278 0.053559616 0.00630727
-0.14630999 -0.26672453 -0.31471395 -0.30904764 -0.31076708 -0.24041286 -0.22262466 -0.048867844
-0.22375163 -0.23742571 -0.059121825 0.010163316 -0.24843404 0.17731814 0.17443244 0.04149803
-0.098045215 -0.06976232 -0.22105834 -0.049581658 -0.20116787 -0.34336984 -0.07326092 -0.052092012
0.0042905034 0.051964555 0.024569893 0.083652765 0.012409247 -0.018345341 -0.30845717 -0.4559517
-0.2099184 -0.19617634 -0.19547816 -0.2889434 -0.11070295 0.088287614 -0.10802136 0.1447642
0.0048103444 -0.039268672 -0.11191091 0.15306982 -0.13953255 -0.08631892 -0.15418395 -0.23362797
-0.116801985 -0.028498212 0.037441432 0.04294494 0.14888923 0.18935736 0.1453805 0.1732132
0.16946228 0.057020128 -0.010188578 -0.19082288 -0.19363275 -0.08888254 -0.06107321 0.004965762
-0.06964461 -0.07389068 -0.17621161 0.022335354 0.055697225 -0.008935548 0.09770957 0.028182171
-0.14388256 -0.2624605 -0.04974062 -0.15826261 -0.07950989 0.02618976 0.12003774 0.10224565
0.15203294 0.14941852 0.13760495 0.13640809 0.14690074 0.17285512 0.115468614 -0.09692224
-0.086841114 -0.00047397875 0.047251664 -0.073457524 -0.016741194 -0.014065049 -0.044399668 -0.07003196
-0.06910464 -0.119636565 -0.13985385 0.15516248 -0.06971967 -0.19467698 -0.07684045 -0.027189478
0.061180547 0.032877654 0.08190804 0.021833876 0.11836622 0.037867676 0.041109752 0.0789988
0.10857959 0.08272679 0.13541564 0.03494776 -0.04081074 0.02012462 0.075383775 -0.05035062
-0.03813467 -0.100576915 0.04863299 0.122726984 0.17819865 0.041561946 -0.06470802 -0.08517535
-0.10742954 -0.14318062 0.030798169 -0.06749203 -0.014395595 -0.0145487 0.018386107 -0.049292218
0.00020344456 -0.0062540714 -0.013028577 0.003729642 0.048033163 0.01734355 0.050244715 -0.03212252
-0.026966544 -0.018970149 0.053806204 -0.06839958 -0.09623448 0.0749748 0.02935206 0.021170182
-0.13823998 0.037239585 -0.23246542 -0.1515338 -0.12947048 -0.09436735 -0.036803786 -0.01864293
0.007323953 -0.026722262 -0.062105667 -0.06324321 -0.10214175 -0.07458123 -0.035465483 -0.05319233
-0.04096326 -0.0734658 -0.00855784 -0.08202628 -0.05471244 -0.05308119 -0.06935899 0.026506906
-0.00449997 -0.016975893 0.058853503 0.04117971 -0.059941247 -0.042929 -0.121468686 -0.10215781
-0.08234525 -0.056760836 0.015227231 -0.009788354 -0.019651528 -0.014822771 -0.088042766 -0.11954326
-0.11702704 -0.10621198 -0.063338116 -0.03786353 -0.025142329 -0.12775831 -0.031207679 -0.057966016
-0.06354053 -0.04212498 0.03351318 0.034148797 0.061655194 0.16613656 0.038696285 -0.14216116
-0.04013635 0.014949562 -0.05368307 -0.11910631 -0.1441632 -0.0006478781 0.033148184 -0.035745177
-0.02640492 -0.047804236 -0.06030735 -0.117823154 -0.08854562 -0.077896364 -0.032193575 -0.034190256
0.003137904 -0.065873235 -0.045538213 -0.013294057 -0.013342635 -0.0022097444 0.068282746 0.11907069
0.12182596 0.11350221 0.12350496 0.04285474 0.11431517 -0.085491404 -0.1069961 -0.07287898

encoder.1.bias f4 [50]
00000000: 2f1d 463f 2442 523f 1e4e 73bc 2a4f 8d3f
00000010: 1481 25bd c2c1 22bd 73f6 183f 6b69 fdbc
00000020: 6637 d23e 3907 d33f 4978 133f 0aeb ff3e
00000030: 86bb 4f3f 489a b1bc da18 513f cbde 2c3f
00000040: f543 353f a5ee adbb 61de 69be f2d8 843f
00000050: 5e5c 2a3f 2b83 22bf 112f fcbc e0a1 b3be
00000060: 6a3c fe3e 89bb 6c3f a966 67bc f4cd 033f
00000070: e76c 873f afa8 2dbc 4995 303f 2533 003f
00000080: 4c82 84bc dea0 88bd e23d 0b3f 073f 7c3f
00000090: 7a1a 193f f858 133c 2037 25bd 1c20 b1be
000000a0: 2fc3 2f3f 063e 493f 7f48 2a3f 4e1a 3b3f
000000b0: e1ea 0fbd 9986 863f 9f73 293f e5f3 c83f
000000c0: 9a17 f4be 44fb 2ebd
0.7738828 0.8213217 -0.014850168 1.1039784 -0.0404063 -0.039735563 0.5975105 -0.030934056
0.4105789 1.6486579 0.57605416 0.49984008 0.81145513 -0.021680012 0.81678545 0.67527455
0.7080682 -0.0053079897 -0.22838737 1.0378706 0.6654719 -0.63481396 -0.030784162 -0.35084438
0.49655467 0.92473656 -0.014123597 0.51486135 1.0580109 -0.010599299 0.6897779 0.5007804
-0.016175412 -0.06671308 0.543913 0.9853367 0.59806025 0.00899338 -0.040335774 -0.3459481
0.686572 0.78610265 0.6651687 0.7308701 -0.035136107 1.0509826 0.6619205 1.5699431
-0.47674257 -0.042720094

encoder.3.weight f4 [20, 50]
00000000: df98 acbc 0428 e6bd 4809 02bd d2d4 c4bd
00000010: 6e4f e8bd 47f8 823d 0469 52be 8274 d0bd
00000020: c85f 48be 2d61 0a3e 75dc e4bd 449f e63d
00000030: c569 553d dfce 2bbd 4810 893d dbb8 2c3c
00000040: 9750 af3e c959 f63d ab54 74be 5540 473d
00000050: 560a c5bc db40 623e b86f adbd 80cb a4bc
00000060: e0bd c03e e559 bb3e 6178 b33d 5baf abbe
00000070: 5c12 72be f695 83bc 7b08 5bbe 647e e0bd
00000080: d4e7 89bd 81a1 733e fa33 57bd a712 b1bc
00000090: f6c6 35be f2c4 98bd e1a3 263d c7a1 10be
000000a0: 81d7 5ebe 6e51 60bd 57ca 53be db1b 8c3d
000000b0: 2400 ffbc 04d7 083e a0b1 3cbe a22e c3bd
000000c0: 0324 eb3d e2c9 d7bd 246f a2be 8164 673e
000000d0: e0dc 523c ba59 953d 4dde 1d3d 73d0 30bd
000000e0: 56bd 7c3d 1ee5 1dbd ec19 683e f87a 38bc
000000f0: bb70 2cbe 7754 dd3d 9819 62bd 9784 423d
00000100: 60de 10be fb20 213e a6de c93e a24e 03bd
00000110: 1d95 91bd 6c30 8f3e 33c6 24be c27a e23d
00000120: ba66 b33d b581 23be 435c 993d 42c1 35be
00000130: 7268 f53d c805 63be 7503 2abd 8cd4 fd3d
00000140: c9b1 ee3d 3d80 0f3e 7776 173c 3012 32bd
00000150: faef 99bd ac8b fcbd 08a9 3bbe 5bf8 93bd
00000160: 6d5b 6e3d de41 edbd 06b8 00be 2266 7abd
00000170: 97ba b73d 3be0 a3bd fb52 003e fb78 cfbe
00000180: 6385 5abe 29ca a43d 9949 0f3e a0ed dfbd
00000190: c65b b1bd 4b58 8cbd af69 b3bd 3e9d 2c3e
000001a0: cb0f ccbd 62d8 b93d 59f4 f73d f051 ccbc
000001b0: 17c4 ae3e 765f 543e 717e 3e3d 0f35 1fbe
000001c0: dc84 fbbd 477b df3d ce9d a2bc 1939 7dbe
000001d0: 9721 2fbe 5bad f03b 379f 3ebe 9219 743d
000001e0: 9339 3cbe c325 0f3b 22b2 49bd 05bc c43d
000001f0: 616f 7d3e 614d 8e3c 01b4 d4bd d686 5b3d
00000200: 3bed c5be a475 05be 0aa2 8dbd 81eb c63d
00000210: 4d79 0abe 00cc fdbd 2bd7 2f3e 6b4a 463e
00000220: c772 9abe a201 84bc 4afe 94bd d760 a33b
00000230: fb73 013d ea17 cfbe 2866 acbd e990 143e
00000240: 641a 083e 2bf1 903e c360 9e3e 5320 963e
00000250: 190e 9c3d c408 a23d 0d9c 92be 3f00 c1be
00000260: e605 e3bd 7d00 d93e 5abf cb3c 621f 88bc
00000270: 103f 0f3e 027f 51bd d9c6 4bbd e096 993d
00000280: 2dd5 923e ee4f 3d3e e0c6 2a3e 04c3 7ebd
00000290: ad70 afbc 5c21 093e 3dc2 a63e 7921 11bd
000002a0: 437a 2fbd eec0 97bd 497e 463b 060a 6fbe
000002b0: 0a22 c4bd 3844 cdbc 7049 00bd bd18 9d3d
000002c0: c9ff 44bd 7fd2 b53c fc64 83bd 47bd afbd
000002d0: 081d 253e 82b8 b63d ec7e 8abd a6ce 59bb
000002e0: 966e ebbd 6d32 d93d 7d3d c5bd c966 8a3c
000002f0: 20f7 97bc 88f7 62bd 6e05 c0bd 64d0 ce3e
00000300: 4e83 8bbd 52df 8e3e 46cd e7bc 4460 303e
00000310: 3f70 8abe 1a14 113e 0f52 a9bd 4755 b13d
00000320: 5f2e 8d3d 340c 22be cedf a63d 2ca1 043e
00000330: ce4a a63d 68c4 70bc c583 ee3d 033c 2bbd
00000340: 7eae a13d 9ffc 5bbf cd6b 69bd 4a1c 203e
00000350: fa82 b53d 04d8 dcbd ffba 85be 4376 5fbd
00000360: 62c2 463e 4366 13bd c8dc 49be 9aa3 9b3d
00000370: dfa8 c53d 1db0 e73c 3854 c4bc 6ca0 e93d
00000380: 6e0b 96bd a75a fcbd 2f3b e2bd b360 5b3e
00000390: 75db acbd 8903 663d a3fa eebd 58db 6b3d
000003a0: d6c9 aebb 9a57 043e 4085 7c3d 1338 123d
000003b0: 1db2 96be 54ea 613d 56ef e03a 2503 863d
000003c0: 357b b23e 8228 f73d 3cd4 70be e9b5 1abe
000003d0: f8d2 563d 1e75 13bd 2549 96bd c00d 093d
000003e0: 7016 3ebe 6dc2 9c3d eb46 e93d 278f 0e3e
000003f0: 28d5 febc 8d0b 483d 723f 573d a68f 053d
-0.021068988 -0.11238101 -0.031747133 -0.09610905 -0.11343275 0.063950114 -0.20547873 -0.10178472
-0.19567788 0.13513632 -0.11174861 0.11260846 0.052102823 -0.041945335 0.066925585 0.01054212
0.34241173 0.12028844 -0.23860423 0.048645336 -0.02405278 0.22095053 -0.08468574 -0.020116568
0.37644863 0.36592022 0.08763195 -0.33532223 -0.23639816 -0.016062718 -0.21389954 -0.10961607
-0.06733671 0.23792078 -0.052539803 -0.02161534 -0.17751679 -0.07459439 0.04068363 -0.14124213
-0.21761896 -0.054765157 -0.20682655 0.068412505 -0.031127997 0.13363272 -0.18427134 -0.09530379
0.11481478 -0.10536553 -0.3172542 0.22596933 0.0128700435 0.072925046 0.03854208 -0.043167543
0.061704002 -0.03854858 0.22666138 -0.011259787 -0.16839878 0.10807126 -0.05520019 0.04748973
-0.1414733 0.15735237 0.3942768 -0.032057412 -0.07108519 0.2796663 -0.16091232 0.110585704
0.08759828 -0.15967448 0.07488301 -0.17749503 0.11982812 -0.22170174 -0.041507203 0.12394056
0.116550036 0.14013763 0.009244553 -0.043474376 -0.07516475 -0.12331328 -0.18326199 -0.072251044
0.05819266 -0.11584829 -0.125702 -0.061132558 0.08971136 -0.08001753 0.12531655 -0.40521988
-0.21339945 0.080463715 0.13992919 -0.10933995 -0.086600825 -0.06852778 -0.08760392 0.16856858
-0.0996395 0.09074475 0.121071525 -0.024941415 0.3413398 0.2073954 0.046507303 -0.15547584
-0.122812 0.10912185 -0.019850638 -0.24728812 -0.17102657 0.0073448843 -0.18615423 0.0595947
-0.18381338 0.0021842576 -0.049242146 0.096061744 0.24749519 0.017370882 -0.103858955 0.053595386
-0.38657555 -0.13033158 -0.06915672 0.097128876 -0.13522835 -0.123924255 0.17171924 0.19364326
-0.30165693 -0.01611406 -0.07275064 0.0049859094 0.03160475 -0.40447932 -0.08417922 0.14508404
0.13291317 0.28308997 0.30933198 0.29321536 0.076198764 0.07911828 -0.28634682 -0.376955
-0.110851094 0.42383185 0.024871517 -0.016616527 0.139889 -0.051146515 -0.049750183 0.0749948
0.28678265 0.18487522 0.16677427 -0.0621977 -0.021416033 0.13391632 0.32570067 -0.035432313
-0.042841207 -0.07409845 0.0030287674 -0.23343667 -0.09576805 -0.025056943 -0.031320035 0.07670734
-0.0480955 0.022195099 -0.064157456 -0.08581024 0.16124356 0.08921911 -0.0676249 -0.0033234744
-0.11495702 0.10605321 -0.096308686 0.016894715 -0.018550456 -0.055411845 -0.09376036 0.40393364
-0.06812154 0.27904755 -0.028296124 0.17224222 -0.27038762 0.14167824 -0.082676046 0.086588435
0.0689361 -0.15824968 0.08148156 0.12952107 0.081197366 -0.014695264 0.11646227 -0.04180528
0.0789461 -0.85932344 -0.056987572 0.15635791 0.088628724 -0.10783389 -0.2611923 -0.054556143
0.19410089 -0.035986196 -0.19713128 0.07599564 0.0965135 0.02828222 -0.02396594 0.11407551
-0.07326399 -0.12321978 -0.110464446 0.21423607 -0.084402956 0.056155715 -0.11668899 0.05758223
-0.0053341193 0.12924042 0.061650515 0.035698008 -0.29432765 0.055155113 0.0017161171 0.065435685
0.34859625 0.12068273 -0.23518461 -0.15108456 0.05244729 -0.036000364 -0.0733817 0.03346038
-0.18563247 0.07654271 0.1139048 0.13921796 -0.0311075 0.04883914 0.05255074 0.032607697

encoder.3.bias f4 [20]
00000000: 2ebd 07bf 444f 43bd e79c 703e cd64 043f
00000010: 0fe2 3ebf 8e1d dbbe b31f 113f 9fb6 b53e
00000020: 4065 2dbf c6d9 17bf f94b 283f e130 03bf
00000030: 0630 65bf 0650 aabe 2944 97be aee1 fc3e
00000040: e489 3ebf 494e 5fbe 8cfe 2c3f d85b 163f
-0.5302304 -0.047683015 0.23497353 0.5171631 -0.7456369 -0.42795986 0.56688994 0.3549089
-0.6773262 -0.5931667 0.65740925 -0.5124646 -0.895264 -0.33264178 -0.2954419 0.4939093
-0.74429154 -0.21807207 0.6757591 0.5873389

decoder.0.weight f4 [50, 20]
00000000: a80e f7bd bbc7 9fbd 41ce 2ebe ee5c 9f3e
00000010: 9306 f33d 0301 59bc 9fa4 dd3d e2ef 82bc
00000020: be40 973d 47cd 82be 6eb7 b23e 6b0a 48be
00000030: 8a86 04be 5f88 543e 537a 803d 6ea1 16be
00000040: 9a3b 1cbf 92ec c3bd 83fe a53e efbf ae3c
00000050: 292e 053c 31c2 c5bd f68a 433e 80cc 8f3d
00000060: e090 a93e 499f c33e 9c15 903d 8d7a da3d
00000070: 1e75 f3bd bbf4 f9be 6bae 203e 6121 f2bd
00000080: 254a 19bd 7a5d 0c3e 5d38 80bb 6352 38bd
00000090: b96d 123e a84a d5bd 15ba 4dbd 36c5 43be
000000a0: 0e06 cdbd 5548 d9bd a6d8 73bd 2e0b 4b3d
000000b0: 40bc 00be 4993 1d3e a781 ac3e d4a9 b43e
000000c0: fd58 943d dbf9 64be 2a74 ebbd 2127 51be
000000d0: b08c 41bd c93c 12bd ef27 9d3c a643 b7be
000000e0: e984 fbbd a74a 043e 41ad 8ebe ba0a 43be
000000f0: 0f18 dfbc ce1a 0f3e 98b6 71be 6be1 973e
00000100: 44e3 593d 3deb a73d 0e4b 843e 8cdd 0d3e
00000110: 8ae8 983d 3cae 72be 1617 e43e cb56 ae3d
00000120: 3495 b53d 55f9 00be 29d9 9dbe e06f 0b3e
00000130: 5012 7abe 1428 9b3e 54c8 a53d 5429 b5be
00000140: 041e 9bbe c4f9 7c3e 6777 55be 2cd0 6b3e
00000150: 75c3 cdbd 8940 433d d407 813e 2b18 543e
00000160: 54fa d2be dc98 39bd 4b02 dabd bfbb fabc
00000170: d63a 663e 7f96 8b3d 156f 55bc eb5f ccbe
00000180: 9ed2 2c3e 13bb 723d d3f0 993e 3bf4 9fbd
00000190: a86f 6a3d 0ade 89be 4e19 fb3d 28ef e73d
000001a0: 4347 b5bd e02e b53e 4ed1 cd3d 4d35 a43c
000001b0: 0b68 3cbe a29b 65bc de75 33be ac0d f23d
000001c0: 7053 6f3e 9673 803b 540b f73a fe8a 563d
000001d0: 9e13 4abd a3b4 37bd 88ba 683e 2276 ddbe
000001e0: 1e44 83be 99a3 d03d 1491 8f3e c476 483e
000001f0: e398 c1bc 9875 7ebe 2969 db3d c60a 72be
00000200: 9150 6c3e 7fe2 c9bd d3e4 dfbe e958 98be
00000210: 31b4 453e 4947 d03c 0534 913d 5052 573d
00000220: 41be 86be f845 a73c 8723 6cbd ea23 2dbe
00000230: 5ec0 c2bd 8277 65be 06e0 153d c877 d1bc
00000240: f627 a5bd 3538 733d 563c dabd f5eb 183d
00000250: 7578 da3d 7014 27be 3fa4 6f3e 70a6 aabe
00000260: 008e 463e 53b0 313e 6b15 51be d318 ea3d
00000270: a6a4 0e3e 9c65 b6bd d862 0a3c 5755 b3bc
00000280: 047c 65be 8e7d 9a3d 5be0 d43d efdb ad3d
00000290: 91d7 153e 83e7 3f3e 5152 b43e cf5a fa3d
000002a0: 0f89 15be 29e9 0c3d 2109 683e f546 11be
000002b0: ea8b f13b 6925 2e3d 1a70 db3d c258 133e
000002c0: 9934 253e 8a31 c5bc 0358 10bd 7b83 0fbe
000002d0: bd3e 84bd e507 6ebc 3c0e cb3d 2e20 123e
000002e0: 0c28 6bbe 75fd 603e 0a20 8c3c 34d3 f43c
000002f0: 4c68 10be c356 a0bd a371 c2be 40af 273e
00000300: cb47 48bd 34bd f03d 8553 c3be 6649 1d3e
00000310: bf26 b9be 5331 b83d a6d7 943e ed06 673d
00000320: 3eae c5bd fecc babe 7746 a4be 1d9f 93bd
00000330: 9e06 e63d 72fd 8fbe 6a63 41bd a686 02be
00000340: b7e2 94be 543b 653d 166e 8a3e b4b4 803e
00000350: d00f 8c3d 6e2c dcbc 8562 83be 6943 4cbd
00000360: b0c2 b23d b795 8a3e 9928 8b3d 92ef a6bd
00000370: c50a 82be 87b2 413e e386 c0bd fc59 a3bd
00000380: 2ac4 83bd e775 68bc aa20 99be bcbd a2be
00000390: 4f03 05be eaa8 dfbe 4011 b9bd 0120 ecbe
000003a0: 9ca4 0dbd ff06 b63d 9eae 4ebd ac0f 033e
000003b0: dec1 613e b590 b53d 3ea0 debc 7b0c b5bd
000003c0: 4301 673d 1c62 22be ee62 973e ef77 15bd
000003d0: 6c06 813e 9e97 babd 8ee3 cf3d 5553 813e
000003e0: 79ac 27bd 8e80 0d3e f561 f2bd 111d afbd
000003f0: a1f2 80ba 4f98 82bc f8d9 dbbe 0518 4d3e
-0.12063342 -0.078017674 -0.17070867 0.31125587 0.11866488 -0.01324487 0.108224146 -0.015983526
0.073853955 -0.2554724 0.3490557 -0.19535224 -0.12941948 0.20755146 0.062733315 -0.14710018
-0.61028445 -0.095666066 0.3242074 0.021331755 0.008128681 -0.0965618 0.19095978 0.07021427
0.33118343 0.38207462 0.07035372 0.10667906 -0.11887573 -0.48819527 0.15691535 -0.11822773
-0.037424225 0.13707533 -0.003912969 -0.045000445 0.14299668 -0.1041463 -0.05022629 -0.19118199
-0.100109205 -0.10609499 -0.059532784 0.04957121 -0.12571812 0.15388216 0.33692667 0.3528582
0.07243536 -0.22360937 -0.11496766 -0.20425083 -0.04725331 -0.0357025 0.01918408 -0.357938
-0.1228121 0.12919103 -0.27866557 -0.1904706 -0.027233152 0.13975069 -0.2360481 0.29664168
0.053195253 0.08199165 0.25838512 0.13854045 0.07466228 -0.23699278 0.44548863 0.08512648
0.08866349 -0.12595113 -0.30829743 0.13616896 -0.24421048 0.30304015 0.0809485 -0.35383093
-0.30296338 0.24704653 -0.2084633 0.2302863 -0.10047046 0.047668967 0.25201285 0.20712344
-0.4120661 -0.045311794 -0.106449686 -0.030607102 0.22483382 0.06815814 -0.013026972 -0.3991693
0.16877219 0.05926044 0.30066547 -0.07810255 0.05723539 -0.26927215 0.12260686 0.11324912
-0.08851483 0.35387325 0.10049687 0.020044947 -0.18399064 -0.014014157 -0.17525432 0.11819014
0.23371673 0.003920029 0.001884798 0.052378647 -0.049335115 -0.044850003 0.22727406 -0.4325419
-0.25637907 0.10187454 0.28040373 0.19576555 -0.023632472 -0.24849546 0.10713417 -0.23636922
0.23077609 -0.09857654 -0.43729267 -0.29755333 0.19307019 0.025424616 0.0709 0.052568734
-0.26317027 0.020419106 -0.05765107 -0.16908231 -0.095093474 -0.2240887 0.0365906 -0.025569811
-0.080642626 0.059379775 -0.106560394 0.0373344 0.106675066 -0.1631639 0.23402499 -0.33330107
0.19390106 0.17352419 -0.20418327 0.11430516 0.13929996 -0.08906099 0.008446418 -0.02189128
-0.2241059 0.07543479 0.10394355 0.08489215 0.14633013 0.18740658 0.35219052 0.122243516
-0.14603065 0.034402046 0.22659732 -0.14187224 0.0073714154 0.042516146 0.10714741 0.14389327
0.16133346 -0.024071474 -0.035240185 -0.14015 -0.06457279 -0.014528249 0.09914824 0.14270088
-0.22964495 0.21971686 0.017105121 0.029885866 -0.14102286 -0.078290485 -0.37977323 0.16375446
-0.048896592 0.11754838 -0.38149658 0.1536003 -0.36162373 0.08993783 0.29070777 0.05640309
-0.09652375 -0.36484522 -0.3208501 -0.07208083 0.11231731 -0.2812305 -0.04721395 -0.12746677
-0.2907922 0.055964783 0.27037114 0.25137866 0.068389535 -0.026876654 -0.25661102 -0.049868975
0.0872854 0.27067348 0.06794853 -0.08151163 -0.25398842 0.18915759 -0.094007276 -0.079761475
-0.064339 -0.014188266 -0.29907733 -0.3178538 -0.12989543 -0.4368356 -0.09036493 -0.46118167
-0.03458081 0.08888053 -0.050459497 0.12798947 0.2204661 0.08865491 -0.027176019 -0.08840271
0.056397688 -0.15857738 0.29567665 -0.03649133 0.25200212 -0.0911095 0.101508245 0.2525889
-0.040935967 0.13818571 -0.1183509 -0.08550466 -0.0009837934 -0.015941767 -0.42939734 0.20028694

decoder.0.bias f4 [50]
00000000: 0695 3b3f 63ea 0dbf 3675 9bbe 9595 5a3e
00000010: 4a02 17bf 751f 7abf 0684 e03e b676 a83f
00000020: b5f8 3abe f70c 933f 4b1c 3ebd e38a 06bf
00000030: 665f 51bd bbe3 993e 0e4d bd3f df35 04be
00000040: 8535 893f 15b2 53bf 044f c9be a56a 903e
00000050: a661 6f3f 046e 4cbe 2c2c 993d 06b6 373e
00000060: b972 28bf 5231 6e3f c93a c13e 03eb 573e
00000070: d530 673f 857a 273f bcf2 dabe 06c7 78be
00000080: 0fcc 8e3e a8b4 afbe 17f0 c7be eff5 fbbc
00000090: 10e8 a8be 7466 c6be b87a f23e 973c 96bc
000000a0: aaf5 323e a928 28bf 5f44 8c3f 7013 54be
000000b0: 1e5c 263f 5551 56bf daf4 e5be 0d19 653e
000000c0: 97e8 b63f 4589 63bf
0.73274267 -0.5543577 -0.30362862 0.21346124 -0.5898787 -0.9770425 0.43850726 1.3161228
-0.18258937 1.1488332 -0.0464137 -0.52555674 -0.05111637 0.30056557 1.478914 -0.12911175
1.0719458 -0.82693607 -0.39318097 0.28206363 0.93508375 -0.19963843 0.07479128 0.1794053
-0.6580005 0.93044007 0.37740162 0.21085744 0.90308887 0.65421325 -0.42763317 -0.24294671
0.2789006 -0.34317517 -0.39050362 -0.030756919 -0.3298955 -0.3875004 0.47359252 -0.018339438
0.17476526 -0.6568704 1.0958365 -0.2071054 0.6498431 -0.8371785 -0.4491337 0.22372837
1.4289731 -0.8888133

decoder.2.weight f4 [784, 50]
00000000: b13e 1ebe 6729 98be fe6c 21be d70a dabe
00000010: 1859 cbbd 92ad 4cbe 4a56 e8bd f67d 45be
00000020: 2c95 4ebd c508 a1bc 0cb8 edbd c1de 44be
00000030: 40ad 24be 33d4 08be 06a8 56be 4283 a5be
00000040: 9b46 2ebe 5ed9 08be 0641 09be b769 24bf
00000050: e920 aebd 464e e1be 79eb 14be 57a3 21be
00000060: 04b1 9bbe dffd abbe 24a0 07bf 16be a1bc
00000070: 90b8 783b 23d2 85be aa0b 23be 10fc 2ebe
00000080: be26 ce39 7fc3 a83d 6363 ffbe f07b 52be
00000090: 44ef 83be 5933 abbe b98f 21be c8ef e2bd
000000a0: 95fe c3bd a06a 94be caa2 28be 58e6 59be
000000b0: e032 1ebe 6bd8 04be 47cc 3cbe 0012 00be
000000c0: c336 21be a2d7 55be 62d5 1ebe 96ae 8abe
000000d0: 7eac d5bd 16ea febe bfb9 813d b04a f7bd
000000e0: fdca e6bd 285f b7bd 0fc0 52be 4e15 cbbd
000000f0: 6d18 f0bd ffea 24be 728e 583d 188b 6cbc
00000100: 0340 49bc 8364 eebe 5bb9 a8be 7696 14bd
00000110: f62d 70be 5e35 30bf c69b 4d3c a87b e4be
00000120: c772 bbbd 182e dd3c ac34 93be 013d 92be
00000130: fb70 b9be 1eb0 203d 25ee 5c3b 11c5 9cbe
00000140: 875c bfbd 1d28 b83b f00b b3bd a76a 1cbd
00000150: 8d3d 08bf 1d34 3bbe 2e1c afbe cff2 ddbe
00000160: f85e 85bc b54b 053d 737d 00be 310c 04be
00000170: a038 44be e3f6 a7bd d517 6bbd 319d f2bd
00000180: d91e 24be 6b37 cc3c 0076 50be 06ee 53be
00000190: 33cb 563d 4dd1 2f3d 67da 4fbd 7f59 a6be
000001a0: b164 16be db05 26bd 8e37 8bbd 8bd5 c6bc
000001b0: efd6 9cbd be69 39be 4ec5 26be 6ac8 babe
000001c0: cd9f 0fbd 8f89 d93c 7c50 11be 3db9 8cbe
000001d0: d2a8 a3be f7bc 86bd 8c8d 63be c6d0 e9be
000001e0: 4684 0c3d 3815 d0bd 1be7 f63d b16e 663d
000001f0: 0995 c3bd 59e6 16be 778f 36bf 0784 393d
00000200: dbeb 053d 324c 78be 3589 13bd 766c 69be
00000210: efa8 143e f4b9 64be 1e9c 3abf 1cc5 89be
00000220: 8161 bbbd c6d9 5fbe 1823 fabd 2bc0 b53d
00000230: 5bc2 2b3d 7185 d4bd d4b7 20be 7f84 10be
00000240: 0cd3 3fbe 9df6 0ebe 0e78 fabd 4588 11be
00000250: 0664 4b3d c80f b5bd 7e8c d1ba f864 adbd
00000260: fc2d 57be e58b 7abe afd2 dabc 5a6a e73b
00000270: 8db3 cabc 319a aebe 76f1 1a3e 2064 92bd
00000280: 82bc 59be 0f9f 32bf d354 723e fa5c 813e
00000290: fad9 11bf 67a4 95be de07 80bd ffa5 0dbf
000002a0: 6d78 a6be 17b5 7bbd 1a18 7d3d 5023 9c3d
000002b0: b72d 6ebd 6fdc 8abe 008f 873d 92bc f93b
000002c0: b621 8bbf 20e7 2fbe 47b2 fc3e 4f7a 013d
000002d0: c255 a1be d88b b03d d2e0 4cbe 4432 c2be
000002e0: 5d1d 8ebe d3ff 35be 144a 1f3e 60ad bc3c
000002f0: 1db0 21bf 7284 743d 88b6 993d 7075 8c3d
00000300: e485 0cbf 732a 65be 4f1d 07be ad25 03be
00000310: 815a c13d 99b2 54bd 3acd 9fbe 38ae edbe
00000320: 4097 5fbe b437 d63d ad51 9ebd 7101 66be
00000330: 9a94 243e 20ac 013e 72ad 92bc 6633 acbe
00000340: a9c5 02be 6130 09be 7741 99be fdf7 09be
00000350: 3b6f 5a3e 19e5 f4be be52 abbe 28ee 00be
00000360: 67f3 11bf d8f2 84bf fe79 f1be 4cb5 b2bd
00000370: ddb0 17be e004 3a3e 034e 0c3e 46aa 76be
00000380: 5776 2abd 765d 6dbe 0d01 8ebf fa30 893c
00000390: dba8 113f f94d 383d 19fb 99bd 9de8 80bc
000003a0: f49f a3bc 567c b1be 7c4f a4be 3096 e5be
000003b0: 281d 333e db63 3dbe e048 aabe d8e4 e73d
000003c0: 2793 113e 5d76 5c3e 59dd 4d3d 3116 07bf
000003d0: fb27 183d bd84 9bbe b053 273e 903e 9c3d
000003e0: 0d25 f5bd c1d8 7cbf b04d 76be d0b9 ad3d
000003f0: a1ba 35be 0ab2 91be ca17 1cbd 7906 c43c
-0.15453602 -0.29719087 -0.15764233 -0.42586395 -0.09929103 -0.19988087 -0.11344583 -0.19286332
-0.05043523 -0.019657502 -0.1160737 -0.19225599 -0.16081715 -0.13362198 -0.20962533 -0.32326704
-0.17019121 -0.13364169 -0.1340371 -0.6422381 -0.08502371 -0.4400503 -0.1454295 -0.15784965
-0.3040849 -0.33592126 -0.5297873 -0.01974396 0.0037951805 -0.26136884 -0.15922418 -0.17088342
0.00039320247 0.08240413 -0.49880514 -0.20555091 -0.25768483 -0.33437613 -0.15777482 -0.11080891
-0.09570042 -0.28987598 -0.16468349 -0.21279275 -0.15449095 -0.12973182 -0.184373 -0.12506866
-0.15743546 -0.20883039 -0.15511087 -0.27086323 -0.10433291 -0.49787968 0.063342564 -0.120747924
-0.11269186 -0.089536965 -0.20581077 -0.09916173 -0.11723409 -0.16105269 0.05287022 -0.014437459
-0.012283328 -0.4656106 -0.32953915 -0.036276303 -0.23455033 -0.6883143 0.012549346 -0.44625592
-0.091527514 0.026999518 -0.28751123 -0.28562167 -0.3621901 0.03923046 0.003371128 -0.306191
-0.0934382 0.0056200163 -0.08742511 -0.03818765 -0.5321892 -0.18281598 -0.34201187 -0.4334931
-0.016280636 0.032542903 -0.12547855 -0.12895276 -0.19162226 -0.08201387 -0.057395775 -0.11846388
-0.16027392 0.02492877 -0.20357513 -0.20696267 0.05243988 0.042924214 -0.050745394 -0.32490155
-0.14686848 -0.040532928 -0.067977056 -0.024271747 -0.07658183 -0.18106744 -0.16286203 -0.3648103
-0.035064507 0.02655485 -0.14190859 -0.27485076 -0.31964737 -0.06579011 -0.22221965 -0.45667094
0.034305833 -0.10160297 0.120557986 0.056257907 -0.095499106 -0.14736308 -0.7131266 0.045291927
0.032695632 -0.24247816 -0.036019523 -0.22795281 0.14517568 -0.2233656 -0.72894466 -0.26908195
-0.09149457 -0.21860418 -0.12213725 0.08874544 0.0419334 -0.103770144 -0.15695125 -0.14113043
-0.18732852 -0.13961263 -0.1222993 -0.14212139 0.049655937 -0.08840901 -0.0015987305 -0.08466524
-0.21013635 -0.24467428 -0.02671179 0.0070622386 -0.02474382 -0.34102014 0.15131173 -0.071480036
-0.21263316 -0.69773954 0.2366517 0.25266248 -0.5697323 -0.29226992 -0.062515005 -0.55331415
-0.32513753 -0.061451998 0.061790563 0.07623923 -0.058149066 -0.27121302 0.06619072 0.0076213563
-1.0869663 -0.17178011 0.49354765 0.031610783 -0.3151074 0.08620423 -0.20007637 -0.37928975
-0.27756777 -0.1777337 0.15555602 0.02303189 -0.6315935 0.059696622 0.07505518 0.06858337
-0.548918 -0.22379474 -0.13194774 -0.12807341 0.094410904 -0.051928136 -0.31211263 -0.4642198
-0.21835041 0.10459843 -0.07730422 -0.22461487 0.16072312 0.12663317 -0.01790497 -0.33632964
-0.12770714 -0.13397361 -0.29932758 -0.13473506 0.21331494 -0.47831038 -0.33461565 -0.1259085
-0.5701203 -1.038661 -0.47163385 -0.08725986 -0.14813562 0.18165922 0.13701634 -0.24088392
-0.041616764 -0.23180184 -1.1094071 0.016746987 0.5689828 0.044996236 -0.07518596 -0.015735919
-0.019973733 -0.34665173 -0.32091892 -0.44841146 0.17491591 -0.18495123 -0.33258724 0.11322945
0.1421629 0.21529527 0.05025992 -0.52768236 0.037147503 -0.3037471 0.16340518 0.0762912
-0.119699575 -0.9876824 -0.24053073 0.084827065 -0.17746975 -0.28456146 -0.038108625 0.023928868

decoder.2.bias f4 [784]
00000000: 59b3 9c3d 4efa 06be 9b84 3539 345e 02be
00000010: 2f11 12bd 405b 303e f0ab 873e 3baa 43bd
00000020: 917d dfbe a4e2 88be a59f 3dbd 4ead 9f3e
00000030: bd3e 913e 9a26 e23e 8569 8c3e b736 753e
00000040: 703f 7e3e 8801 cf3d 2780 6fbe 08a9 96be
00000050: 7ab6 f0bc 511c 423d 8b9d efbd 7fd0 ccbd
00000060: bdce 03bd e1d8 1cbe 55db 783d be90 4dbe
00000070: 36a2 8bbd dd94 c73d 63da b4bd a114 383e
00000080: 3ff6 a43e e0fc b83e f28c 123e 5259 353e
00000090: 2f6e f13c 1cff 8c3d 0d25 e0be 362b a5be
000000a0: 3dea 98be 4065 bbbd 7047 7dbc d4c1 d6bc
000000b0: 5bbf 38bf 066a 42bf 00ac a1be 4063 e23d
000000c0: 32d8 5b3e 26b5 363e 9cb6 a03d 538f 3e3e
000000d0: 4e5f f43c a21a 2f3e 1263 203e bed6 46bd
000000e0: 9ef9 083d 46e6 9a3e 3338 fc3d d011 883e
000000f0: cf46 c63e 0f54 d23e 4b57 293e 7b2c 85be
00000100: 839f 99bd 5192 60be 025d ccbe 2913 23bf
00000110: 9f61 55bf 989b 44bf 5ba4 48bf 7e81 56bf
00000120: 61ea 42bf 4fa3 09bf cb2a 0ebf d5bc acbe
00000130: 72fb 5fbd 9188 c03c 76e2 e43d d4ed 963e
00000140: 4d93 c53e bee2 b63e 583c 9d3e f9d2 81bd
00000150: df55 a93d e1a9 183d d0dd 023e 868c d13e
00000160: f021 133f d301 b63e 5df4 7bbe 8ebf 97bc
00000170: c97c 033e e3ea 73bd 7e61 8abe 9dcd f0be
00000180: ad78 0abf 71c6 03bf 069f 09bf 78df 07bf
00000190: 2ce6 9cbe 76cd d6bd 4b75 23bd 1a28 e8bd
000001a0: 4560 98bd fde0 28bc d14e 4f3e 7c1e 383e
000001b0: bb0e 0a3f cbf0 f43e d560 aa3e b805 38be
000001c0: b856 053d 4271 643e 449e cd3e b385 163f
000001d0: 98a3 0e3f 889d 863e 2cca a53d 53f2 febd
000001e0: ec19 b03d 1cc0 cf3d 201e 613d 55fa 11be
000001f0: e4b3 cabe 3fcd 83be 6faf bbbd 95f1 7bbe
00000200: 3027 4bbe c176 033e a137 953d dba7 1b3d
00000210: 45fe 073c 97e2 443e 670f 143e df1d 553e
00000220: 5e57 b33e 30ce 063f f8ba 903e ce7d 1bbe
00000230: 5891 933e 98d5 043f a979 fb3e 0a44 083f
00000240: 90da c83e e433 9b3e 736d 72bc fd16 2f3c
00000250: 22e8 2a3d 4bfd 643e ec65 3c3d 5ea5 3f3e
00000260: 3eef 13be ba05 b13c babc 0f3d 9318 293e
00000270: 976a 793e 46eb a43e 1e5a 1a3e 4cef 853d
00000280: ede4 b83d 7b84 d23d dda8 813e 4083 f23d
00000290: b09b ba3e 586b e73e e3ef b33e 8cca 52be
000002a0: dfcc 233e 60bd f93e c161 0c3f 50f7 c73e
000002b0: 19cc 063e 9b90 8ebd 3e0d 46be 5513 81bd
000002c0: 91ae a9bb 3148 7c3e fb51 963e a927 7b3e
000002d0: a057 b3bd d064 013e 32a7 e93e eb32 1c3e
000002e0: 4869 c23e cf04 103f 3aa0 bc3e 6e0d 8f3d
000002f0: 3c59 bc3d e547 943e 86e8 8f3d 82d0 ffbd
00000300: 6a4b 783d fba3 893e 2317 de3e da76 3a3c
00000310: bef4 133e 5245 013f 8692 dc3e 1be4 ee3d
00000320: 8b51 293b b661 15be cee3 abbe 96b5 8ebe
00000330: 2305 fbbd 95d2 16bc b046 7b3e e67f 7b3e
00000340: bf61 fe3c f100 4d3d 8a17 843e 904b d5bd
00000350: fd17 bb3d f908 eb3e 8602 ba3e 20e4 67be
00000360: ba50 5e3d 9cf4 7fbe 5310 59be 7063 d7be
00000370: 705a c9be 41b3 9bbd 0f37 833e b242 33bd
00000380: 9db2 123e 061d f83e edb2 7bbd 1c39 e0bd
00000390: f2d3 8abe db07 fbbe 20d6 0ebf 25bb 28bf
000003a0: a84e eebe 46ac 903b 37f1 953d 3a64 efbd
000003b0: 5f52 dbbe 0e31 8e3d 0c7e 073e 167a a7be
000003c0: 8a1a d2bd e1eb 0f3e b8ea 8a3e 0126 8cbe
000003d0: 9518 9bbe 5445 11bf 92e8 0abf ce7e 41bf
000003e0: edc9 4abf 4b52 7cbe 802e 303d c091 5bbe
000003f0: 0e00 893e 66ed 053f a09d 40be f5a3 91be
0.07651395 -0.13181421 0.00017310905 -0.12731248 -0.03566092 0.17222309 0.26498365 -0.047769766
-0.43650487 -0.26735413 -0.046294827 0.31186908 0.28368178 0.44170076 0.27424255 0.23946653
0.24828887 0.10107714 -0.2338873 -0.29425836 -0.029383887 0.047390286 -0.11699971 -0.10000705
-0.032179583 -0.15317108 0.060756046 -0.20074746 -0.06818049 0.0974519 -0.088307165 0.1797662
0.3221912 0.36130428 0.14311579 0.17709854 0.029471485 0.06884596 -0.43778268 -0.3225953
-0.2986621 -0.09150171 -0.015458927 -0.026215471 -0.72166985 -0.7594303 -0.31576538 0.11054087
0.2146919 0.1784254 0.0784733 0.18609361 0.029830601 0.17100003 0.15662792 -0.048544638
0.03344118 0.3025381 0.12315407 0.2657609 0.38725898 0.41079757 0.16537206 -0.26010498
-0.075011276 -0.21930815 -0.3991471 -0.6370111 -0.8335208 -0.7679992 -0.78375787 -0.8379134
-0.76138884 -0.53764814 -0.55534047 -0.33737817 -0.054683156 0.02350262 0.111760065 0.29478323
0.38588944 0.35719866 0.307101 -0.06339068 0.08268332 0.037271384 0.12779927 0.40927523
0.5747366 0.35548267 -0.24604936 -0.018523958 0.1284057 -0.059550177 -0.27027506 -0.4703187
-0.54090387 -0.5147467 -0.53758276 -0.5307536 -0.30644357 -0.10488407 -0.03990678 -0.11335774
-0.07440237 -0.010307548 0.2024491 0.17980379 0.53928727 0.4783996 0.33277002 -0.17970932
0.032553405 0.2230883 0.4015981 0.5879776 0.55718374 0.26292062 0.08095202 -0.124485634
0.08598694 0.10144064 0.05496037 -0.1425565 -0.3959037 -0.25742528 -0.09164321 -0.24603875
-0.19839168 0.1283827 0.07286001 0.038001876 0.008300369 0.19227062 0.14459 0.20812176
0.35027593 0.5265837 0.28267646 -0.1518471 0.28821826 0.5188842 0.49116257 0.5322882
0.3922925 0.30313027 -0.014796603 0.010686633 0.041725285 0.22362249 0.045995638 0.18715426
-0.14446732 0.021609176 0.035092093 0.1651328 0.24357067 0.3221075 0.1507344 0.06539783
0.09028039 0.10279175 0.25324145 0.1184144 0.36446905 0.45199084 0.35143957 -0.20585078
0.15996121 0.48777294 0.5483666 0.39055872 0.13163795 -0.06961175 -0.19340989 -0.063025154
-0.0051782806 0.24636914 0.2935942 0.24526848 -0.087569475 0.12636113 0.45635372 0.15253799
0.37970948 0.5625734 0.36840993 0.069849834 0.091967076 0.289611 0.07026772 -0.124909416
0.060618795 0.2688292 0.43377027 0.0113808755 0.1444883 0.504964 0.4308054 0.116646014
0.0025835957 -0.14588055 -0.3357224 -0.27872914 -0.12256839 -0.00920548 0.24538684 0.24560508
0.031052468 0.050049726 0.2579921 -0.10414803 0.09135435 0.45905283 0.3633005 -0.22645617
0.054276206 -0.24995655 -0.21197633 -0.42068052 -0.3932681 -0.07602549 0.25627944 -0.043764777
0.14325948 0.48459643 -0.061449934 -0.10948393 -0.27114826 -0.4902943 -0.5579548 -0.6591056
-0.46544385 0.004415068 0.07321399 -0.116890386 -0.42836282 0.0694295 0.13231677 -0.32710332
-0.10258968 0.14054824 0.271322 -0.27372745 -0.30292192 -0.5674641 -0.54261124 -0.75584114
-0.79214364 -0.24640767 0.043013096 -0.21442318 0.26757854 0.52315366 -0.18810129 -0.28445402
