paper/notebooks/AE_centralized_pretraining/pre-training/1 channel/pre-trained-ae-fashion-mnist.pt (torch, 328417 bytes, 8 tensors)

encoder.1.weight f4 [50, 784]
-0.11480764 0.051277634 -0.5508711 -0.12198633 0.017560272 0.20192246 -0.06280566 -0.07355764
-0.07928299 -0.008024197 0.043570094 -0.05776541 0.033744138 0.06610655 0.25410601 0.0517289
-0.056240126 -0.104084805 -0.027421365 -0.067496024 -0.14415093 -0.00839325 -0.035169315 0.059205577
0.061287962 -0.11244939 -0.019269682 0.16429842 0.35399246 -0.41706178 0.29572287 0.1808588
-0.1869885 -0.09254735 -0.12562153 -0.16247699 -0.36699656 -0.013197349 0.052374005 0.12129481
0.124326736 0.109545164 0.050849244 0.19304965 0.06379718 0.030140452 -0.087559626 -0.1750517
-0.16488191 -0.12541932 -0.10239801 -0.068646446 -0.099736564 -0.12452097 -0.21207933 -0.0071578957
0.03666411 -0.281719 0.1984339 -0.057272073 0.015702149 -0.047946736 -0.15527608 -0.21266572
-0.19479492 0.09225388 0.14173947 0.16430137 0.24359354 0.1383622 0.14790227 0.1442693
0.1782162 0.13109791 -0.01782046 -0.12991989 -0.09436049 -0.052465517 -0.14838587 -0.12228157
-0.15212367 -0.1322636 -0.12938161 0.15120037 -0.16771966 -0.36273158 0.12971431 0.09216758
0.016891995 -0.13046783 0.014771212 -0.07049486 -0.020000786 0.17456813 0.10638455 0.18027945
0.18226562 0.16775897 0.18397987 0.20593627 0.12922184 0.106713295 0.0073126154 -0.11183218
-0.09931014 -0.037398785 -0.13105711 -0.23227973 0.041430935 -0.13405634 -0.12162598 0.00094440556
-0.3492468 0.080294825 0.0026794483 0.055416834 -0.14428127 -0.07564246 -0.011331754 -0.03898317
-0.012945578 0.13433942 0.08106224 0.19952397 0.16558227 0.17803118 0.16005526 0.17098328
0.16750476 0.11184249 0.09845382 -0.029510835 -0.0118630305 -0.0068478636 -0.07620147 -0.10748347
-0.1419002 -0.18652186 -0.21065906 -0.015418659 0.010623052 0.048054475 0.09025121 0.04773049
-0.019988373 -0.146982 0.07615059 -0.0020167055 -0.06407251 0.101967886 0.07547993 0.072617374
0.08275753 0.17452984 0.118397124 0.123195514 0.1207845 0.09991391 0.07676459 -0.01752857
0.052466772 -0.007450255 -0.021737238 -0.09367674 -0.16769719 -0.17447628 -0.060917478 0.036866203
0.20190822 0.004485197 0.10547368 0.08009698 0.14364406 0.0014425642 0.04351988 -0.00019354833
0.028964676 0.06294979 0.017636256 0.1373217 0.025476148 0.08411632 0.11713754 0.07567204
0.070316344 0.09388884 0.09907382 0.032454528 0.057587884 0.100834556 0.038978443 -0.040288612
-0.043255966 -0.0806085 0.045408487 0.08747814 0.12722178 0.124681234 0.06334372 -0.0135096265
0.14501645 0.1610457 0.1064486 -0.027474947 0.060791068 0.113439575 0.087134026 0.044252332
0.020654744 0.06396355 0.08117731 0.1136608 0.04140547 0.05108525 0.0790564 0.016482059
0.06135818 0.12125599 -0.0005655544 0.04724543 -0.07835578 -0.058166035 0.061929654 0.092986576
-0.22821866 -0.031811673 -0.012288446 -0.028702348 0.19646226 0.06289074 0.069321245 0.021012811
-0.008767719 0.11352435 0.027563691 0.06334737 0.012894371 -0.019830236 0.061580777 0.07507224
0.015036452 0.020259386 0.026458308 0.0071338443 0.01015072 0.0575226 0.058847502 0.07554349
0.05365926 0.052780963 0.1486452 -0.029346652 -0.3342112 0.014403289 0.12403158 0.08691597
00000000: 4520 ebbd 7f08 523d e305 0dbf f8d3 f9bd
00000010: 8fda 8f3c c3c4 4e3e 41a0 80bd 63a5 96bd
00000020: 1f5f a2bd ec77 03bc 8e76 323d 6c9b 6cbd
00000030: 4b37 0a3d df62 873d 2f1a 823e afe1 533d
00000040: 0c5c 66bd 6a2a d5bd c5a2 e0bc 5b3b 8abd
00000050: 4d9c 13be d883 09bc b30d 10bd 8c81 723d
00000060: 1609 7b3d de4b e6bd 74db 9dbc d83d 283e
00000070: 803e b53e 1f89 d5be fd68 973e 0d33 393e
00000080: ea79 3fbe 7789 bdbd eea2 00be 5e60 26be
00000090: f9e6 bbbe b239 58bc 2086 563d 6a69 f83d
000000a0: 049f fe3d 3759 e03d 4c47 503d cfae 453e
000000b0: 19a8 823d 1ce9 f63c 7652 b3bd c140 33be
000000c0: ced6 28be ec6d 00be 0cb6 d1bd 8296 8cbd
000000d0: af42 ccbd da04 ffbd 532b 59be c88c eabb
000000e0: 1b2d 163d 793d 90be 4232 4b3e 1f96 6abd
000000f0: cba1 803c cc63 44bd b100 1fbe 0bc5 59be
00000100: 5278 47be 9aef bc3d 2724 113e 9e3e 283e
00000110: 9670 793e d2ae 0d3e b173 173e 55bb 133e
00000120: 4f7e 363e 883e 063e 37fc 91bc b809 05be
00000130: 1340 c1bd 15e6 56bd 77f2 17be c36e fabd
00000140: 4fc6 1bbe 1c70 07be 9d7c 04be 45d4 1a3e
00000150: b4be 2bbe f4b7 b9be d4d3 043e 5bc2 bc3d
00000160: 1561 8a3c 5c99 05be f402 723c 9c5f 90bd
00000170: b0d8 a3bc fdc1 323e 25e0 d93d 2d9b 383e
00000180: d7a3 3a3e 02c9 2b3e 3865 3c3e f5e0 523e
00000190: bb52 043e 808c da3d aa9e ef3b 4508 e5bd
000001a0: 1d63 cbbd 782f 19bd d633 06be bdda 6dbe
000001b0: 7cb3 293d 1146 09be 0b17 f9bd fc91 773a
000001c0: 7ad0 b2be 9d71 a43d af99 2f3b c3fc 623d
000001d0: 78be 13be 6fea 9abd d2a8 39bc d1ac 1fbd
000001e0: b119 54bc 4690 093e f603 a63d 0350 4c3e
000001f0: 668e 293e ce4d 363e 87e5 233e 3e16 2f3e
00000200: 5e86 2b3e ad0d e53d 28a2 c93d b5c0 f1bc
00000210: 285d 42bc 0b64 e0bb 840f 9cbd 4b20 dcbd
00000220: 494e 11be 96ff 3ebe 02b7 57be 8b9e 7cbc
00000230: 4f0c 2e3c c5d4 443d a0d5 b83d 0c81 433d
00000240: a8be a3bc 7382 16be d7f4 9b3d b42a 04bb
00000250: 7338 83bd 8ad4 d03d 3995 9a3d 6bb8 943d
00000260: c87c a93d f3b7 323e 317a f23d ee4d fc3d
00000270: dd5d f73d aa9f cc3d c136 9d3d 1398 8fbc
00000280: 66e7 563d 4521 f4bb 4b12 b2bc 97d9 bfbd
00000290: d0b8 2bbe e9a9 32be 9b84 79bd 0401 173d
000002a0: 07c1 4e3e 8ff8 923b 9602 d83d e309 a43d
000002b0: 6e17 133e 6c14 bd3a e741 323d 3cf3 4ab9
000002c0: 5447 ed3c d2eb 803d e979 903c 0f9e 0c3e
000002d0: 5bb3 d03c 2d45 ac3d cee5 ef3d f1f9 9a3d
000002e0: 0402 903d cb48 c03d 37e7 ca3d 0aef 043d
000002f0: 46e1 6b3d 5982 ce3d dca7 1f3d ac05 25bd
00000300: 2b2d 31bd 1216 a5bd 40fe 393d bd27 b33d
00000310: 6d46 023e e058 ff3d 5aba 813d 7b57 5dbc
00000320: 317f 143e 2ae9 243e b901 da3d 2413 e1bc
00000330: 0e00 793d 0253 e83d 5373 b23d ef41 353d
00000340: 2334 a93c 52ff 823d 4a40 a63d fec6 e83d
00000350: c898 293d c43e 513d 52e8 a13d 6205 873c
00000360: b752 7b3d 0f55 f83d b741 14ba 6d84 413d
00000370: ff78 a0bd 823f 6ebd f3a9 7d3d bf6f be3d
00000380: 27b2 69be f54c 02bd 7a55 49bc 3021 ebbc
00000390: 672d 493e dccc 803d 4cf8 8d3d 0f23 ac3c
000003a0: 7ba6 0fbc 747f e83d 40cd e13c 44bc 813d
000003b0: e942 533c 0573 a2bc 203c 7c3d 79bf 993d
000003c0: 735b 763c 03f7 a53c 18bf d83c 06c3 e93b
000003d0: 354f 263c d19c 6b3d 140a 713d 8cb6 9a3d
000003e0: d0c9 5b3d da30 583d 7336 183e 6468 f0bc
000003f0: bb1d abbe c6fb 6b3c 4504 fe3d 0001 b23d

encoder.1.bias f4 [50]
0.25552022 -0.031268854 -0.029257275 -0.043611206 0.7323154 -0.0300728 -0.026688233 0.9139904
0.01786801 0.23140177 0.0067602685 0.030964732 0.814654 -0.017017802 0.006848642 0.79040945
0.9668672 1.1101077 0.0036659979 0.023067612 1.0579228 0.558214 -0.024842372 -0.006529351
-0.028878076 -0.2173756 0.306049 -0.02616599 -0.43678734 -0.020597981 -0.00072376546 0.022304254
0.7381934 0.71901894 0.5434146 0.5956563 0.3868407 0.99474925 -0.4376145 0.4921243
2.0457206 0.9780964 -0.012034234 -0.023254897 0.76324 0.86812836 -0.034420956 0.664873
1.1824366 0.00077905203
00000000: 8cd3 823e c513 00bd f4ac efbc aaa1 32bd
00000010: 0679 3b3f 3c5b f6bc 48a1 dabc 46fb 693f
00000020: ef5f 923c 96f4 6c3e 3e85 dd3b c0a9 fd3c
00000030: 2a8d 503f eb68 8bbc 936a e03b 4658 4a3f
00000040: 9c84 773f 0218 8e3f 3d41 703b 4af8 bc3c
00000050: 046a 873f 1de7 0e3f 3b82 cbbc 2bf4 d5bb
00000060: b791 ecbc b697 5ebe 74b2 9c3e 0f5a d6bc
00000070: 97a2 dfbe 19bd a8bc 14bb 3dba 69b7 b63c
00000080: 3efa 3c3f a011 383f 381d 0b3f ee7c 183f
00000090: fc0f c63e e3a7 7e3f 020f e0be b7f7 fb3e
000000a0: 16ed 0240 8764 7a3f 3c2b 45bc 0e81 bebc
000000b0: b263 433f a93d 5e3f fdfc 0cbd 1e35 2a3f
000000c0: 155a 973f 4c39 4c3a

encoder.3.weight f4 [20, 50]
-0.08056552 0.055971503 -0.035448402 0.051587958 0.15417469 0.021356747 -0.09209732 0.04360104
-0.10427753 -0.017899312 0.08343999 -0.099613436 0.07317025 0.043854725 -0.06252024 -0.115769655
0.47465062 0.11933955 0.043575957 0.043584723 -0.03112478 0.03725954 0.03191802 0.073348776
0.1343806 -0.10227451 -0.15077364 0.0041167103 -0.058417592 0.15991178 0.020963106 0.027934784
0.86011994 -0.051533893 -0.16511396 0.084123045 0.24098238 0.06940127 0.031369716 -0.14151348
0.14741328 0.010598884 -0.01612049 0.13335164 -0.011319314 -0.20951816 -0.0355964 0.19259736
-0.3429389 -0.031563133 -0.027301783 -0.03195631 0.06869946 -0.0794916 -0.104781054 -0.054241024
-0.04068051 0.083886795 0.14819957 0.10124899 -0.074447766 0.14054859 -0.0390143 -0.10917368
0.13794157 -0.012914961 -0.006187425 0.0744146 -0.08532852 0.012679745 -0.043934193 -0.4980934
-0.011525383 0.035520498 -0.078079924 0.09617226 0.08212516 0.08772167 -0.0380169 -0.016966991
0.022168035 -0.12748577 -0.11681857 0.032311864 0.1756191 0.009278685 0.089408174 0.030737365
0.3095206 -0.056688596 0.9969798 -0.08559074 0.04284549 0.042776506 -0.10879583 -0.22080982
-0.040227227 0.04197861 0.25623766 -0.018872555 -0.22763672 0.1274652 -0.0018993602 -0.20569983
-0.072368376 -0.108571894 -0.119103536 -0.013400932 -0.042798422 -0.053289365 0.12292205 0.017725995
0.072642565 -0.066365205 -0.12297686 0.11820199 0.100074366 0.120173685 -0.075653605 -0.06621592
0.21361354 0.020908782 0.06570093 0.07424329 0.095722266 0.10504927 -0.078817494 -0.08024699
-0.083867915 -0.17929743 0.039272588 0.047034092 0.37637973 -0.042394016 -0.036642645 -0.09399256
0.12574293 0.14772508 0.023277948 0.20981818 0.12080555 -0.05058479 0.09092326 -0.09382872
0.22380298 0.15521805 0.001306908 -0.032668456 0.2009857 -0.055381674 -0.044251062 -0.06328472
0.017883565 0.076260366 -0.15341455 -0.11583222 -0.016783167 -0.3268578 -0.052133825 -0.04254721
-0.00756899 0.07114024 0.1840693 0.13089731 0.037443236 -0.12161985 -0.08754289 0.122712374
-0.075343065 0.13464381 -0.35174966 -0.06692616 -0.036189087 -0.11827499 -0.043995835 0.026691632
0.09126078 -0.018210806 0.118507095 -0.1355989 0.002402668 -0.13259761 -0.1397633 -0.015264723
0.03257953 -0.07795564 0.124833755 -0.011763193 0.13442989 -0.2538554 -0.17770776 0.1575457
-0.028544692 0.05637157 0.020519093 0.17897193 -0.0034167513 -0.021478541 0.17157158 0.011900586
-0.20777892 0.04649628 -0.09067366 0.10571455 0.16623978 0.043139014 -0.07837203 0.3714263
-0.035523843 -0.15869427 0.032224778 -0.06557184 0.27238 0.11941411 -0.10276375 -0.10355679
0.024153953 0.077171326 -0.11272723 0.12857528 0.044033427 -0.28578278 0.005535951 0.04658486
-0.08010404 0.103583165 -0.17328365 -0.10843528 0.109591104 -0.12459065 0.07410605 0.011426405
0.013062919 0.074940294 -0.1292013 -0.16410841 -0.15478791 -0.18688318 0.035209652 -0.097565524
0.032932315 0.12530354 -0.10109608 0.080284745 -0.13530332 0.26336852 0.01809344 0.21437648
-0.36995107 -0.034939293 -0.17083547 0.113941185 -0.057362862 -0.019986661 -0.025440654 -0.04475608
00000000: 89ff a4bd 6042 653d 5832 11bd e54d 533d
00000010: f8df 1d3e 58f4 ae3c 859d bcbd 0197 323d
00000020: 758f d5bd 94a1 92bc 96e2 aa3d 2102 ccbd
00000030: 49da 953d 03a1 333d 9d0a 80bd a418 edbd
00000040: 6805 f33e 4b68 f43d b47c 323d e585 323d
00000050: 65f9 febc 769d 183d 78bc 023d e237 963d
00000060: 119b 093e 4c75 d1bd 6864 1abe 78e5 863b
00000070: 4947 6fbd eabf 233e d2ba ab3c 7dd7 e43c
00000080: d230 5c3f 3415 53bd a213 29be b448 ac3d
00000090: 16c4 763e 4122 8e3d 887d 003d e9e8 10be
000000a0: 82f3 163e f1a6 2d3c 1e0f 84bc 558d 083e
000000b0: a574 39bc ee8b 56be 88cd 11bd 3e38 453e
000000c0: b095 afbe 5848 01bd fda7 dfbc 9fe4 02bd
000000d0: 4db2 8c3d 7ecc a2bd 7397 d6bd d62b 5ebd
000000e0: 9ba0 26bd d7cc ab3d a1c1 173e a15b cf3d
000000f0: 1278 98bd f8eb 0f3e 75cd 1fbd 7396 dfbd
00000100: 8e40 0d3e 4699 53bc e2bf cabb af66 983d
00000110: b8c0 aebd b5be 4f3c 57f4 33bd 1906 ffbe
00000120: f6d4 3cbc f17d 113d 5ee8 9fbd f6f5 c43d
00000130: 3c31 a83d 6ba7 b33d 9cb7 1bbd 5cfe 8abc
00000140: bd99 b53c a18b 02be 933e efbd 7259 043d
00000150: 7ed5 333e a005 183c a21b b73d edcc fb3c
00000160: 7c79 9e3e 4d32 68bd 113a 7f3f 334a afbd
00000170: c17e 2f3d 6b36 2f3d 59d0 debd f81b 62be
00000180: 4ec5 24bd c3f1 2b3d 9531 833e 9e9a 9abc
00000190: 9a19 69be 3d86 023e f4f3 f8ba faa2 52be
000001a0: df35 94bd f15a debd 8eec f3bd 958f 5bbc
000001b0: 664d 2fbd f345 5abd 8ebe fb3d 1b36 913c
000001c0: a0c5 943d 7bea 87bd 4bdb fbbd e313 f23d
000001d0: caf3 cc3d 9f1d f63d 47f0 9abd 369c 87bd
000001e0: 82bd 5a3e e548 ab3c 368e 863d de0c 983d
000001f0: 090a c43d 1224 d73d 116b a1bd 8958 a4bd
00000200: f1c2 abbd bf99 37be 4bdc 203d d2a6 403d
00000210: d8b4 c03e 59a5 2dbd 9916 16bd 2c7f c0bd
00000220: c1c2 003e 3e45 173e 65b1 be3c 94da 563e
00000230: e668 f73d ff31 4fbd f935 ba3d 4629 c0bd
00000240: 9c2c 653e 7bf1 1e3e 8e4c ab3a 5ccf 05bd
00000250: 32cf 4d3e e5d7 62bd 9a40 35bd 6b9b 81bd
00000260: 8e80 923c 652e 9c3d b418 1dbe 7139 edbd
00000270: da7c 89bc e859 a7be 478a 55bd fc45 2ebd
00000280: 4a05 f8bb f9b1 913d aa7c 3c3e f209 063e
00000290: 145e 193d d413 f9bd b049 b3bd a050 fb3d
000002a0: 774d 9abd 11e0 093e 8818 b4be 9510 89bd
000002b0: 023b 14bd 283a f2bd fa34 34bd 69a8 da3c
000002c0: efe6 ba3d d42e 95bc d9b3 f23d 70da 0abe
000002d0: 1476 1d3b abc7 07be 1c1e 0fbe e418 7abc
000002e0: 1d72 053d 35a7 9fbd d7a8 ff3d 68ba 40bc
000002f0: fda7 093e 56f9 81be 06f9 35be a953 213e
00000300: 8fd6 e9bc e0e5 663d a817 a83c 6b44 373e
00000310: 93eb 5fbb c4f3 afbc 76b0 2f3e adfa 423c
00000320: ffc3 54be e272 3e3d 1db3 b9bd df80 d83d
00000330: c33a 2a3e 89b2 303d 8481 a0bd 972b be3e
00000340: 7381 11bd c080 22be 21fe 033d 874a 86bd
00000350: 6475 8b3e 638f f43d cd75 d2bd 9515 d4bd
00000360: 83de c53c 000c 9e3d 89dd e6bd 3da9 033e
00000370: 655c 343d 1f52 92be ec66 b53b c4cf 3e3d
00000380: 960d a4bd 6923 d43d 4571 31be 5113 debd
00000390: 4d71 e03d 6229 ffbd eac4 973d d135 3b3c
000003a0: da05 563c 4c7a 993d 584d 04be 090c 28be
000003b0: b980 1ebe 4e5e 3fbe ff37 103d 6fd0 c7bd
000003c0: 09e4 063d 924f 003e 760b cfbd 546c a43d
000003d0: f48c 0abe 3dd8 863e b238 943c 8285 5b3e
000003e0: 3a6a bdbe 811c 0fbd 7eef 2ebe ff59 e93d
000003f0: 52f5 6abd 11bb a3bc eb68 d0bc 2752 37bd

encoder.3.bias f4 [20]
0.46868962 0.28407532 0.35528564 -0.6446034 0.5606758 -0.9087526 -0.6603981 0.800329
0.559164 -0.919511 0.27235973 -0.29718634 0.90069216 0.19567072 0.1650439 -0.12794136
-0.3714556 -0.32579872 0.5564123 -0.67445475
00000000: 16f8 ef3e 5272 913e 00e8 b53e ba04 25bf
00000010: 7388 0f3f 03a4 68bf da0f 29bf 5de2 4c3f
00000020: 5f25 0f3f 1365 6bbf bc72 8b3e cf28 98be
00000030: c393 663f e85d 483e 4501 293e 0f03 03be
00000040: 6e2f bebe 17cf a6be 0971 0e3f 11a9 2cbf

decoder.0.weight f4 [50, 20]
0.19982119 0.46401662 0.16781794 0.03401343 -0.07297955 0.0053734574 0.13516851 0.051136237
0.2374946 -0.06191393 0.39942053 0.076369464 -0.21671611 -0.16225024 -0.17568503 -0.14826044
0.033409536 -0.18454817 0.35097167 -0.17046234 0.13976432 0.060689613 -0.2599352 0.06275776
-0.12942792 0.11120607 -0.065355524 -0.16292801 -0.012890045 0.40300468 0.11812501 0.103223026
-0.25660813 0.123528354 0.18355264 -0.1658919 0.245423 0.10461696 0.15254301 0.13577561
0.30350855 -0.2257037 -0.03244467 0.07607791 -0.15412231 -0.27381778 -0.15406837 0.020105952
0.1393243 0.13920379 0.2522269 0.22814034 -0.2985743 0.07427577 0.16376136 -0.1665527
0.11777457 0.07043552 -0.20966682 0.13274662 -0.286973 0.0150060775 0.24031684 -0.2100882
-0.38586903 -0.16526355 0.35231128 -0.009820837 0.46082094 -0.09958688 0.10294908 -0.2275017
-0.018115286 0.082936 -0.23733029 0.1588705 -0.29537684 0.08081275 -0.36270335 0.26638255
0.019524941 0.21605596 0.19063061 0.073582955 0.19375831 -0.039350897 -0.299352 0.036496304
0.00034651227 -0.013584803 -0.14734972 -0.32739958 -0.1304022 0.16631307 0.54266626 0.04868734
0.1031671 -0.079815626 0.22808407 -0.07804006 -0.16484025 -0.52593917 0.5904349 0.5071022
0.18314868 0.29485777 -0.49955693 -0.20201038 0.0967882 -0.34645978 -0.1148877 -0.24954782
-0.41272187 -0.017509628 -0.11509431 -0.4504518 0.0075733955 -0.16244416 -0.2043759 -0.24851659
0.101270296 -0.17192411 0.19944929 -0.09239834 -0.06428567 -0.0214782 -0.2146712 -0.26997516
0.28844288 -0.16453375 -0.02978855 0.003196948 0.011618728 -0.14229019 -0.0732712 0.43614826
0.14744408 0.18570124 0.3324442 -0.03684407 -0.28567973 -0.12033936 0.108911894 -0.16417488
0.1365042 -0.04385064 0.09215921 -0.051217657 0.07030535 -0.57728624 -0.13858277 -0.10148575
0.08336424 -0.11440577 0.39992702 -0.40476772 0.15789165 0.09814785 0.20676912 0.4647137
0.20727435 0.11561967 0.12663746 -0.15817341 0.18711416 -0.29492724 0.17623504 -0.061466895
0.21932992 0.3024861 0.072257005 0.19864 0.0009796596 -0.1619326 0.10618779 0.13980688
0.28600815 -0.05758811 0.118304476 -0.13221996 -0.09797422 -0.11594443 0.23892379 0.121523045
0.00047118706 -0.22642757 0.014404216 0.09939469 0.21453673 0.11252623 -0.00044141884 0.09831499
0.005067006 -0.3187553 0.14420323 -0.15557812 -0.3128981 -0.2548877 0.14472501 0.12957676
-0.08151435 -0.004185751 0.14436385 -0.1328507 -0.021566289 -0.21277131 -0.29042992 0.22281146
-0.18633972 -0.06929544 0.57177687 0.44563487 -0.45643237 0.13693477 0.36046973 0.23878573
-0.05806934 0.345214 -0.105106905 0.060150534 0.048890952 0.46584335 -0.20165926 -0.005111598
0.13169107 0.01317492 -0.031255595 0.07126919 0.06765575 -0.22946046 0.009981409 0.0625567
-0.07722281 -0.1534721 0.11457678 -0.2359334 0.06884861 0.02454446 0.024841672 -0.2630946
-0.053040776 0.08828867 0.17459221 0.14140357 0.17640099 0.09480461 0.26369464 -0.109034166
0.23858693 -0.0038380085 0.001734811 0.044676058 -0.19631958 0.047189437 0.089406155 -0.06106215
00000000: ed9d 4c3e 9693 ed3e 77d8 2b3e ab51 0b3d
00000010: 4d76 95bd d413 b03b 9d69 0a3e 3b74 513d
00000020: c931 733e 7699 7dbd d980 cc3e 9867 9c3d
00000030: d4ea 5dbe ed24 26be c7e6 33be 96d1 17be
00000040: 70d8 083d 32fa 3cbe 8fb2 b33e ae8d 2ebe
00000050: 611e 0f3e ac95 783d 3a16 85be 2487 803d
00000060: c188 04be 02c0 e33d 1ed9 85bd 9ad6 26be
00000070: c430 53bc a156 ce3e 86eb f13d 9866 d33d
00000080: 2462 83be 6ffc fc3d 39f5 3b3e 91df 29be
00000090: 2b50 7b3e 6b41 d63d 3c34 1c3e c308 0b3e
000000a0: 7965 9b3e df1e 67be b4e4 04bd bcce 9b3d
000000b0: 3dd2 1dbe d831 8cbe 19c4 1dbe 3db5 a43c
000000c0: 08ab 0e3e 708b 0e3e e223 813e 9f9d 693e
000000d0: bbde 98be e51d 983d 0fb1 273e ca8c 2abe
000000e0: cb33 f13d 7f40 903d e6b2 56be bbee 073e
000000f0: 20ee 92be 0ddc 753c 9e15 763e 5c21 57be
00000100: a090 c5be d93a 29be 2562 b43e 93e7 20bc
00000110: b9f0 eb3e 35f4 cbbd f8d6 d23d 35f6 68be
00000120: 8266 94bc 59da a93d b606 73be f3ae 223e
00000130: a23b 97be 2881 a53d 41b4 b9be 4b63 883e
00000140: c5f2 9f3c c63d 5d3e ac34 433e a9b2 963d
00000150: 9468 463e 682e 21bd aa44 99be 267d 153d
00000160: 17ac b539 cb92 5ebc d8e2 16be eba0 a7be
00000170: 2888 05be f94d 2a3e 2dec 0a3f 606c 473d
00000180: 4649 d33d 6076 a3bd df8e 693e 78d3 9fbd
00000190: e2cb 28be f3a3 06bf be26 173f 73d1 013f
000001a0: 548b 3b3e 99f7 963e edc5 ffbe cfdb 4ebe
000001b0: e438 c63d 2d63 b1be 3e4a ebbd 7789 7fbe
000001c0: 4850 d3be 5a70 8fbc 91b6 ebbd 9ea1 e6be
000001d0: 3f2a f83b c357 26be ea47 51be 227b 7ebe
000001e0: cd66 cf3d e00c 30be 6f3c 4c3e 573b bdbd
000001f0: 35a8 83bd 0df3 afbc c4d2 5bbe 2f3a 8abe
00000200: c9ae 933e 897b 28be 1e07 f4bc e383 513b
00000210: 7a5c 3e3c 85b4 11be 360f 96bd d34e df3e
00000220: 95fb 163e 7728 3e3e 2036 aa3e cfe9 16bd
00000230: 9d44 92be 7b74 f6bd 330d df3d 761d 28be
00000240: c2c7 0b3e bb9c 33bd f8bd bc3d 9bc9 51bd
00000250: 40fc 8f3d 08c9 13bf a4e8 0dbe c3d7 cfbd
00000260: dfba aa3d 934d eabd 3cc3 cc3e b73d cfbe
00000270: 59ae 213e bd01 c93d 49bb 533e f4ee ed3e
00000280: ba3f 543e 01ca ec3d 40ad 013e 36f8 21be
00000290: db9a 3f3e b400 97be f576 343e b6c4 7bbd
000002a0: 0698 603e 75df 9a3e 7bfb 933d 4968 4b3e
000002b0: ec67 803a a9d1 25be fc78 d93d 8929 0f3e
000002c0: a96f 923e 83e1 6bbd 9e49 f23d ab64 07be
000002d0: b5a6 c8bd 4674 edbd 70a8 743e 13e1 f83d
000002e0: a809 f739 a1dc 67be a9ff 6b3c 718f cb3d
000002f0: 84af 5b3e 2774 e63d 3c6e e7b9 5f59 c93d
00000300: 2109 a63b e533 a3be 03aa 133e df4f 1fbe
00000310: 2e34 a0be a480 82be cb32 143e c5af 043e
00000320: fff0 a6bd a028 89bb 1ed4 133e 040a 08be
00000330: c9ab b0bc b9e0 59be 3bb3 94be b028 643e
00000340: d7cf 3ebe c5ea 8dbd f85f 123f 412a e43e
00000350: 81b1 e9be a138 0c3e 7d8f b83e 3f84 743e
00000360: 1eda 6dbd e4bf b03e 4a42 d7bd 6860 763d
00000370: e141 483d 0583 ee3e c47f 4ebe 317f a7bb
00000380: 06da 063e 9fdb 573c de05 00bd 95f5 913d
00000390: 198f 8a3d aff7 6abe 1089 233c ba1d 803d
000003a0: fe26 9ebd ca27 1dbe 3ba7 ea3d 8698 71be
000003b0: 8000 8d3d 7711 c93c c380 cb3c 56b4 86be
000003c0: 4941 59bd b1d0 b43d 4dc8 323e 19cc 103e
000003d0: 76a2 343e eb28 c23d fc02 873e 4e4d dfbd
000003e0: 2250 743e 1987 7bbb 9962 e33a 3efe 363d
000003f0: 0008 49be b649 413d 931a b73d 4e1c 7abd

decoder.0.bias f4 [50]
0.7842183 0.37333906 0.85108894 0.07635634 -0.73398876 -0.3262556 0.4241674 -0.69241494
-1.0803638 1.0795338 -0.67636746 -0.39792922 1.7130113 -0.20795067 -0.14174026 -0.37829974
-0.9425536 0.75990003 0.49282274 -0.39724103 -0.80641025 -0.08096434 -0.8138521 -0.3320335
0.8141737 -1.0243797 1.1010147 0.17852463 -0.81242174 -0.08984006 0.9059969 0.85649717
-0.29355565 0.6957568 -0.9416654 -0.5639263 -0.7394201 0.12534098 0.09850047 0.022716057
1.7074473 1.6816443 0.46064717 -0.19460258 0.1710515 1.2582599 0.6501481 0.008385481
-0.068504356 -0.6415017
00000000: 88c2 483f 4c26 bf3e f7e0 593f b660 9c3d
00000010: b0e6 3bbf f90a a7be 782c d93e 1b42 31bf
00000020: 5c49 8abf 2a2e 8a3f 6b26 2dbf 61bd cbbe
00000030: f443 db3f 05f1 54be 5c24 11be 81b0 c1be
00000040: 314b 71bf cf88 423f 4353 fc3e 2d63 cbbe
00000050: e770 4ebf a2d0 a5bd 9c58 50bf 4b00 aabe
00000060: b06d 503f e01e 83bf 0dee 8c3f 29cf 363e
00000070: dffa 4fbf 11fe b7bd 6aef 673f 6643 5b3f
00000080: ed4c 96be 1e1d 323f fc10 71bf 795d 10bf
00000090: a34a 3dbf 6359 003e 9dba c93d 0617 ba3c
000000a0: a28d da3f 1f40 d73f f2d9 eb3e e645 47be
000000b0: 2028 2f3e a90e a13f 1b70 263f 4263 093c
000000c0: 034c 8cbd 7539 24bf

decoder.2.weight f4 [784, 50]
-0.17113645 -0.20469172 -0.23416883 -0.05892509 -0.13381393 -0.07812249 -0.062169172 -0.118887216
-0.38087842 -0.030863596 -0.28938144 -0.13241683 -0.10331875 0.02113637 -0.7125856 -0.169291
-0.08753021 -0.064439155 -0.17488901 -0.19421369 0.003464762 0.10374107 -0.48469898 -0.17995055
-0.5739087 -0.17290255 -0.25108805 -0.37507167 -0.14336245 -0.05751564 -0.4859164 0.012424268
-0.29494068 -0.14575411 -0.014822953 -0.14057392 0.0061513027 -0.08016842 -0.022681015 0.0065900995
-0.29526702 -0.20551282 0.015015962 -0.10905589 -0.19637994 -0.2751406 -0.10309692 -0.15091059
-0.36081287 -0.087456115 0.018847559 -0.12932165 0.025689874 -0.14955904 0.00031305198 -0.16325097
-0.14520189 -0.15552087 -0.37699488 -0.0072950227 -0.08963082 -0.013783252 -0.06009401 -0.10680955
-0.80658513 -0.06306321 -0.083417125 0.025833165 -0.1020755 -0.030224297 0.06309169 -0.103546925
-0.5298892 -0.22349806 -0.92268 -0.30232492 -0.10533134 -0.70045036 0.008264237 0.042891435
-0.4392099 -0.20111439 -0.37799639 -0.11411126 0.00566661 -0.016582692 -0.042882938 -0.11363608
-0.16588832 -0.001173278 -0.41213846 -0.1605583 0.0036111227 -0.12524344 -0.104138814 -0.33011833
-0.18838531 -0.19894052 -0.27814 -0.09736473 -0.0032687343 -0.001776856 -0.107458 -0.292964
-0.22316483 -0.08180469 -0.22934794 -0.05919217 -0.04452243 -0.013548834 -0.24671152 -0.084559314
-0.020209566 0.039539464 -0.3505882 -0.0777129 -0.16177745 -0.09162408 -0.01108211 -0.13459884
-0.13074581 0.018905597 -0.12111073 0.10720778 -1.158353 -0.16634794 -0.11845375 -0.26116493
-0.3248348 -0.10911714 -0.41868368 -0.13788898 -0.42618293 -0.10245974 -0.13330336 0.01866614
-0.10556737 0.028242469 -0.20684026 0.0785908 -0.17021601 -0.13939467 -0.16189684 0.06264335
0.07686047 -0.33059075 -0.004052607 -0.52368575 0.002022673 -0.31141773 0.118635565 0.20507912
0.19656232 -0.412359 -0.056869555 -0.024520459 -0.40047836 -0.3109792 0.011518855 0.028607747
-0.5498185 -0.3020636 -0.27141574 -0.031668052 -0.06287032 0.17368798 -0.26072946 0.005799809
0.022743393 -0.56041384 -0.8197644 -0.26179573 0.025024787 -0.42223704 -0.56279093 -0.0965483
0.05536961 -0.06383 -0.3799482 -0.09220067 -0.10480605 -0.04358757 -0.48044217 -0.49257258
-0.9014821 -0.27894887 -0.15177402 -0.030121954 -0.19412464 0.1285799 -0.14144504 -0.47055364
-0.20934194 0.092232734 0.27673474 -1.1334194 -0.316916 -0.25294852 -0.040740263 -0.8250886
0.27980566 0.34311795 0.22492725 -0.51954514 0.029659443 -0.0876935 -0.54595745 -0.16211988
-0.006431268 0.07196917 -0.67172104 -0.07650921 -0.55885774 0.06750995 0.12065359 -0.08065436
0.014215919 0.14171703 0.31388834 -0.2732689 -0.38550037 -0.2116496 0.073430665 0.03229928
-0.58116245 0.1690265 0.0012365122 -0.076907076 -0.21445552 -0.08670941 -0.19424285 -0.29047316
-0.38557306 -0.23619393 -0.6862595 -0.27480698 -0.06862442 0.19383454 0.123174764 0.16539587
-0.95301646 -0.27369168 -0.000350026 -0.013844568 -0.0006258305 -0.60656047 -0.25106978 0.13683107
0.22235015 -0.5473371 -0.01050957 0.45827594 -0.13661827 -0.41349548 -0.1383376 -0.085014336
00000000: 653e 2fbe b59a 51be f4c9 6fbe 6f5b 71bd
00000010: 8506 09be affe 9fbd 1aa5 7ebd 247b f3bd
00000020: 7f02 c3be a7d5 fcbc ce29 94be 4798 07be
00000030: c898 d3bd 2e26 ad3c 036c 36bf 9f5a 2dbe
00000040: 0a43 b3bd adf8 83bd 1b16 33be f4df 46be
00000050: 0f11 633b 3376 d43d 772a f8be f544 38be
00000060: aeeb 12bf 5e0d 31be 9d8e 80be 6509 c0be
00000070: 9bcd 12be 8595 6bbd 09ca f8be 288f 4b3c
00000080: 7702 97be 9140 15be f9db 72bc 9cf2 0fbe
00000090: de90 c93b 572f a4bd 89cd b9bc c3f1 d73b
000000a0: 3d2d 97be f471 52be 8205 763c b258 dfbd
000000b0: d317 49be 3bdf 8cbe 7a24 d3bd 4e88 1abe
000000c0: 77bc b8be 311c b3bd 3266 9a3c e56c 04be
000000d0: 9273 d23c 0126 19be 2021 a439 432b 27be
000000e0: ceaf 14be dd40 1fbe 7905 c1be 160b efbb
000000f0: 5d90 b7bd 26d3 61bc 2325 76bd f7be dabd
00000100: 5d7c 4ebf 4927 81bd 99d6 aabd 13a0 d33c
00000110: f60c d1bd f298 f7bc 3736 813d 6910 d4bd
00000120: d2a6 07bf addc 64be c234 6cbf 55ca 9abe
00000130: f5b7 d7bd b750 33bf b966 073c eeae 2f3d
00000140: 1fe0 e0be eef0 4dbe be88 c1be 2ab3 e9bd
00000150: f8ae b93b 6dd8 87bc 05a6 2fbd 08ba e8bd
00000160: a1de 29be adc8 99ba d003 d3be 6569 24be
00000170: 96a8 6c3b d13f 00be bb46 d5bd 4505 a9be
00000180: 14e8 40be 10b7 4bbe 5e68 8ebe 2967 c7bd
00000190: 4338 56bb 65e5 e8ba f112 dcbd 61ff 95be
000001a0: 5285 64be 3889 a7bd 30da 6abe 7d73 72bd
000001b0: 275d 36bd eefb 5dbc f2a1 7cbe 6f2d adbd
000001c0: 888e a5bc 22f4 213d 4c80 b3be f127 9fbd
000001d0: fda8 25be 68a5 bbbd bd91 35bc 47d4 09be
000001e0: 3be2 05be e9df 9a3c e708 f8bd c18f db3d
000001f0: e944 94bf 1d57 2abe e197 f2bd 69b7 85be
00000200: bf50 a6be cf78 dfbd b55d d6be c532 0dbe
00000210: a634 dabe 6ad6 d1bd ad80 08be bce9 983c
00000220: b533 d8bd c05c e73c efcd 53be 37f4 a03d
00000230: 1b4d 2ebe 7abd 0ebe 49c8 25be 284b 803d
00000240: 0669 9d3d 3143 a9be bbcb 84bb 4510 06bf
00000250: d28e 043b 2572 9fbe 34f7 f23d 4300 523e
00000260: a247 493e b820 d3be 0df0 68bd 21df c8bc
00000270: 800b cdbe aa38 9fbe 94b9 3c3c cb5a ea3c
00000280: e8c0 0cbf 15a8 9abe 01f7 8abe 5cb6 01bd
00000290: 28c2 80bd 43db 313e 557e 85be 530c be3b
000002a0: 5a50 ba3c 4877 0fbf 14dc 51bf 170a 86be
000002b0: c800 cd3c 742f d8be 1113 10bf 1dbb c5bd
000002c0: 3fcb 623d 4eb9 82bd 9288 c2be b4d3 bcbd
000002d0: 8ea4 d6bd e188 32bd 84fc f5be 7932 fcbe
000002e0: 88c7 66bf 63d2 8ebe a66a 1bbe 51c2 f6bc
000002f0: 9cc8 46be 73aa 033e f8d6 10be 68ec f0be
00000300: bc5d 56be 84e4 bc3d 2db0 8d3e e313 91bf
00000310: d042 a2be 7882 81be 43df 26bd 0239 53bf
00000320: b042 8f3e 28ad af3e 5453 663e e900 05bf
00000330: 5cf8 f23c a698 b3bd dec3 0bbf c102 26be
00000340: 63bd d2bb 9264 933d e9f5 2bbf dcb0 9cbd
00000350: 4d11 0fbf a842 8a3d 3b19 f73d 1d2e a5bd
00000360: e3e9 683c 451e 113e f9b5 a03e e7e9 8bbe
00000370: 4e60 c5be acba 58be d162 963d 404c 043d
00000380: 10c7 14bf 4815 2d3e 7712 a23a 7581 9dbd
00000390: 3a9a 5bbe b494 b1bd 99e7 46be e6b8 94be
000003a0: d569 c5be d2dc 71be b4ae 2fbf 80b3 8cbe
000003b0: f68a 8cbd 907c 463e 0d43 fc3d 895d 293e
000003c0: e3f8 73bf 5121 8cbe b283 b7b9 54d4 62bc
000003d0: c60e 24ba 8c47 1bbf 388c 80be 721d 0c3e
000003e0: c2af 633e 491e 0cbf 5530 2cbc 25a3 ea3e
000003f0: a9e5 0bbe aeb5 d3be 5fa8 0dbe ff1b aebd

decoder.2.bias f4 [784]
-0.15251704 -0.10011155 0.17466831 0.13633586 0.05302927 0.110859364 -0.01953467 -0.22799209
-0.17108995 -0.32148063 -0.45048338 -0.5768284 -0.6252924 -0.34246323 -0.40395823 -0.4970008
-0.47614616 -0.510887 -0.44940218 -0.10993325 -0.015184365 -0.11787183 -0.244312 -0.04704596
-0.04428549 0.04060598 0.021161595 -0.012642307 -0.16462399 0.06340986 0.29143396 0.083459444
0.21934699 0.16467686 0.12617347 -0.079180144 -0.06495885 -0.22340755 -0.3565826 -0.49547458
-0.5479556 -0.32421774 -0.38788357 -0.32732946 -0.6224044 -0.6575453 -0.40064943 -0.29042637
-0.07949346 0.20948507 0.08386129 0.2807229 0.16708763 0.21784723 0.17171656 0.056620345
0.02738163 0.1122327 0.21754822 0.35520285 0.39682323 0.41007942 0.04239442 -0.05622263
0.031156888 -0.19814259 -0.4315012 -0.58478034 -0.59144986 -0.42854822 -0.5192839 -0.55170226
-0.3526948 -0.67173856 -0.72747713 -0.3310984 -0.1377963 0.052588988 0.31332064 0.49178463
0.54360807 0.45081663 0.010603498 -0.05604731 0.13529822 0.18340977 0.013642458 0.35030758
0.5473696 0.23756753 -0.18801102 -0.0552631 -0.30081058 -0.18665472 -0.51663965 -0.49607256
-0.3761048 -0.3346375 -0.28402922 -0.38108212 -0.30138817 -0.45705888 -0.3917655 -0.21173505
0.10844037 0.13094871 0.15088536 0.5593599 0.6338381 0.49861607 0.00620527 -0.19167447
0.06519083 0.09126261 0.10670195 0.52377075 0.5876903 0.14071956 -0.24995725 -0.028000638
0.07574656 -0.06370343 -0.39926696 -0.25057882 -0.41453794 -0.36713472 -0.3181258 -0.35536304
-0.24255434 -0.33610165 -0.28125754 -0.12181021 0.07968702 0.13548748 0.0016896661 0.36672595
0.63078207 0.46818277 0.04852718 -0.39006513 0.19620919 -0.012014499 0.31876007 0.49969313
0.5413938 0.041868612 -0.17112206 0.049742892 0.18708038 0.043028694 -0.16818833 -0.21343283
-0.179863 -0.17403737 -0.034184683 -0.0078239245 -0.052269205 -0.10615179 -0.07987638 0.038158845
0.31662768 -0.028131297 -0.078406945 0.24609204 0.64410466 0.3781124 -0.08202217 -0.18068212
0.15431242 0.078350104 0.31243345 0.48964167 0.42096183 -0.19130298 -0.30411395 0.21762508
0.16041285 0.28382692 -0.17236404 -0.18652737 0.081387974 0.1448377 0.16383028 0.0063022925
0.03913807 0.06283619 0.13658728 0.173981 0.22299214 0.11513599 -0.07248111 0.14396591
0.6456752 0.541653 -0.06832679 -0.1531558 -0.016492939 0.034214392 0.20938206 0.33828044
0.069163755 -0.4261466 -0.05969652 -0.054331984 0.09549543 0.24480328 -0.10137866 0.028855985
0.04702718 -0.037608836 0.27043167 -0.10704322 -0.123022415 0.25215998 0.13604744 0.13665217
0.1451091 0.037505407 -0.21322593 -0.021973982 0.15838052 0.19495445 -0.1714006 -0.15302481
0.13944244 0.04010115 0.119136915 0.13129771 -0.15866129 -0.55838174 -0.16054004 -0.050873272
-0.2674554 0.1036146 -0.16569386 -0.24803394 -0.28023884 -0.20217933 0.056115907 -0.2481733
-0.25335622 -0.039467774 -0.04122914 0.022738589 -0.038981825 -0.05555813 -0.24132563 -0.27633387
-0.1267773 0.093933076 -0.33456683 -0.37602043 -0.013728157 0.02422909 -0.09525863 -0.09671036
00000000: 6d2d 1cbe 4907 cdbd 40dc 323e a19b 0b3e
00000010: 3835 593d 3c0a e33d 2c07 a0bc c276 69be
00000020: 3432 2fbe 1c99 a4be c2a5 e6be 07ab 13bf
00000030: 2a13 20bf 5757 afbe 9dd3 cebe e476 febe
00000040: 6ec9 f3be 7ec9 02bf 0b18 e6be af24 e1bd
00000050: d8c7 78bc c966 f1bd ed2c 7abe 44b3 40bd
00000060: b464 35bd 7552 263d 155b ad3c ae21 4fbc
00000070: 3193 28be 07dd 813d d536 953e c9ec aa3d
00000080: 7f9c 603e 0da1 283e 9e33 013e 3329 a2bd
00000090: 2509 85bd f3c4 64be ff91 b6be d8ae fdbe
000000a0: d146 0cbf deff a5be ad98 c6be ba97 a7be
000000b0: e555 1fbf e454 28bf ec21 cdbe c4b2 94be
000000c0: 78cd a2bd 4183 563e 78bf ab3d e9ba 8f3e
000000d0: 0519 2b3e 5813 5f3e 77d6 2f3e bcea 673d
000000e0: 714f e03c 42da e53d f6c4 5e3e 26dd b53e
000000f0: 6a2c cb3e eef5 d13e c5a5 2d3d b349 66bd
00000100: bb3c ff3c e4e5 4abe baed dcbe 2ab4 15bf
00000110: 4269 17bf ac6a dbbe caef 04bf 5c3c 0dbf
00000120: 6a94 b4be 0ff7 2bbf f13b 3abf bb85 a9be
00000130: 791a 0dbe 8d67 573d 906b a03e 32cb fb3e
00000140: e629 0b3f 70d1 e63e 4bba 2d3c dd91 65bd
00000150: 9e8b 0a3e c5cf 3b3e 9e84 5f3c 845b b33e
00000160: 6a20 0c3f e744 733e f685 40be 8f5b 62bd
00000170: d803 9abe 6a22 3fbe 7f42 04bf 39fd fdbe
00000180: cf90 c0be 9b55 abbe 476c 91be 321d c3be
00000190: 8d4f 9abe 9f03 eabe 7d95 c8be 13d1 58be
000001a0: fc15 de3d 6b17 063e b181 1a3e 3632 0f3f
000001b0: 3743 223f 9b4a ff3e 9455 cb3b 5046 44be
000001c0: c582 853d e4e7 ba3d 8d86 da3d d715 063f
000001d0: df72 163f ca18 103e cbf4 7fbe 9861 e5bc
000001e0: 0321 9b3d f276 82bd b86c ccbe de4b 80be
000001f0: 513e d4be 15f9 bbbe 63e1 a2be 25f2 b5be
00000200: 2a60 78be 8415 acbe fd00 90be a277 f9bd
00000210: f332 a33d 3bbd 0a3e c977 dd3a 81c3 bb3e
00000220: ef7a 213f a7b5 ef3e 70c4 463d 9eb6 c7be
00000230: 10eb 483e 76d8 44bc 8534 a33e c7d7 ff3e
00000240: c998 0a3f 6c7e 2b3d 9f3a 2fbe 34bf 4b3d
00000250: 0092 3f3e db3e 303d 9039 2cbe 238e 5abe
00000260: 022e 38be da36 32be 3d05 0cbd eb2f 00bc
00000270: 3c18 56bd 1c66 d9bd 3a96 a3bd 734c 1c3d
00000280: 061d a23e 9b73 e6bc d293 a0bd 8dff 7b3e
00000290: 0be4 243f f397 c13e 3dfb a7bd bc04 39be
000002a0: 1304 1e3e 0576 a03d 47f7 9f3e 50b2 fa3e
000002b0: 4f88 d73e eee4 43be d3b4 9bbe 1cd9 5e3e
000002c0: 4443 243e c351 913e 3380 30be 0801 3fbe
000002d0: bdae a63d 5650 143e 20c3 273e 7683 ce3b
000002e0: 3e4f 203d 43b0 803d 89dd 0b3e 1328 323e
000002f0: 0d58 643e 6bcc eb3d fa70 94bd cd6b 133e
00000300: f84a 253f c5a9 0a3f ebee 8bbd e0d4 1cbe
00000310: 331c 87bc 6424 0c3d 4068 563e 1833 ad3e
00000320: baa5 8d3d e32f dabe 5784 74bd 378b 5ebd
00000330: 1c93 c33d b6ad 7a3e 9d9f cfbd 6363 ec3c
00000340: 939f 403d b90b 1abd 0576 8a3e 7a39 dbbd
00000350: 2df3 fbbd 1d1b 813e 0550 0b3e 8cee 0b3e
00000360: 7b97 143e 459f 193d e657 5abe c802 b4bc
00000370: 812e 223e 24a2 473e a483 2fbe 89b2 1cbe
00000380: 00ca 0e3e 1a41 243d 0efe f33d e872 063e
00000390: 1b78 22be 1bf2 0ebf 9c64 24be 7e60 50bd
000003a0: eaef 88be e433 d43d a7ab 29be 9cfc 7dbe
000003b0: 777b 8fbe 1908 4fbe cbd9 653d 2421 7ebe
000003c0: e8b7 81be f6a8 21bd e3df 28bd 4746 ba3c
000003d0: 68ab 1fbd ec90 63bd 111e 77be a27b 8dbe
000003e0: e9d1 01be fc5f c03d 584c abbe c085 c0be
000003f0: 10ec 60bc 167c c63c f516 c3bd 1510 c6bd
