paper/notebooks/AE_centralized_pretraining/pre-training/3 channels/pre-trained-ae-cifar100.pt (torch, 205031 bytes, 36 tensors)

encoder.0.weight f4 [12, 3, 4, 4]
-0.26485926 0.28688982 -0.058171045 -0.072101325 -0.059180096 0.34821314 0.1117916 0.10339593
0.012510177 0.31063372 0.38033313 0.057444178 -0.2620084 0.20824839 -0.24459273 -0.13151397
-0.16721326 0.2530529 -0.2095534 -0.14206155 0.109529704 0.17137143 -0.07520705 -0.025144786
0.118590586 0.36109483 0.014443158 -0.02646688 -0.027372329 0.26095638 -0.09682582 -0.1162286
0.0108052045 0.38237554 0.061137646 0.0027210184 0.2990993 0.7519039 0.8752262 0.111447066
0.3823673 1.3601187 1.255586 0.18229856 0.03594648 0.30044177 0.084899396 -0.018408623
-0.035637826 0.028880991 -0.18444526 -0.10861341 0.18351279 0.40642777 0.051997617 -0.00027491144
-0.19638866 0.09236645 -0.38707358 -0.17836629 0.083838396 -0.080464095 -0.051142614 0.16169554
-0.049192693 0.37643498 -0.15237367 -0.06630802 0.27121976 0.5959425 0.2061485 -0.07414517
-0.32054937 -0.044665772 -0.21808094 -0.15939324 -0.15137684 -0.048356008 -0.2259751 0.0047996487
-0.08218206 0.4024305 0.12052403 -0.17598689 0.34145376 1.1586363 0.7343154 0.250948
0.05715886 0.763384 0.24176793 0.08302168 -0.10013275 -0.04306008 -0.023286965 -0.044705763
-0.03973294 -0.09440296 0.030702572 -0.09589987 -0.13357544 -0.43267414 0.02060419 -0.1667267
0.1997722 0.20964344 0.5766445 0.087203674 0.011569285 -0.094393216 -0.037341405 -0.09519054
-0.13894549 -0.19398129 0.05603553 -0.08422042 -0.2505353 -0.34465483 0.07701931 -0.12482738
0.089392245 0.15760317 0.60285854 0.17218344 -0.1722191 -0.19092032 0.06346087 -0.14082107
0.063649714 -0.05183681 0.3018463 -0.0064976704 -0.104149744 -0.08077237 0.30288327 -0.0962046
0.22631179 0.43615946 0.8101952 0.273995 -0.090683155 -0.14005561 0.15642238 -0.0948153
-0.015304038 -0.0069799796 0.27880207 0.056780424 -0.20011705 -0.501908 0.054867536 0.029734364
0.12973326 -0.0023674723 0.3174713 0.21638115 -0.05538207 0.04636068 0.1014533 -0.19418196
-0.1415591 -0.32111207 0.10281704 0.044463158 -0.12604743 -0.63844466 -0.019229483 0.02415876
0.21326128 0.20218097 0.29734892 0.19153826 0.14281243 0.06661247 0.08461707 0.06569665
0.18327639 -0.31119633 -0.03759575 0.147369 -0.22815622 -1.7574481 -0.8198441 -0.13450928
-0.037989248 -0.6126918 -0.3256674 -0.22556487 0.13021284 0.14516585 0.10030459 0.151882
-0.15852353 0.08157861 -0.02898974 -0.23372494 0.19625753 0.121560074 0.1667921 0.18163936
0.22218128 -0.25228807 -0.35033762 0.06627307 0.030772854 -0.31304204 -0.4776432 0.039308026
-0.013107136 0.054563545 0.053225055 0.001656875 0.10193615 0.0009239108 -0.05796086 0.08051521
-0.041658152 -0.4159472 -0.42305613 0.19384658 -0.21683407 -0.6858564 -0.66557187 -0.017167464
0.039238513 -0.08863398 -0.009979172 -0.03869559 -0.042774413 -0.14267544 -0.2645394 0.033676274
-0.118882336 -0.24508776 -0.2625165 -0.09791979 -0.46953982 -0.8584306 -0.7603405 -0.24856412
-0.05903393 0.035603113 -0.11504704 -0.049299035 -0.22210106 0.3002353 -0.3378983 -0.10996027
0.0036678177 0.56659806 -0.10691477 -0.11432212 -0.08489972 0.053885955 -0.1796901 -0.019570401
00000000: a29b 87be 39e3 923e c344 6ebd dca9 93bd
00000010: d466 72bd fe48 b23e fff2 e43d 3fc1 d33d
00000020: 7cf7 4c3c 620b 9f3e 06bb c23e 964a 6b3d
00000030: f725 86be 113f 553e 8476 7abe 99ab 06be
00000040: f439 2bbe 2690 813e 2b95 56be 9578 11be
00000050: 1c51 e03d fe7b 2f3e 2706 9abd 70fc cdbc
00000060: 9fdf f23d 6ce1 b83e ffa2 6c3c 12d1 d8bc
00000070: ef3b e0bc 139c 853e 9e4c c6bd 4309 eebd
00000080: 5008 313c bac6 c33e 786b 7a3d 1d53 323b
00000090: 8b23 993e c67c 403f d30e 603f 5c3e e43d
000000a0: a6c5 c33e 5f18 ae3f 0bb7 a03f 79ac 3a3e
000000b0: 9e3c 133d 81d3 993e bcdf ad3d aecd 96bc
000000c0: f8f8 11bd d497 ec3c 38df 3cbe b570 debd
000000d0: c7ea 3b3e 4d17 d03e 74fb 543d fd21 90b9
000000e0: 1c1a 49be 9f2a bd3d 822e c6be a7a5 36be
000000f0: 77b3 ab3d 5cca a4bd eb7a 51bd 8493 253e
00000100: 477e 49bd 16bc c03e d807 1cbe 80cc 87bd
00000110: 51dd 8a3e b08f 183f 9818 533e 6cd9 97bd
00000120: 0c1f a4be 75f3 36bd 9c50 5fbe fb37 23be
00000130: 8802 1bbe f310 46bd 0466 67be 5f46 9d3b
00000140: 114f a8bd 5f0b ce3e 4dd5 f63d e835 34be
00000150: 07d3 ae3e 324e 943f 18fc 3b3f 427c 803e
00000160: 691f 6a3d 226d 433f 0392 773e 4507 aa3d
00000170: 6612 cdbd c45f 30bd 4ec4 bebc 641d 37bd
00000180: 02bf 22bd 5756 c1bd f683 fb3c 2767 c4bd
00000190: 00c8 08be 7787 ddbe 1eca a83c 67ba 2abe
000001a0: 1591 4c3e c5ac 563e f99e 133f d797 b23d
000001b0: 198d 3d3c 3b51 c1bd 4df3 18bd 42f3 c2bd
000001c0: ba47 0ebe 08a3 46be 8385 653d c17b acbd
000001d0: 2a46 80be 9976 b0be 4dbc 9d3d 7fa5 ffbd
000001e0: 4813 b73d ba62 213e f054 1a3f db50 303e
000001f0: 345a 30be 9e80 43be c6f7 813d 6633 10be
00000200: c85a 823d d652 54bd 998b 9a3e 69ea d4bb
00000210: 764c d5bd fc6b a5bd 8413 9b3e eb06 c5bd
00000220: 47be 673e 4b50 df3e f468 4f3f 1349 8c3e
00000230: 17b8 b9bd bd6a 0fbe 302d 203e 862e c2bd
00000240: cabd 7abc 50b8 e4bb 25bf 8e3e 9792 683d
00000250: 7ceb 4cbe 0b7d 00bf c8bc 603d 7b95 f33c
00000260: ccd8 043e 9827 1bbb 998b a23e 0593 5d3e
00000270: 4fd8 62bd b2e4 3d3d bfc6 cf3d a3d7 46be
00000280: def4 10be cd68 a4be be91 d23d 001f 363d
00000290: 9412 01be 1c71 23bf 2687 9dbc 98e8 c53c
000002a0: 2a61 5a3e 8708 4f3e 1e3e 983e 9b22 443e
000002b0: 6c3d 123e 1e6c 883d b74b ad3d f78b 863d
000002c0: ceac 3b3e 2055 9fbe 00fe 19bd e6e7 163e
000002d0: c9a1 69be 0ff4 e0bf 4ee1 51bf cdbc 09be
000002e0: 9d9a 1bbd 5fd9 1cbf e1bd a6be 7afa 66be
000002f0: 8456 053e 5ba6 143e 7e6c cd3d f486 1b3e
00000300: fe53 22be b012 a73d e47b edbc 9755 6fbe
00000310: bcf7 483e 7df4 f83d 8ccb 2a3e abff 393e
00000320: 7d83 633e e72b 81be 745f b3be 2dba 873d
00000330: 5a17 fc3c 0c47 a0be a68d f4be 7401 213d
00000340: 50bf 56bc 067e 5f3d 8402 5a3d 802b d93a
00000350: e6c3 d03d 9b32 723a 5e68 6dbd 29e5 a43d
00000360: bda1 2abd 08f7 d4be d09a d8be b87f 463e
00000370: c009 5ebe 4994 2fbf eb62 2abf c8a2 8cbc
00000380: 90b8 203d bb85 b5bd ae7f 23bc 447f 1ebd
00000390: 3934 2fbd 8319 12be b571 87be 22f0 093d
000003a0: 9578 f3bd 49f8 7abe 9068 86be 2c8a c8bd
000003b0: 8667 f0be 1cc2 5bbf ada5 42bf 9887 7ebe
000003c0: 90cd 71bd 92d4 113d c89d ebbd c9ed 49bd
000003d0: 766e 63be 71b8 993e 0201 adbe da32 e1bd
000003e0: c55f 703b 920c 113f 22f6 dabd b721 eabd
000003f0: e8df adbd 85b7 5c3d ae00 38be 1b52 a0bc

encoder.0.bias f4 [12]
-0.13621886 0.007152611 0.016506562 -0.020089956 0.13656165 0.07576878 -0.07847892 0.01057346
0.13033424 -0.14052013 -0.1421765 -0.008518471
00000000: f57c 0bbe 7360 ea3b c538 873c b193 a4bc
00000010: d1d6 0b3e aa2c 9b3d 8eb9 a0bd 4e3c 2d3c
00000020: 5776 053e 82e4 0fbe b796 11be 0f91 0bbc

encoder.1.weight f4 [12]
0.5497016 0.7995317 0.4094333 0.59227455 1.038149 0.33681893 0.87994534 0.88561594
0.6654412 0.79751664 0.42012304 0.8424608
00000000: 3eb9 0c3f 1cae 4c3f 3ea1 d13e 4e9f 173f
00000010: 11e2 843f 8873 ac3e 1944 613f bab7 623f
00000020: 5b5a 2a3f 0d2a 4c3f 5e1a d73e 83ab 573f

encoder.1.bias f4 [12]
-0.90003645 -0.8837399 1.0360906 0.6740827 -0.84169686 0.9460036 -0.49703735 0.46063456
0.5583731 -1.1415557 0.8809878 -1.1006007
00000000: ca68 66bf c73c 62bf 9e9e 843f af90 2c3f
00000010: 7279 57bf 4b2d 723f ae7b febe 4bd8 eb3e
00000020: 8af1 0e3f 7f1e 92bf 6b88 613f 7ce0 8cbf

encoder.1.running_mean f4 [12]
3.0082865 1.4844908 0.6659726 -1.402353 -2.5487123 0.94751227 3.9027464 -3.966792
2.6409018 2.8230546 -1.2592144 2.0929089
00000000: c487 4040 cb03 be3f 2e7d 2a3f 4e80 b3bf
00000010: 1a1e 23c0 2a90 723f 99c6 7940 ecdf 7dc0
00000020: 8904 2940 edac 3440 f02d a1bf 38f2 0540

encoder.1.running_var f4 [12]
3.3425646 0.99717015 0.28814974 0.9642705 2.4260893 0.3304272 4.287526 4.314584
2.046058 2.2766707 0.4434399 1.2115029
00000000: 94ec 5540 8b46 7f3f 5d88 933e 6eda 763f
00000010: 0c45 1b40 c12d a93e 6a33 8940 1211 8a40
00000020: 9df2 0240 f9b4 1140 8e0a e33e 8712 9b3f

encoder.3.weight f4 [24, 12, 4, 4]
0.12510224 -0.0904268 0.0893973 0.29009938 -0.31045625 0.26450133 0.7032064 0.17204605
-0.5395618 -0.9435015 -0.09214233 -0.27394193 -0.051771604 -0.5810505 -0.33965555 -0.021145074
0.060183503 0.03471242 -0.06435069 0.0824377 0.017398538 0.1656698 0.24454595 0.06938986
-0.22169456 -0.26961076 0.13672304 -0.121594876 0.06441472 -0.11557164 -0.1252675 -0.0065864786
-0.056771148 -0.09272267 0.32920444 -0.10013905 0.02154115 0.2544802 0.31486106 -0.14800006
-0.02273647 -0.12771374 -0.27359468 -0.078757375 -0.06764386 0.06379832 0.097358264 0.016837055
0.016907861 0.036743075 0.111154206 -0.013371677 -0.08338395 -0.099318966 -0.329472 -0.036603887
0.10947801 0.25485304 -0.19853538 0.09535913 -0.0568811 0.05250942 0.045264237 0.04822749
-0.0043633333 -0.23042478 -0.33917812 0.09534958 0.23925425 -0.19262901 -0.3202195 0.18868004
0.039362285 0.13069542 0.118289344 0.052856028 -0.07869329 0.09611195 -0.01581952 0.01475374
-0.093155734 0.041748468 -0.33864608 0.0550531 -0.051190104 -0.060141437 -0.038441107 0.011139901
0.066945605 -0.05141847 -0.15642099 0.16424449 0.02552861 -0.05048843 -0.0016538673 0.090790324
-0.05902784 0.13237835 0.269784 0.030293297 -0.01340957 0.6472524 1.0240097 0.24853878
0.053209588 0.35390696 0.4903187 0.07730059 -0.1218564 0.12965482 -0.053686775 -0.013542236
0.07985098 -0.0577565 -0.14298616 0.037442956 0.040737487 -0.5276406 -0.7504003 -0.117228866
0.0116538685 -0.23148072 -0.3292468 0.037324347 0.079192914 -0.12374475 0.0525659 0.0021476739
0.07794032 -0.039118703 0.20227182 -0.10639865 -0.098750696 0.005466023 0.21592528 -0.10086038
-0.034122553 -0.26710212 -0.10845632 -0.09108482 0.15038502 -0.16629556 -0.0153315235 -0.050224394
0.008140693 0.3777013 0.5834063 0.38774055 0.19206023 1.0143375 1.3928311 0.4806176
0.085412286 0.44032696 0.5177599 0.11252545 -0.02278503 0.25761425 0.16478242 0.20979197
0.009153355 0.190505 0.21459892 0.078214735 0.093609996 -0.23918234 -0.13559425 0.09945939
-0.07360593 -0.2525835 -0.10424143 0.042238444 0.032243315 -0.18837346 0.08144582 -0.006266843
-0.19707383 -0.4026899 -0.12961166 -0.14131247 -0.13564561 0.15364207 0.41047338 -0.3326318
-0.17554049 -0.025295446 0.39439303 -0.2927323 -0.11373669 -0.16472599 -0.10869469 -0.10046779
0.059001606 0.17483094 0.14971429 0.12476988 0.3344704 -1.1231068 -0.13271636 0.13724154
0.07687951 0.05056706 0.37576458 0.18920267 -0.02802576 -0.16770877 -0.118258476 0.05295473
0.01568978 0.021390595 0.030644609 -0.023822635 0.12959138 -0.113778435 0.22628531 0.058472123
-0.01837355 -0.5982066 -0.076372355 0.11046263 -0.12310355 0.03303921 -0.011488969 0.07601351
0.0037429312 0.06041721 0.08569315 0.012411587 -0.08490082 -0.8689546 -0.010644098 0.042572763
-0.056984656 0.32753643 0.2733347 -0.1011619 -0.040342435 -0.48636904 -0.10211671 0.08859734
-0.068756446 -0.031776372 -0.07436144 -0.0064217816 -0.099976026 0.14367458 -0.14984901 -0.09605253
-0.0119257895 0.6269671 0.06613571 -0.12320178 0.07912859 0.023460863 0.025540369 -0.10981093
00000000: cd1a 003e b031 b9bd ee15 b73d e887 943e
00000010: 1ff4 9ebe b86c 873e 5605 343f d72c 303e
00000020: b920 0abf 5089 71bf 1eb5 bcbd 1e42 8cbe
00000030: 760e 54bd babf 14bf 55e7 adbe 6f38 adbc
00000040: fa82 763d 9c2e 0e3d 4bca 83bd 19d5 a83d
00000050: 6187 8e3c 58a5 293e 416a 7a3e 451c 8e3d
00000060: e603 63be 6c0a 8abe 2001 0c3e bc06 f9bd
00000070: ddeb 833d d3b0 ecbd 2046 00be 63d3 d7bb
00000080: dd88 68bd 62e5 bdbd 7c8d a83e b415 cdbd
00000090: 1177 b03c 3b4b 823e 7835 a13e 548d 17be
000000a0: d541 babc 64c7 02be 9a14 8cbe 8c4b a1bd
000000b0: dd88 8abd b2a8 823d c563 c73d dded 893c
000000c0: 5b82 8a3c e87f 163d d1a4 e33d e114 5bbc
000000d0: 34c5 aabd be67 cbbd 8eb0 a8be f5ed 15bd
000000e0: 0236 e03d 197c 823e dc4c 4bbe a64b c33d
000000f0: 28fc 68bd 1e14 573d fe66 393d 308a 453d
00000100: 4bfa 8ebb 79f4 6bbe c1a8 adbe a446 c33d
00000110: 11ff 743e 8a40 45be cff3 a3be 5735 413e
00000120: 593a 213d 05d5 053e af41 f23d 907f 583d
00000130: f329 a1bd 58d6 c43d f097 81bc acb9 713c
00000140: 6fc8 bebd 7100 2b3d 0563 adbe 5c7f 613d
00000150: b7ac 51bd de56 76bd 6c74 1dbd 2284 363c
00000160: c71a 893d 2c9c 52bd d32c 20be b52f 283e
00000170: 6021 d13c f5cc 4ebd 94c6 d8ba 47f0 b93d
00000180: 2dc7 71bd 318e 073e 2121 8a3e a629 f83c
00000190: d0b3 5bbc 55b2 253f c012 833f f380 7e3e
000001a0: 4cf2 593d 4b33 b53e 0d0b fb3e c64f 9e3d
000001b0: d98f f9bd 3cc4 043e aae6 5bbd 41e0 5dbc
000001c0: e988 a33d 1492 6cbd f76a 12be c95d 193d
000001d0: 5adc 263d 7413 07bf 3c1a 40bf b015 f0bd
000001e0: deef 3e3c 4809 6dbe 0993 a8be 6ae1 183d
000001f0: e52f a23d e36d fdbd 574f 573d fdbf 0c3b
00000200: 2d9f 9f3d ef3a 20bd 5820 4f3e 89e7 d9bd
00000210: ce3d cabd 531c b33b 841b 5d3e e38f cebd
00000220: 17c4 0bbd 9cc1 88be 591e debd ae8a babd
00000230: 88fe 193e 6249 2abe 1231 7bbc 18b8 4dbd
00000240: 8b60 053c 1162 c13e 1e5a 153f ee85 c63e
00000250: 70ab 443e d0d5 813f 4a48 b23f 8313 f63e
00000260: a3ec ae3d 8972 e13e ea8b 043f be73 e63d
00000270: aca7 babc 04e6 833e b9bc 283e b5d3 563e
00000280: f4f7 153c be13 433e d2bf 5b3e 0c2f a03d
00000290: 99b6 bf3d 37ec 74be 38d9 0abe 5db1 cb3d
000002a0: b5be 96bd a052 81be 887c d5bd 3802 2d3d
000002b0: 9111 043d f9e4 40be 11cd a63d 175a cdbb
000002c0: b9cd 49be 5f2d cebe ebb8 04be 37b4 10be
000002d0: afe6 0abe 5954 1d3e 9129 d23e b74e aabe
000002e0: e3c0 33be 6538 cfbc e2ed c93e 02e1 95be
000002f0: c8ee e8bd eead 28be 529b debd 0fc2 cdbd
00000300: abab 713d e206 333e b44e 193e 5a87 ff3d
00000310: b43f ab3e f7c1 8fbf cce6 07be 0c89 0c3e
00000320: 0173 9d3d 681f 4f3d 3764 c03e 58be 413e
00000330: 4796 e5bc d9bb 2bbe 8031 f2bd 0fe7 583d
00000340: da87 803c 543b af3c 670a fb3c b027 c3bc
00000350: 9ab3 043e ab04 e9bd 56b7 673e 7780 6f3d
00000360: 2184 96bc 1124 19bf 1c69 9cbd 3b3a e23d
00000370: b71d fcbd 1f54 073d 3b3c 3cbc f9ac 9b3d
00000380: f74b 753b 0978 773d e47f af3d f859 4b3c
00000390: 7be0 adbd cf73 5ebf 9564 2ebc c760 2e3d
000003a0: be68 69bd dbb2 a73e 87f2 8b3e f82d cfbd
000003b0: 1c3e 25bd 5d05 f9be 9122 d1bd 8672 b53d
000003c0: 2ed0 8cbd f127 02bd d04a 98bd cf6d d2bb
000003d0: 3bc0 ccbd 6e1f 133e 0572 19be 30b7 c4bd
000003e0: 6364 43bc ea80 203f 2972 873d 3751 fcbd
000003f0: 2c0e a23d ff30 c03c 093a d13c 8ee4 e0bd

encoder.3.bias f4 [24]
-0.022444021 -0.0118881855 0.042680167 0.057992 -0.011830764 0.05517044 -0.030255934 -0.04119119
-0.0709457 -0.06145865 0.06332362 0.06961704 -0.05401155 -0.014822906 -0.057493232 -0.05381177
-0.02516747 0.04080291 -0.03419719 0.052680448 0.014864462 -0.014748031 -0.017199319 0.0033415074
00000000: 86dc b7bc aac6 42bc 66d1 2e3d 0589 6d3d
00000010: d2d5 41bc 66fa 613d 4bdb f7bc 18b8 28bd
00000020: fb4b 91bd 11bc 7bbd d0af 813d 6193 8e3d
00000030: 373b 5dbd c6db 72bc 067e 6bbd bb69 5cbd
00000040: 032c cebc f420 273d 5a12 0cbd 74c7 573d
00000050: 138a 733c baa1 71bc 96e5 8cbc 31fd 5a3b

encoder.4.weight f4 [24]
0.40291446 0.3389613 0.98772895 0.37902057 0.39587688 0.35322455 0.42057252 0.51746273
0.4400922 0.34918663 0.29419285 0.17142732 0.73884034 0.63518834 0.7270811 0.74814
0.3741766 0.7338126 0.2824502 0.27023143 0.3002021 0.3164885 0.7778924 0.3798617
00000000: ce4a ce3e 568c ad3e cedb 7c3f fc0e c23e
00000010: 60b0 ca3e d9d9 b43e 4855 d73e 7078 043f
00000020: c453 e13e 97c8 b23e 72a0 963e a58a 2f3e
00000030: a424 3d3f b49b 223f fd21 3a3f 1a86 3f3f
00000040: 1394 bf3e 24db 3b3f 509d 903e c65b 8a3e
00000050: 17b4 993e c80a a23e f523 473f 3c7d c23e

encoder.4.bias f4 [24]
0.32249847 0.15279613 -0.9793807 0.25542063 -0.10822377 1.0306706 -0.5367754 0.49845117
0.357945 -0.08734954 0.8994813 0.4452765 -0.7320318 -1.8092979 0.69568306 -1.2058144
0.9562366 -2.095282 0.13564749 0.7795185 0.8900965 0.8959176 -0.6717405 -0.22511865
00000000: 851e a53e 9776 1c3e b2b8 7abf 7ec6 823e
00000010: 6da4 ddbd 04ed 833f 1d6a 09bf fe34 ff3e
00000020: 9144 b73e 51e4 b2bd 6844 663f 48fb e33e
00000030: 7066 3bbf 1397 e7bf 4918 323f 2058 9abf
00000040: eccb 743f 1a19 06c0 2de7 0a3e 868e 473f
00000050: 5ddd 633f db5a 653f 2ff7 2bbf 8185 66be

encoder.4.running_mean f4 [24]
-1.3367571 -1.2262088 -0.44017074 0.9981303 1.5253332 0.8099434 1.3792061 1.3300368
-1.2450732 0.5206045 -0.45203167 1.2731159 -2.0668187 1.0006682 0.38690656 1.3541503
0.0015868582 3.4464006 0.15033792 1.2708977 1.1005427 -1.1254561 2.3371716 -0.69722927
00000000: db1a abbf 69f4 9cbf 0f5e e1be 7885 7f3f
00000010: 1e3e c33f 7358 4f3f d389 b03f a53e aa3f
00000020: 8f5e 9fbf 5646 053f b270 e7be 76f5 a23f
00000030: c246 04c0 e515 803f 9e18 c63e cc54 ad3f
00000040: 20fe cf3a d491 5c40 2ff2 193e c7ac a23f
00000050: 95de 8c3f f20e 90bf 3894 1540 9e7d 32bf

encoder.4.running_var f4 [24]
4.972374 0.67576444 10.179182 0.73562366 0.70236355 0.83360815 2.8192248 9.322887
6.7780724 0.7577171 0.5910241 0.6239393 14.662714 1.1095273 7.0144453 3.027119
1.5923157 1.7078861 0.67790806 0.70223373 1.0292901 0.75185114 7.3430195 0.86226445
00000000: b01d 9f40 e6fe 2c3f eedd 2241 d551 3c3f
00000010: 19ce 333f 5867 553f 2e6e 3440 8c2a 1541
00000020: f8e5 d840 bff9 413f 5b4d 173f 7cba 1f3f
00000030: 7a9a 6a41 fe04 8e3f 5676 e040 51bc 4140
00000040: 00d1 cb3f 039c da3f 628b 2d3f 97c5 333f
00000050: c7bf 833f 5179 403f 04fa ea40 5dbd 5c3f

encoder.6.weight f4 [48, 24, 4, 4]
-0.019030245 -0.011808038 -0.05048803 0.024027644 -0.17714669 -0.49614286 -0.48055875 -0.06075222
-0.017005108 -0.18949099 -0.39435294 -0.07266756 0.001284627 0.090919115 0.011485518 0.053687096
0.056924194 0.010626976 -0.12463063 0.01986096 0.028368935 -0.68016326 0.19058812 -0.091634326
0.06889372 0.15560742 -0.29321998 0.055089172 0.0065404843 0.017359037 0.17849743 0.06780918
-0.006264031 -0.058143955 -0.17404956 0.039973404 -0.07320147 0.2982716 0.08112575 0.0017101828
-0.04003464 -0.084505305 -0.22548166 -0.09386062 0.07819613 0.08253704 0.073067926 0.023448927
-0.08645614 0.25453323 -0.031985186 -0.0038314862 -0.0384476 -0.52590173 -0.01215665 0.060295768
-0.16613656 0.4660275 0.4156778 -0.09341496 0.08017149 0.013572623 0.0059499615 0.07189969
-0.023710337 -0.049026247 0.057403903 0.024193533 -0.05556451 0.54300165 -0.043765076 0.037848346
-0.025153657 -0.09296 0.27049157 -0.07964905 0.015231859 -0.03509017 -0.09354304 -0.080469355
-0.056606594 -0.10967872 -0.18355498 -0.002752316 0.025700495 0.043558575 0.49261725 -0.103803836
-0.10402099 0.7455599 -0.040045965 -0.02344723 -0.076370955 0.017307814 0.27739108 0.0546337
0.066916145 0.121734165 0.04994443 0.0166056 0.044710394 -0.0066984794 0.23791526 0.07011964
0.021745143 -0.17896871 0.19126979 -0.11340171 -0.077772796 -0.3518317 -0.0015035748 0.21244797
0.09847657 -0.15322149 0.024531959 -0.035443656 -0.018161545 -0.34267744 -0.40096232 0.024736475
0.022318859 0.026498854 -0.109468654 0.075127766 0.042105548 0.07994863 -0.10318739 -0.047523495
-0.04785486 0.03516945 0.10481336 0.093267776 -0.0050051855 -0.40164152 -0.29775685 -0.00061927416
0.014229282 -0.10830421 -0.15924235 0.06587742 -0.05599022 -0.1269791 -0.05575158 -0.008547561
-0.022224162 -0.053448185 -0.20543571 0.016316002 -0.12663904 0.40807623 0.5127996 0.088785455
0.032767314 -0.3043569 0.18736248 -0.13161558 -0.14071059 0.07307021 -0.252009 0.010979736
0.023261707 0.082956165 0.14035247 0.07549884 -0.07145414 -0.5205098 -0.38208473 0.08200946
-0.12977865 -0.420219 0.6917669 -0.06542095 -0.04553048 0.049056124 0.16286325 -0.005984989
-0.11989865 0.00053956447 -0.020624036 0.12572087 -0.17718188 -0.09926272 -1.2559751 0.0096937865
0.031246249 0.48925087 -0.071532324 0.024624892 0.00290101 -0.13250892 -0.040145908 0.029901661
-0.109104805 0.045088705 -0.015926143 0.019052718 -0.047059655 0.38743728 0.13690719 -0.10803641
-0.010673452 -0.087343 0.037696544 0.0035482438 0.041570365 -0.016778935 0.021540942 -0.055673953
0.085447825 0.22359402 0.30508727 0.06875745 -0.1335116 -0.7177569 -1.4302478 -0.036984388
-0.025486985 0.4945221 0.082399786 0.25065514 0.05564236 -0.20329292 0.20516154 0.121965714
0.04566425 0.107008874 0.026891917 0.02575666 0.19059342 -0.37024245 -0.107439086 -0.031352434
0.013901436 0.04369292 0.0984926 0.075529404 0.01164131 -0.0024493046 0.013591808 -0.04512056
-0.20910962 0.051149048 0.2551093 0.15899567 0.05859871 0.5999043 0.9547726 0.23454455
-0.18586478 0.14861628 0.7053813 -0.12407758 -0.23460878 0.079224534 -0.05499538 -0.19662271
00000000: 51e5 9bbc 8076 41bc 89cc 4ebd 9fd5 c43c
00000010: f165 35be 7006 febe cc0b f6be 52d7 78bd
00000020: 4c4e 8bbc ed09 42be a1e8 c9be bbd2 94bd
00000030: ee60 a83a cd33 ba3d c12d 3c3c 00e7 5b3d
00000040: 5829 693d c51c 2e3c 583e ffbd 74b3 a23c
00000050: f865 e83c 2e1f 2ebf 8829 433e c7aa bbbd
00000060: 2718 8d3d 8d57 1f3e ee20 96be 2fa5 613d
00000070: 8f51 d63b 8a34 8e3c 08c8 363e 8adf 8a3d
00000080: 8042 cdbb 5b28 6ebd 0c3a 32be 27bb 233d
00000090: a7ea 95bd 0eb7 983e 4225 a63d 3628 e03a
000000a0: 5dfb 23bd 1e11 adbd aae4 66be ff39 c0bd
000000b0: 4b25 a03d 2e09 a93d a3a4 953d f717 c03c
000000c0: eb0f b1bd 2e52 823e e602 03bd ac19 7bbb
000000d0: 3b7b 1dbd 7fa1 06bf b02c 47bc b2f8 763d
000000e0: b41f 2abe 289b ee3e b8d3 d43e 5850 bfbd
000000f0: f330 a43d b55f 5e3c e5f7 c23b 2540 933d
00000100: 2e3c c2bc bfcf 48bd 5b20 6b3d 8431 c63c
00000110: 9d97 63bd 2802 0b3f 0243 33bd de06 1b3d
00000120: 0b0f cebc d061 bebd df7d 8a3e 0b1f a3bd
00000130: 0c8f 793c b6ba 0fbd 7e93 bfbd 1ecd a4bd
00000140: 51dc 67bd 3d9f e0bd d6f5 3bbe 3360 34bb
00000150: d889 d23c 7a6a 323d 5438 fc3e 1b97 d4bd
00000160: f508 d5bd 03dd 3e3f 3d07 24bd 6814 c0bc
00000170: 6068 9cbd 1ec9 8d3c 3406 8e3e 96c7 5f3d
00000180: 550b 893d c34f f93d 8892 4c3d 7808 883c
00000190: 3f22 373d eb7e dbbb 0fa0 733e e39a 8f3d
000001a0: df22 b23c 9343 37be 3adc 433e 283f e8bd
000001b0: 5847 9fbd 4923 b4be 9913 c5ba f68b 593e
000001c0: 15ae c93d 18e6 1cbe 3ff7 c83c 5e2d 11bd
000001d0: 85c7 94bc 6b73 afbe ef4a cdbe 26a4 ca3c
000001e0: 0ad6 b63c 2014 d93c 1a31 e0bd 96dc 993d
000001f0: de76 2c3d 1bbc a33d e953 d3bd ffa7 42bd
00000200: 7503 44bd d70d 103d 63a8 d63d 2d03 bf3d
00000210: 8a02 a4bb f5a3 cdbe 9673 98be c956 22ba
00000220: ef21 693c 99ce ddbd 6d10 23be beea 863d
00000230: 0056 65bd cf06 02be c55b 64bd 120b 0cbc
00000240: 720f b6bc 7cec 5abd bd5d 52be 23a9 853c
00000250: aaad 01be 5eef d03e d646 033f 26d5 b53d
00000260: 0537 063d abd4 9bbe f3db 3f3e 3cc6 06be
00000270: 7016 10be d6a5 953d 5307 81be 5ae4 333c
00000280: 568f be3c ece4 a93d 8fb8 0f3e 239f 9a3d
00000290: 8c56 92bd 2140 05bf 9ca0 c3be 93f4 a73d
000002a0: b2e4 04be f226 d7be a317 313f 6bfb 85bd
000002b0: 2b7e 3abd 13ef 483d a0c5 263e ba1d c4bb
000002c0: 6c8d f5bd 8f71 0d3a bdf3 a8bc f9bc 003e
000002d0: 2b6f 35be 414a cbbd cbc3 a0bf b0d2 1e3c
000002e0: 22f8 ff3c 177f fa3e 8a7f 92bd 24ba c93c
000002f0: df1e 3e3b 6bb0 07be 0970 24bd 54f4 f43c
00000300: 5772 dfbd efae 383d 8b77 82bc 7214 9c3c
00000310: a0c1 40bd 2e5e c63e 6631 0c3e 3142 ddbd
00000320: b4df 2ebc e3e0 b2bd b167 1a3d a789 683b
00000330: b045 2a3d fa73 89bc a176 b03c 5f0a 64bd
00000340: 45ff ae3d d5f5 643e 6634 9c3e b5d0 8c3d
00000350: 44b7 08be ebbe 37bf 5c12 b7bf f17c 17bd
00000360: 15ca d0bc 0032 fd3e 38c1 a83d df55 803e
00000370: 3ee9 633d 052c 50be de15 523e 29c9 f93d
00000380: 700a 3b3d 7827 db3d 704c dc3c a2ff d23c
00000390: ec2a 433e 6b90 bdbe 0609 dcbd 696b 00bd
000003a0: d9c2 633c 59f7 323d 7db6 c93d 29af 9a3d
000003b0: 31bb 3e3c 8384 20bb 2db0 5e3c 56d0 38bd
000003c0: d520 56be aa81 513d b09d 823e c3cf 223e
000003d0: 3305 703d 5493 193f fa6b 743f 722c 703e
000003e0: 5653 3ebe de2e 183e de93 343f 631c febd
000003f0: 493d 70be 7940 a23d d642 61bd 7757 49be

encoder.6.bias f4 [48]
0.024992617 -0.020436533 0.033201773 0.050862916 0.030776419 -0.025391523 0.037433006 -0.011396354
0.030938484 -0.008053101 -0.042292617 -0.043282554 0.033139203 0.041144304 0.04242217 -0.015366408
-0.0017672589 -0.008412188 0.03342191 -0.01905497 -0.04205731 0.018660266 0.022359265 -0.03732321
0.005030006 0.029804308 -0.021823889 -0.042622816 0.034778774 -0.005565669 -0.04289707 0.030429311
-0.0049234414 0.02553776 0.01689201 0.025131384 0.05045866 -0.018161379 -0.0025786029 -0.034269966
-0.044798467 0.015901264 -0.014387172 -0.0040695844 -0.015011619 -0.041026656 -0.04824829 -0.031110883
00000000: 51bd cc3c 846a a7bc 95fe 073d a255 503d
00000010: d41e fc3c e201 d0bc 5a53 193d c6b7 3abc
00000020: b472 fd3c 27f1 03bc 063b 2dbd 0c49 31bd
00000030: f9bc 073d ee86 283d dfc2 2d3d 63c3 7bbc
00000040: 5ea3 e7ba 46d3 09bc 6ae5 083d 2b19 9cbc
00000050: 4944 2cbd 6add 983c c72a b73c 39e0 18bd
00000060: c0d2 a43b 2a28 f43c 03c8 b2bc 4395 2ebd
00000070: 3074 0e3d 3760 b6bb d7b4 2fbd e446 f93c
00000080: d254 a1bb 9134 d13c 1d61 8a3c 55e0 cd3c
00000090: bdad 4e3d 2cc7 94bc c7fd 28bb aa5e 0cbd
000000a0: 997e 37bd 5e43 823c 2cb8 6bbc 265a 85bb
000000b0: 4bf3 75bc 910b 28bd 00a0 45bd 40dc febc

encoder.7.weight f4 [48]
0.95514524 0.43065628 0.6657552 0.37217417 0.9097682 0.9485739 1.0110241 0.66481805
0.42596972 0.55319905 0.3091443 0.28746825 1.1102402 0.29789397 0.36833245 0.3699892
0.38377562 0.34872538 0.74099475 0.39801854 0.34511 0.74842113 0.32473624 0.31838998
0.29267517 1.0276796 0.65174484 1.0594577 1.139348 0.9570199 0.32045642 0.34127063
0.34772477 0.8809586 0.45103008 1.0268581 0.40344098 0.3247473 0.7419838 0.3799168
0.32910854 0.83493954 0.67648053 0.92850167 0.9593651 0.32490337 0.30759433 0.3069008
00000000: 6684 743f fb7e dc3e ef6e 2a3f 9d8d be3e
00000010: 92e6 683f bdd5 723f 3d69 813f 8431 2a3f
00000020: b418 da3e 749e 0d3f 2948 9e3e 0a2f 933e
00000030: 5a1c 8e3f 8f85 983e 1296 bc3e 396f bd3e
00000040: 3d7e c43e 228c b23e d5b1 3d3f 16c9 cb3e
00000050: 42b2 b03e 8798 3f3f d443 a63e 0304 a33e
00000060: 85d9 953e 018b 833f c0d8 263f 4f9c 873f
00000070: 28d6 913f 42ff 743f dd12 a43e 06bb ae3e
00000080: fb08 b23e 8186 613f 6aed e63e 1670 833f
00000090: d18f ce3e 4745 a63e a6f2 3d3f 7484 c23e
000000a0: ea80 a83e 99be 553f d42d 2d3f 49b2 6d3f
000000b0: f498 753f bc59 a63e 017d 9d3e 1a22 9d3e

encoder.7.bias f4 [48]
-1.1208103 1.0717953 0.09505997 0.9955253 0.21191642 0.28464854 -0.64944875 0.52493614
0.9903325 0.27537963 0.96378976 0.9489944 -0.21984334 0.8051041 1.0256205 1.040635
1.0696833 1.087667 -0.10368805 1.0561688 0.9881 0.5023706 0.92774767 0.9013112
0.7777217 -0.22159517 -0.29983073 -0.729501 -0.3242991 0.22019912 0.8944667 0.98956573
0.87047696 0.20357822 0.96300334 -0.21662831 0.9544008 0.81509495 0.2213546 1.0543845
0.9861178 -0.22938624 0.83218133 -0.71660596 -0.6501671 0.9219201 0.88328636 0.8274331
00000000: b676 8fbf 9730 893f cdae c23d bfda 7e3f
00000010: 9e00 593e 74bd 913e 4642 26bf 3762 063f
00000020: 6e86 7d3f 8ffe 8c3e edba 763f 4cf1 723f
00000030: 9d1e 61be 4d1b 4e3f 8847 833f 8733 853f
00000040: 62eb 883f ac38 8b3f 665a d4bd 8a30 873f
00000050: 1ff4 7c3f 5c9b 003f df80 6d3f 55bc 663f
00000060: c518 473f d8e9 62be 6a83 99be 94c0 3abf
00000070: 880a a6be e17b 613e c5fb 643f 2e54 7d3f
00000080: 94d7 5e3f cf76 503e 6387 763f d0d3 5dbe
00000090: 9c53 743f 10aa 503f c8aa 623e 12f6 863f
000000a0: 3772 7c3f 3ae4 6abe d609 553f 7d73 37bf
000000b0: 5a71 26bf f502 6c3f 0e1f 623f a8d2 533f

encoder.7.running_mean f4 [48]
-1.1457826 2.6222265 4.415231 3.3377836 1.1553025 -0.20175608 -2.4492512 2.045712
-0.70302576 -1.9748113 -2.1956005 -1.0367632 -1.1614475 1.28825 1.9111385 2.9269605
2.525402 -1.0713266 -3.730901 3.402785 4.14899 2.4487648 2.6955247 1.0842956
0.7992819 -0.9949223 2.2064996 0.08652494 0.13644525 -0.3650975 1.8293859 2.8870475
2.1966507 1.1445467 2.0837104 0.70942044 2.289248 4.2511272 1.9944052 3.0277784
-2.5538714 -1.7252778 1.2770135 -1.7890854 0.3263009 3.1033473 3.5355098 3.4933028
00000000: 01a9 92bf 8fd2 2740 9349 8d40 3f9e 5540
00000010: f4e0 933f 2599 4ebe 88c0 1cc0 f2ec 0240
00000020: 7ff9 33bf 9ec6 fcbf b884 0cc0 a8b4 84bf
00000030: 50aa 94bf 60e5 a43f 30a0 f43f 5253 3b40
00000040: 30a0 2140 3b21 89bf 15c7 6ec0 3bc7 5940
00000050: 87c4 8440 90b8 1c40 7a83 2c40 33ca 8a3f
00000060: bd9d 4c3f 3ab3 7ebf 4a37 0d40 fd33 b13d
00000070: 4eb8 0b3e 0fee babe 5129 ea3f 63c5 3840
00000080: ed95 0c40 8280 923f 835b 0540 949c 353f
00000090: 0a83 1240 3c09 8840 ab48 ff3f 1fc7 4140
000000a0: a172 23c0 e7d5 dcbf 2e75 a33f c000 e5bf
000000b0: e910 a73e 3e9d 4640 cb45 6240 4692 5f40

encoder.7.running_var f4 [48]
2.908456 1.2739877 4.2358327 1.3503778 5.2763424 4.09628 3.5477445 3.0491054
0.22719632 1.6395826 1.0370538 0.7972513 4.317783 0.6191835 0.9732412 1.2930237
1.8560328 0.821793 3.9756482 1.5337158 1.2566288 3.9571476 0.75435245 0.7238184
0.2901879 4.290841 1.4371182 0.6517499 3.587458 4.9406686 0.859245 1.237341
0.75145525 4.7767315 1.0169829 4.1687255 0.5243841 0.51927865 2.8116186 1.4735688
1.213409 2.8676128 2.9851098 2.6441762 1.1161288 1.1192445 0.643557 0.78690386
00000000: 2524 3a40 0712 a33f f18b 8740 2ed9 ac3f
00000010: ccd7 a840 ba14 8340 3f0e 6340 8b24 4340
00000020: 27a6 683e d8dd d13f 2ebe 843f a918 4c3f
00000030: 472b 8a40 cf82 1e3f 5626 793f cd81 a53f
00000040: 7c92 ed3f 0761 523f 0571 7e40 cd50 c43f
00000050: 36d9 a03f e841 7d40 3e1d 413f 2a4c 393f
00000060: 8293 943e 924e 8940 7df3 b73f 15d9 263f
00000070: e998 6540 f519 9e40 7bf7 5b3f 3161 9e3f
00000080: 5f5f 403f fcda 9840 7f2c 823f 3366 8540
00000090: 093e 063f 72ef 043f 8ff1 3340 e79d bc3f
000000a0: fc50 9b3f f886 3740 0a0c 3f40 2f3a 2940
000000b0: 4fdd 8e3f 6743 8f3f 27c0 243f 8872 493f

decoder.0.weight f4 [48, 24, 4, 4]
0.32119453 0.012450366 0.18745753 0.03227599 0.09322334 0.42783374 -0.19803083 0.115948714
-0.25461453 0.013239964 -0.46781504 0.00014825414 0.007873564 -0.021667093 0.20375021 0.05537591
-0.06107352 -0.06561147 -0.015521669 -0.002620679 0.14038627 -0.5824166 -0.2831621 -0.17043017
0.05960863 0.3505071 -0.19306226 -0.035060305 0.34923443 0.0083362395 0.30218327 -0.031305455
0.030055253 -0.057350043 0.10819341 0.03452946 -0.04594743 -0.41764867 -0.6677945 -0.97664654
-0.019406617 0.14983563 -0.03889133 0.090514384 0.00032623415 0.007289212 -0.11100683 0.015262427
0.05758873 0.09854929 0.18044344 -0.0033428667 0.4303109 -0.17672084 0.41987747 0.020927051
-0.05514808 0.121382914 0.112863645 0.0023536154 -0.34953 0.039714113 -0.149447 -0.016236845
-0.03172927 -0.16448255 0.6263686 0.013051334 -0.31099564 0.0007772452 1.419626 0.16685836
0.0597397 -0.80239356 0.05569081 0.20515935 0.14647065 -0.01059001 0.044478994 -0.15254614
-0.035165217 -0.06357377 0.01672834 -0.013476712 0.0650331 0.09964168 0.11161725 0.001251744
0.06932303 -0.27425906 -0.19410491 -0.070427276 -0.19389164 -0.028875073 0.06390575 -0.07489121
0.14595345 0.044146862 0.037406776 0.046053685 -1.0560473 0.2900012 0.09366288 -0.17549224
0.22807106 0.02401271 -0.45554435 -0.020892967 0.3918017 -0.18811326 -0.45369238 0.0069912896
0.029263103 -0.039717574 0.016098421 -0.057460885 -0.038767487 0.2808881 -0.37573752 0.11645623
0.10669305 -0.14175048 -0.31142715 0.067850895 -0.0092072105 0.41116592 -0.09256069 0.23581743
0.053557284 0.01114341 -0.12674847 -0.058370795 -0.036093317 0.495719 1.1319041 -0.005932731
0.00242188 0.15383056 0.20048286 -0.05753239 -0.23752005 0.017383853 0.1736615 -0.013144967
0.059882265 0.0063421833 -0.02610934 0.01265471 -0.13112001 -0.32449794 -0.46789092 0.35555574
-0.0007984116 0.31065834 -0.020784833 -0.026952684 -0.367633 -0.43409213 -0.35337684 0.16457942
-0.060416795 -0.12430423 0.8513778 -0.1677079 -0.016627178 0.87218493 0.282128 0.22097203
0.1354715 -0.3017615 0.36603993 -0.060028184 -0.010979637 0.11407283 0.037135214 -0.36489373
0.020460403 -0.02501799 0.12010086 0.04021075 -0.13146265 -0.45332617 0.08516412 -0.54491633
-0.054758124 -0.1845358 -0.17855011 0.08415671 -0.0024041047 0.00079794065 -0.2690507 -0.212578
0.038743053 0.13109314 0.100152925 0.063817404 -0.52995235 -0.1920345 -0.8170082 -0.06889538
-0.07830624 0.07220173 -0.045018286 0.0040350566 -0.00704404 0.04161329 -0.4275537 -0.049608737
0.0007259944 0.11634346 -0.05113829 0.11717153 -0.04865706 -0.2534374 0.010026477 -0.16689874
-0.028634671 0.26657552 0.13104445 -0.007912728 -0.041522793 -0.21122093 0.079907365 -0.1006303
-0.046995793 0.05034135 0.013674926 0.023839185 -0.037932143 -0.23218183 -0.33323845 -0.21584773
-0.0114181535 -1.0907837 0.060917906 -0.07980266 -0.025761433 0.18557985 0.10553181 -0.21896708
0.02834956 -0.2899274 0.085691676 0.38654768 -0.061933395 0.43616143 0.4812849 0.064429976
0.031555876 -0.24424706 -0.0731223 -0.075773135 0.0002558811 -0.03335886 0.11268363 -0.041462995
00000000: 9c73 a43e 9ffc 4b3c def4 3f3e d433 043d
00000010: e1eb be3d 060d db3e 98c8 4abe 8576 ed3d
00000020: d65c 82be 6fec 583c 7485 efbe ab74 1b39
00000030: 1f00 013c 307f b1bc e5a3 503e dad1 623d
00000040: 3a28 7abd 4e5f 86bd 994e 7ebc b3bf 2bbb
00000050: 6bc1 0f3e 4119 15bf 9ffa 90be 3f85 2ebe
00000060: 2e28 743d ab75 b33e 1db2 45be 659b 0fbd
00000070: dbce b23e b994 083c c4b7 9a3e 263a 00bd
00000080: 6f36 f63c e1e7 6abd 8294 dd3d c36e 0d3d
00000090: 5f33 3cbd 0cd6 d5be 95f4 2abf 8205 7abf
000000a0: a0fa 9ebc 836e 193e 844c 1fbd 9b5f b93d
000000b0: 680a ab39 58da ee3b 8d57 e3bd 420f 7a3c
000000c0: 29e2 6b3d 36d4 c93d 2ac6 383e ff13 5bbb
000000d0: b651 dc3e 4ff6 34be 2efa d63e 356f ab3c
000000e0: f4e2 61bd 9b97 f83d 0e25 e73d 1d3f 1a3b
000000f0: 99f5 b2be 44ab 223d a208 19be 2203 85bc
00000100: 8df6 01bd 1d6e 28be b159 203f 43d5 553c
00000110: d23a 9fbe 0bc0 4b3a 4eb6 b53f ebdc 2a3e
00000120: 9eb1 743d aa69 4dbf 0c1c 643d 4b15 523e
00000130: 67fc 153e b981 2dbc 9b2f 363d 0e35 1cbe
00000140: 6709 10bd f732 82bd df09 893c 6dcd 5cbc
00000150: 1330 853d f010 cc3d 9697 e43d 8f11 a43a
00000160: 3cf9 8d3d af6b 8cbe 70c3 46be 2d3c 90bd
00000170: 888b 46be 6b8b ecbc 05e1 823d 9060 99bd
00000180: d274 153e 57d3 343d d937 193d caa2 3c3d
00000190: 8f2c 87bf 0a7b 943e 53d2 bf3d 3db4 33be
000001a0: 768b 693e 4eb6 c43c 1c3d e9be ba27 abbc
000001b0: 3c9a c83e c3a0 40be 5e4a e8be 3017 e53b
000001c0: 2db9 ef3c e5ae 22bd d6e0 833c 1b5c 6bbd
000001d0: a8ca 1ebd 91d0 8f3e ab60 c0be 9b80 ee3d
000001e0: e381 da3d 0a27 11be 6173 9fbe 69f5 8a3d
000001f0: d7d9 16bc 5784 d23e 7690 bdbd 207a 713e
00000200: e25e 5b3d d992 363c 5aca 01be 3716 6fbd
00000210: 96d6 13bd e1ce fd3e 3ce2 903f 5b67 c2bb
00000220: 67b8 1e3b c285 1d3e 614b 4d3e 15a7 6bbd
00000230: 7538 73be 9568 8e3c 52d4 313e fd5d 57bc
00000240: 1b47 753d 17d2 cf3b 41e3 d5bc b355 4f3c
00000250: 5344 06be 9824 a6be 668f efbe 670b b63e
00000260: 7f4c 51ba 9c0e 9f3e f444 aabc e0cb dcbc
00000270: 643a bcbe 5341 debe cfed b4be 8287 283e
00000280: 9a77 77bd 3793 febd e5f3 593f 9fbb 2bbe
00000290: b835 88bc 8347 5f3f 1573 903e 7e46 623e
000002a0: 0ab9 0a3e 7c80 9abe 9669 bb3e 1de0 75bd
000002b0: efe3 33bc 049f e93d 181b 183d 5ad3 babe
000002c0: 939c a73c 87f2 ccbc 71f7 f53d 07b4 243d
000002d0: 259e 06be 5e1a e8be 876a ae3d a37f 0bbf
000002e0: 0e4a 60bd f4f6 3cbe d7d5 36be 5a5a ac3d
000002f0: 2f8e 1dbb e42c 513a 03c1 89be 0cae 59be
00000300: 09b1 1e3d 483d 063e fa1c cd3d b3b2 823d
00000310: f5aa 07bf b1a4 44be 7327 51bf 0519 8dbd
00000320: 065f a0bd 80de 933d 1865 38bd 8238 843b
00000330: b1d1 e6bb b272 2a3d 52e8 dabe 8832 4bbd
00000340: a950 3e3a 7b45 ee3d 6276 51bd a1f7 ef3d
00000350: a04c 47bd 8cc2 81be 1846 243c 81e7 2abe
00000360: 4293 eabc 967c 883e 8430 063e 63a4 01bc
00000370: ce13 2abd 4d4a 58be 79a6 a33d 4217 cebd
00000380: a97e 40bd bb32 4e3d cc0c 603c 654a c33c
00000390: bc5e 1bbd 13c1 6dbe 3b9e aabe 3007 5dbe
000003a0: 3513 3bbc cd9e 8bbf 0e85 793d 946f a3bd
000003b0: a409 d3bc a508 3e3e 1021 d83d e838 60be
000003c0: 563d e83c 5d71 94be 1e7f af3d 94e9 c53e
000003d0: dfad 7dbd 8d50 df3e f96a f63e ddf3 833d
000003e0: bc40 013d e71b 7abe 25c1 95bd f22e 9bbd
000003f0: c827 8639 4da3 08bd adc6 e63d 1ad5 29bd

decoder.0.bias f4 [24]
-0.0105084255 0.037194595 -0.026053296 0.009841821 0.024433257 0.02320448 0.008558718 0.00037812663
0.022214197 0.0045212926 0.046939164 -0.0036515829 0.013375729 0.046557683 -0.041792687 -0.044163074
0.042560913 0.027541181 -0.0189827 0.041238382 -0.03343368 0.0066603892 -0.02740491 0.029630432
00000000: 882b 2cbc 5c59 183d b96d d5bc 973f 213c
00000010: 4128 c83c 5217 be3c dd39 0c3c 4c3f c639
00000020: 8cfa b53c 5a27 943b 4843 403d 654f 6fbb
00000030: e025 5b3c 45b3 3e3d cf2e 2bbd 57e4 34bd
00000040: 5a54 2e3d 0b9e e13c 9b81 9bbc 94e9 283d
00000050: c1f1 08bd 653f da3b 4380 e0bc 85bb f23c

decoder.1.weight f4 [24]
1.0179129 1.032295 1.051607 1.0973203 0.88392293 0.8800081 0.9147504 0.9309706
1.1064721 0.93644094 0.95178777 0.9054162 1.0751565 0.97675174 0.9791613 0.9615665
1.0418216 1.0643903 1.0404265 0.86953026 0.90935534 0.9551669 0.99947757 0.89215976
00000000: f84a 823f 3e22 843f 0f9b 863f fe74 8c3f
00000010: c648 623f 3648 613f 152d 6a3f 1754 6e3f
00000020: e1a0 8d3f 98ba 6f3f 5da8 733f 5bc9 673f
00000030: ba9e 893f 670c 7a3f 51aa 7a3f 3929 763f
00000040: 695a 853f f13d 883f b22c 853f 8999 5e3f
00000050: 83cb 683f d185 743f c3dd 7f3f 9564 643f

decoder.1.bias f4 [24]
0.058996376 0.07559531 0.0646492 0.14570248 -1.8809389 -0.13665691 -0.11206397 -0.05889283
0.21967773 -0.25821888 -0.85090226 -0.08581942 0.08485795 0.10634743 -0.18333896 0.024979087
0.040728554 0.09981457 0.13473523 -0.20155032 -0.22093028 -0.24918236 -0.10265436 -0.18429929
00000000: 2fa6 713d b7d1 9a3d cd66 843d 0833 153e
00000010: 9bc2 f0bf caef 0bbe cb81 e5bd 9c39 71bd
00000020: 33f3 603e 4435 84be bbd4 59bf 18c2 afbd
00000030: 01ca ad3d aecc d93d 35bd 3bbe f1a0 cc3c
00000040: fcd2 263d 956b cc3d 08f8 093e 3563 4ebe
00000050: 8c3b 62be a929 7fbe 733c d2bd f4b8 3cbe

decoder.1.running_mean f4 [24]
-3.0870836 -3.658959 -3.027235 -3.5946076 0.34120214 -1.3205309 -4.361694 -2.457164
-2.0711591 1.7285968 -0.74082077 -2.9467406 -2.670331 -1.1211689 -3.2077014 -3.748766
-1.1276852 -2.1958346 -0.33262056 -0.060375217 -0.6797814 -2.3320541 -0.9468354 -2.2181752
00000000: c792 45c0 622c 6ac0 38be 41c0 0d0e 66c0
00000010: 0cb2 ae3e 2807 a9bf ff92 8bc0 2d42 1dc0
00000020: df8d 04c0 a942 dd3f 6ea6 3dbf 6697 3cc0
00000030: b4e6 2ac0 7682 8fbf fb4a 4dc0 c8eb 6fc0
00000040: fd57 90bf 8e88 0cc0 3e4d aabe 014c 77bd
00000050: 2706 2ebf 6040 15c0 ce63 72bf 95f6 0dc0

decoder.1.running_var f4 [24]
14.625299 53.392986 67.031685 21.176342 1.7998055 16.511848 26.160374 18.78653
18.161175 14.893754 8.358686 22.295807 31.238935 14.515559 19.101742 17.621197
17.745098 24.230799 15.594086 15.934654 14.480134 15.746787 19.062162 15.687577
00000000: 3a01 6a41 6b92 5542 3910 8642 2669 a941
00000010: 0760 e63f 4418 8441 7248 d141 d04a 9641
00000020: 164a 9141 d14c 6e41 2ebd 0541 d05d b241
00000030: 57e9 f941 bb3f 6841 5ed0 9841 36f8 8c41
00000040: f6f5 8d41 add8 c141 6081 7941 58f4 7e41
00000050: a1ae 6741 d7f2 7b41 4f7f 9841 5100 7b41

decoder.3.weight f4 [24, 12, 4, 4]
0.033273667 0.107831605 0.045247637 -0.03568502 -0.03838625 -0.030459156 0.09212749 -0.108861156
0.17911166 0.17116451 -0.1318298 0.008099216 0.025891606 0.06273146 -0.16333656 0.022468688
0.051227845 -0.026468916 0.2756571 -0.0325619 0.09411106 -0.1636296 0.29883778 -0.059900574
0.03193463 -0.15611723 -0.05616964 0.10055627 0.013916065 -0.011415659 0.028149921 0.0501212
0.046350095 0.12792158 -0.410348 0.090123065 -0.19014657 0.14126606 -0.19316454 0.11031931
-0.22398834 0.09716536 -0.6853256 0.03337531 -0.094070196 -0.18647224 0.08377244 -0.023906173
-0.07143823 -0.03546341 -0.033558484 -0.06686893 0.15382516 -0.9856064 0.123729564 -0.16092522
0.09390118 -0.14205143 0.20460933 0.059810854 0.021454768 -0.08453341 -0.0704998 0.060299475
-0.027845941 0.08844671 0.06991506 0.061565552 0.088921465 0.010498907 -0.41490817 0.03875721
-0.018712303 -0.30694813 0.13997573 -0.035048254 -0.059328698 -0.44284928 -0.25389385 -0.22145478
-0.09054251 0.046574946 -0.08844524 0.019471625 0.27272096 0.16612922 -0.3212842 -0.12211582
-0.10724562 0.08487174 0.23975603 0.025496766 0.01720767 -0.13711812 -0.24693467 -0.032661274
-0.091280244 0.059404414 -0.020569395 -0.04478587 -0.0838854 -0.0445177 -0.12926866 0.06758604
-0.20868082 -0.2824529 -0.036832444 -0.0008067814 -0.03319251 -0.06778206 0.12395447 -0.0028153432
-0.0047243577 -0.012775799 0.03353882 -0.013926596 0.0970972 0.4018162 0.0053980704 0.07542543
0.09565876 0.039299887 0.023045251 -0.040361397 -0.03682539 -0.02210871 -0.012773523 -0.033312656
0.0014635666 0.054855846 0.011031427 -0.047828104 0.115677714 0.15788506 0.14351124 -0.057272676
0.18615021 0.3394281 0.12911566 -0.12114951 0.05839804 0.14868107 -0.08850311 -0.08184399
0.06392475 0.1614672 0.06721175 -0.10548423 -0.17360716 0.075562574 -0.4212421 0.030395025
0.054111715 0.05608912 -0.29938957 -0.36791533 0.07260135 0.050726283 -0.006751174 -0.025828838
-0.25025788 0.1751707 -0.11285057 0.13403504 0.03602304 0.56896764 0.089015946 0.12846461
0.075518794 0.7601446 0.042241395 0.12596303 -0.04035355 -0.039954282 0.027409472 -0.061253704
-0.077334724 -0.112113774 -0.58367103 0.06957561 0.12847985 0.8627329 0.13003474 0.10335314
-0.057683118 -0.33071223 -0.042849377 0.0039477986 0.009755439 0.34030315 -0.17529978 0.05777768
-0.021652076 -0.2353765 -0.02564092 0.033182893 -0.11456224 -0.6072221 -0.26697394 -0.030953592
-0.024091259 -0.4958936 -0.042024776 0.023348162 -0.15587234 -0.26943702 -0.32271296 0.0059359265
-0.08292858 -0.103007816 -0.2589218 -0.06961669 -0.20517096 -0.1694771 -0.47616625 -0.054827124
-0.4583081 -0.4486803 0.033553466 0.033091616 -0.23368281 -0.19574538 -0.05110998 -0.04094213
-0.08569549 -0.069768995 0.014477464 -0.006898045 -0.08492529 0.07223557 0.018732391 -0.06629022
0.12044178 0.6654822 -0.06502859 0.08860703 -0.0054199155 -0.043053463 0.09927745 0.017838215
-0.023196677 -0.2542242 -0.07509325 -0.09884916 -0.12967336 -0.8802454 -0.24442938 -0.1494027
0.14656098 -0.6354005 0.24861108 0.03852482 -0.11022815 -0.39476776 -0.23423712 -0.2635
00000000: f849 083d d1d6 dc3d 9655 393d 752a 12bd
00000010: e73a 1dbd 7b85 f9bc 56ad bc3d 99f2 debd
00000020: 0c69 373e c045 2f3e 64fe 06be 93b2 043c
00000030: a21a d43c 5a79 803d b341 27be 4110 b83c
00000040: 4ad4 513d 57d5 d8bc ed22 8d3e a05f 05bd
00000050: 4dbd c03d 858e 27be 4401 993e 4e5a 75bd
00000060: e3cd 023d 32dd 1fbe 2312 66bd 72f0 cd3d
00000070: 3500 643c bf08 3bbc aa9a e63c e34b 4d3d
00000080: 99d9 3d3d e0fd 023e 2219 d2be 7192 b83d
00000090: c8b5 42be 0da8 103e edcc 45be 17ef e13d
000000a0: 335d 65be a2fe c63d 8071 2fbf 8db4 083d
000000b0: e0a7 c0bd 94f2 3ebe e390 ab3d e1d6 c3bc
000000c0: 354e 92bd 1542 11bd 9f74 09bd 94f2 88bd
000000d0: 5884 1d3e b350 7cbf ed65 fd3d 95c9 24be
000000e0: 434f c03d ee75 11be 1c85 513e 3afc 743d
000000f0: e9c1 af3c da1f adbd 3362 90bd 95fc 763d
00000100: 2c1d e4bc 8c23 b53d a12f 8f3d 292c 7c3d
00000110: 751c b63d 9c03 2c3c d86e d4be e1bf 1e3d
00000120: 8b4a 99bc 4e28 9dbe cc55 0f3e c28e 0fbd
00000130: a602 73bd 24bd e2be 60fe 81be 0bc5 62be
00000140: 5a6e b9bd 5fc5 3e3d c722 b5bd f582 9f3c
00000150: 15a2 8b3e c71d 2a3e 5d7f a4be dc17 fabd
00000160: 97a3 dbbd 3cd1 ad3d 9b82 753e 98de d03c
00000170: 19f7 8c3c b168 0cbe 71dc 7cbe d4c7 05bd
00000180: 23f1 babd 0b52 733d 2681 a8bc 6371 37bd
00000190: 1ccc abbd 3158 36bd 015f 04be 8d6a 8a3d
000001a0: 6db0 55be ab9d 90be 9edd 16bd 2f7e 53ba
000001b0: dff4 07bd 52d1 8abd d7db fd3d 9f81 38bb
000001c0: c9ce 9abb 9651 51bc 0060 093d 612c 64bc
000001d0: e6da c63d daba cd3e 4ce2 b03b a678 9a3d
000001e0: bde8 c33d ebf8 203d 65c9 bc3c fe51 25bd
000001f0: 38d6 16bd 531d b5bc 0a48 51bc da72 08bd
00000200: 25d5 bf3a 86b0 603d 29bd 343c 67e7 43bd
00000210: 70e8 ec3d 9fac 213e 9cf4 123e c196 6abd
00000220: 299e 3e3e 85c9 ad3e e536 043e 3c1d f8bd
00000230: c832 6f3d da3f 183e 1e41 b5bd d29d a7bd
00000240: fbea 823d a857 253e 50a6 893d 1e08 d8bd
00000250: 13c6 31be 8dc0 9a3d 0bad d7be fdfe f83c
00000260: 3fa4 5d3d b5bd 653d 9749 99be 665f bcbe
00000270: 04b0 943d 5dc6 4f3d f438 ddbb 0097 d3bc
00000280: cd21 80be f35f 333e 331e e7bd 7b40 093e
00000290: e58c 133d dda7 113f fe4d b63d 3a8c 033e
000002a0: 99a9 9a3d d698 423f 5005 2d3d 74fc 003e
000002b0: c449 25bd 1aa7 23bd d489 e03c 2ae5 7abd
000002c0: ab61 9ebd e89b e5bd 776b 15bf a87d 8e3d
000002d0: 3990 033e 10dc 5c3f d427 053e d0aa d33d
000002e0: 2245 6cbd 1d53 a9be d482 2fbd 895c 813b
000002f0: 47d5 1f3c 373c ae3e c981 33be 4aa8 6c3d
00000300: b25f b1bc 8a06 71be e80c d2bc c9ea 073d
00000310: 9c9f eabd e872 1bbf cfb0 88be 6392 fdbc
00000320: 085b c5bc c4e5 fdbe 2c22 2cbd a544 bf3c
00000330: 009d 1fbe a6f3 89be a23a a5be 2982 c23b
00000340: 76d6 a9bd c3f5 d2bd 6691 84be 3293 8ebd
00000350: 5618 52be 688b 2dbe 10cc f3be 6892 60bd
00000360: 5ca7 eabe 6db9 e5be 5c6f 093d 138b 073d
00000370: 8c4a 6fbe 7a71 48be b358 51bd efb2 27bd
00000380: 1e81 afbd 0ce3 8ebd e332 6d3c ff08 e2bb
00000390: 4fed adbd 3ef0 933d ac74 993c 2bc3 87bd
000003a0: 2eaa f63d 0b5d 2a3f b62d 85bd 9a77 b53d
000003b0: 8c99 b1bb d458 30bd fa51 cb3d 7321 923c
000003c0: f506 bebc ad29 82be 7dca 99bd 6e71 cabd
000003d0: 18c9 04be c357 61bf b24b 7abe 05fd 18be
000003e0: 1514 163e 9ba9 22bf e793 7e3e 34cc 1d3d
000003f0: 4cbf e1bd 001f cabe dbdb 6fbe 79e9 86be

decoder.3.bias f4 [12]
0.069576405 0.039679863 0.012167088 0.03917303 0.025498878 -0.04986397 -0.07170673 0.044199925
-0.02752267 -0.06257711 0.017418787 0.06286371
00000000: 137e 8e3d 5a87 223d 7758 473c e673 203d
00000010: 06e3 d03c 2a3e 4cbd fada 92bd fb0a 353d
00000020: 3977 e1bc 6e28 80bd d8b1 8e3c b0be 803d

decoder.4.weight f4 [12]
0.7792306 1.1436737 0.8131821 1.2132065 1.1130105 1.0486166 0.7109975 0.870208
1.0302713 1.0427668 0.61610836 0.86318815
00000000: a87b 473f e663 923f b42c 503f 5a4a 9b3f
00000010: 2177 8e3f 1239 863f ef03 363f f4c5 5e3f
00000020: eedf 833f 6279 853f 47b9 1d3f e6f9 5c3f

decoder.4.bias f4 [12]
-0.49379304 -0.21821223 0.035392966 -0.21983387 -0.5137729 -0.17670551 0.16615638 -0.0137274815
-0.5906731 -0.216398 0.19255365 -0.06532705
00000000: 71d2 fcbe 0773 5fbe 37f8 103d 211c 61be
00000010: 9f86 03bf 4af2 34be e624 2a3e 3be9 60bc
00000020: 5a36 17bf 7097 5dbe c92c 453e 30ca 85bd

decoder.4.running_mean f4 [12]
-0.8712259 -1.2590222 -0.33287838 -1.4818286 -0.53437734 -0.202404 0.19223255 -0.29894596
-0.57400346 -0.35714287 0.5021689 -0.46416333
00000000: a908 5fbf a427 a1bf 096f aabe 8fac bdbf
00000010: f4cc 08bf ff42 4fbe 9cd8 443e 720f 99be
00000020: e4f1 12bf 6edb b6be 248e 003f d1a6 edbe

decoder.4.running_var f4 [12]
0.9636119 3.2272377 2.341514 3.572066 2.9628594 2.4982123 1.3127637 5.1489644
2.3632708 2.1100724 2.2211742 2.3991182
00000000: 45af 763f 108b 4e40 5edb 1540 bb9c 6440
00000010: 7d9f 3d40 b6e2 1f40 a408 a83f 51c4 a440
00000020: d43f 1740 6d0b 0740 b827 0e40 278b 1940
