paper/notebooks/data_reconstruction/pre-trained/cifar/ae.pt (torch, 192955 bytes, 12 tensors)

encoder.0.weight f4 [12, 3, 4, 4]
0.10017258 0.12638193 -0.028956039 0.12330878 -0.018496284 0.060150266 -0.04854821 0.091216505
0.12943102 -0.08516766 0.13141002 0.023433674 0.09865212 0.039494913 0.07332154 -0.011224147
0.1017772 0.030596303 -0.057872184 0.040100418 -0.05775006 0.013452396 -0.034062307 0.11305414
-0.11603567 -0.045362122 -0.029791685 -0.07869312 0.0022636729 -0.12340673 0.13639879 -0.103254355
0.12943065 0.062237933 -0.004665676 0.117262974 0.05281778 0.16877481 0.06672475 -0.00860059
0.060495205 0.0057415934 0.09940726 0.15472987 0.08819723 -0.028466914 0.10763727 0.050739214
0.08212935 -0.08271674 -0.10195461 -0.03798392 -0.1187541 0.12872496 0.08967039 0.05730127
0.04137729 0.005191856 0.1551133 -0.09580492 -0.0021107353 -0.11237374 0.06278262 -0.046847768
0.04317314 -0.04637391 0.13999248 -0.07307818 -0.10512893 -0.09583577 0.15774627 0.033465937
0.12673037 -0.1277879 -0.116317965 -0.117366366 -0.10863231 0.034225028 0.060803123 0.11704925
-0.06727627 -0.11666277 0.09464904 -0.040144406 0.082853876 -0.035167705 0.12346473 -0.11231059
-0.07369446 0.040805724 0.06861187 -0.030504327 0.087916024 0.08494379 -0.077997774 -0.06640733
0.1488008 0.14432998 0.021448573 -0.019336117 0.11158034 0.23307368 0.079350986 0.05925922
0.120955385 0.040426366 -0.06011096 0.09429843 -0.037257574 0.022271115 0.17323878 0.18837173
-0.013644421 -0.03530027 -0.14611436 -0.048412282 0.11353771 -0.072517395 -0.13535744 -0.097005896
-0.0050031873 -0.08200196 -0.13059476 -0.102595314 -0.1171913 -0.10861043 -0.15864979 -0.072479054
0.060768854 0.07285095 0.05538602 0.0038787473 0.04236915 0.22345662 -0.07322138 -0.049351245
-0.05520873 -0.09127857 -0.036595225 -0.014546814 0.099782854 -0.05954683 0.0386217 -0.02422101
-0.11570015 0.040192347 0.06336497 0.03296131 0.1149117 0.08720673 0.18561439 -0.12205178
-0.10820706 -0.048678093 0.17587489 -0.18580797 -0.022379141 0.050315127 0.0005979622 -0.1325097
0.044399507 0.07930037 0.06350863 -0.117015034 0.05677297 0.23112811 0.15432283 0.15595871
-0.04193301 0.027672531 0.04491988 -0.004852706 0.005511977 -0.0005816509 -0.07575464 -0.03829688
-0.15531667 0.12103078 0.1997477 -0.078681864 0.0787967 0.36388642 0.30717754 0.024165098
0.056754805 0.22021358 0.23299259 0.008368921 -0.02603675 0.10989529 0.052276295 -0.0018097109
0.11883581 0.13825582 0.018164683 -0.03538267 0.03476829 0.029005613 0.098496765 0.04601993
-0.083623864 -0.022274803 0.17563437 0.073856086 0.034370366 -0.06692714 -0.04616119 -0.09730597
-0.057925303 0.023960704 0.09099602 0.053000797 -0.13282968 -0.08979137 0.0076162317 0.13418326
0.0395022 -0.0424316 0.08268275 -0.04924459 -0.05440789 0.10912676 -0.04311937 -0.0048487056
-0.16645636 0.057469573 0.09924753 0.03845683 -0.11976992 -0.15668352 -0.08950344 0.10571064
0.070269376 0.1006963 0.09120054 0.03963065 0.030125476 -0.10727749 -0.09480795 -0.1023156
0.08333978 -0.02655157 0.017017746 -0.04957853 0.022917058 -0.011401093 -0.016869752 0.08903084
-0.01591706 0.13167936 -0.0011205067 -0.074623704 0.02041436 -0.012784621 0.0059627932 -0.07145766
00000000: 4827 cd3d 446a 013e 3735 edbc 5089 fc3d
00000010: 8585 97bc 2060 763d 7dda 46bd b8cf ba3d
00000020: 9189 043e 626c aebd 5990 063e faf7 bf3c
00000030: 1f0a ca3d 6bc5 213d 9b29 963d 7ce5 37bc
00000040: 9170 d03d 19a5 fa3c 620b 6dbd 5640 243d
00000050: 548b 6cbd 7067 5c3c eb84 0bbd ee88 e73d
00000060: 1ca4 edbd a2cd 39bd b10d f4bc dc29 a1bd
00000070: 215a 143b abbc fcbd 20ac 0b3e 0577 d3bd
00000080: 7889 043e 34ed 7e3d 87e2 98bb 9227 f03d
00000090: 7557 583d 4ed3 2c3e fca6 883d 7de9 0cbc
000000a0: d2c9 773d fa23 bc3b 0996 cb3d 8271 1e3e
000000b0: c0a0 b43d 7233 e9bc ee70 dc3d ecd3 4f3d
000000c0: 6f33 a83d 6567 a9bd 94cd d0bd 0795 1bbd
000000d0: 5935 f3bd 7ad0 033e 1ca5 b73d bdb4 6a3d
000000e0: 3c7b 293d 7220 aa3b 05d6 1e3e 5f35 c4bd
000000f0: 4354 0abb 3424 e6bd 2d94 803d 72e3 3fbd
00000100: 52d6 303d 92f2 3dbd 305a 0f3e 03aa 95bd
00000110: d64d d7bd 8b45 c4bd 3d88 213e 9413 093d
00000120: 9bc5 013e d5da 02be 1d38 eebd c75d f0bd
00000130: 9e7a debd 8b2f 0c3d b20c 793d 84b7 ef3d
00000140: 24c8 89bd e4ec eebd 5bd7 c13d 766e 24bd
00000150: 4baf a93d 030c 10bd 14db fc3d 1803 e6bd
00000160: 1fed 96bd e723 273d 6184 8c3d 36e4 f9bc
00000170: 510d b43d 03f7 ad3d 4cbd 9fbd 9100 88bd
00000180: 3d5f 183e 3dcb 133e ebb4 af3c c766 9ebc
00000190: 3c84 e43d deaa 6e3e c582 a23d ccb9 723d
000001a0: 75b7 f73d 1e96 253d e936 76bd 891f c13d
000001b0: 669b 18bd ea71 b63c 8265 313e 85e4 403e
000001c0: d98c 5fbc 0497 10bd 019f 15be f54b 46bd
000001d0: 7586 e83d 0084 94bd 249b 0abe 07ab c6bd
000001e0: c7f1 a3bb a5f0 a7bd a2ba 05be 7e1d d2bd
000001f0: fe01 f0bd 256f debd 1775 22be e66f 94bd
00000200: c3e8 783d e132 953d 74dc 623d 9532 7e3b
00000210: 468b 2d3d d0d1 643e 17f5 95bd 8824 4abd
00000220: 8d22 62bd 42f0 babd e0e4 15bd c355 6ebc
00000230: f45a cc3d 60e7 73bd ca31 1e3d 246b c6bc
00000240: 33f4 ecbd bba0 243d 7ec5 813d 7002 073d
00000250: d356 eb3d 7199 b23d b311 3e3e 49f6 f9bd
00000260: aa9b ddbd ae62 47bd 8c18 343e 7244 3ebe
00000270: 7654 b7bc 3c17 4e3d 90c0 1c3a 9fb0 07be
00000280: 42dc 353d 3b68 a23d d010 823d 94a5 efbd
00000290: c68a 683d d9ac 6c3e ce06 1e3e a4b3 1f3e
000002a0: f3c1 2bbd 81b1 e23c e8fd 373d 7303 9fbb
000002b0: d09d b43b ee79 18ba 4025 9bbd 30dd 1cbd
000002c0: 550b 1fbe fcde f73d a98a 4c3e f523 a1bd
000002d0: 2a60 a13d 524f ba3e 6046 9d3e e2f5 c53c
000002e0: ba77 683d ab7f 613e 9c95 6e3e cc1d 093c
000002f0: 064b d5bc c810 e13d ab1f 563d d233 edba
00000300: 3060 f33d ef92 0d3e 1ace 943c 6bed 10bd
00000310: 3269 0e3d 2e9d ed3c acb8 c93d 657f 3c3d
00000320: fd42 abbd a679 b6bc 7fd9 333e dc41 973d
00000330: f1c7 0c3d 1911 89bd 8413 3dbd 5a48 c7bd
00000340: 1543 6dbd 3d49 c43c 1f5c ba3d 5d17 593d
00000350: 8104 08be 8ae4 b7bd 9591 f93b 5667 093e
00000360: 0fcd 213d c2cc 2dbd 9355 a93d b2b4 49bd
00000370: cfda 5ebd da7d df3d f09d 30bd e4e1 9ebb
00000380: 8973 2abe 3765 6b3d 4a42 cb3d e984 1d3d
00000390: ef49 f5bd a571 20be 944d b7bd d27e d83d
000003a0: 64e9 8f3d dd39 ce3d 59c7 ba3d c053 223d
000003b0: b4c9 f63c 4db4 dbbd ac2a c2bd d78a d1bd
000003c0: 0cae aa3d ae82 d9bc cd68 8b3c db12 4bbd
000003d0: 8ebc bb3c a6cb 3abc 6f32 8abc cd55 b63d
000003e0: 7f64 82bc f4d6 063e f7dd 92ba 50d4 98bd
000003f0: 043c a73c 9676 51bc 8963 c33b 6558 92bd

encoder.0.bias f4 [12]
-0.09082944 0.20229912 0.3680468 -0.0030427694 0.2205281 -0.1283725 0.36748752 0.25329354
0.21382548 0.0069887377 -0.16190863 0.13638149
00000000: c904 babd 8027 4f3e a170 bc3e 3369 47bb
00000010: 1ed2 613e 1574 03be 5327 bc3e b1af 813e
00000020: 11f5 5a3e c801 e53b 60cb 25be 97a7 0b3e

encoder.2.weight f4 [24, 12, 4, 4]
0.0068065873 0.0024411986 0.0042300904 0.030843457 -0.05858642 -0.009779335 -0.05938091 -0.082723185
-0.012114758 -0.07199552 0.019930579 -0.018444277 -0.04762903 0.029718142 -0.081299275 -0.042183712
0.11337809 0.003031389 0.015179459 0.063069396 0.14664736 0.14144404 0.14076667 0.013431016
0.07219688 0.16016756 0.093846 0.058552314 0.0940963 0.04849221 -0.0027025263 0.11781491
-0.032588817 0.015553687 -0.05978655 -0.019825688 -0.01620619 -0.039098624 -0.009307035 0.0915818
-0.093365796 0.003137021 -0.012274757 0.0143756615 0.02055709 0.048512623 0.010261013 -0.012074268
-0.025358256 -0.033965502 -0.07914501 -0.010674102 0.031155273 -0.1055988 0.049267806 0.037892524
-0.046274256 -0.038180772 0.013184183 -0.028138839 0.023663132 -0.023835035 0.04728912 -0.042718045
0.07768212 0.03081679 0.057054073 0.04400267 -0.0020776633 0.008731805 0.071919955 0.059269935
-0.013545087 0.058715463 -0.028768435 0.07541056 0.04840081 0.05425953 0.033759303 0.008674707
0.04277848 -0.07884393 -0.026747154 0.012479834 0.08261137 -0.0089899795 -0.060365543 0.030011637
-0.015105423 -0.025427334 -0.091238625 -0.048764087 0.07653451 0.022076545 -0.054102406 -0.006280641
0.04115231 -0.041081615 -0.001018454 -0.04109447 0.09022565 0.13636996 0.11875947 0.09868416
0.21217489 0.03623047 0.09389945 0.21693584 0.15803054 0.19222043 0.10691202 0.10320535
0.10360703 0.03217918 0.009348364 -0.03615726 0.121746756 0.070344254 0.08790526 0.1070482
0.0014488073 0.0921399 0.059154615 0.10151568 0.09191619 -0.017244617 0.14585221 0.1207908
0.0356537 -0.059637375 0.023982212 0.0094562955 0.008809302 0.02373615 0.08003695 0.08717618
0.004623874 0.028437058 0.11864076 -0.050623756 -0.031902395 -0.061259735 0.07429622 -0.074807845
-0.04262176 0.039853964 0.06156696 0.058751956 -0.0638211 -0.08283554 0.054452043 0.065599956
0.0678551 0.0260986 0.04046849 0.06651761 -0.024489922 -0.0550303 0.0459719 -0.05727407
-0.034443337 0.035226315 -0.008285123 -0.0107162995 -0.045776963 -0.03549005 0.027014932 -0.08305064
-0.0151253 0.0130207855 -0.070400596 0.040522747 -0.050759465 -0.042683054 -0.05466826 -0.08584904
-0.06240969 0.049006034 0.036527812 -0.08472893 -0.015013078 0.09683493 0.07147061 0.062398653
-0.02101851 -0.03059566 0.00062999566 0.009296556 -0.0028420205 0.04675391 0.036227148 0.011540376
0.01879826 -0.033887714 0.006098114 0.010645981 -0.023261739 -0.07540788 0.035404574 0.017527608
-0.027825335 0.05660713 -0.031864174 0.057335768 0.035794392 -0.06560091 0.034989793 -0.054943446
0.008206143 0.020037709 -0.031193363 0.1008591 0.07689976 0.10039276 -0.003948417 0.09719681
0.09303136 0.035363194 0.115406714 0.07099395 0.114616506 0.0100818025 0.037887882 0.027623376
0.057807036 0.106157884 0.066575274 -0.016854016 0.11688484 0.17966487 0.039926026 0.03487528
0.11683702 0.17521496 0.04024701 0.02345437 -0.062232427 -0.010541891 0.010587041 -0.052855894
0.05475644 -0.022511993 0.045398936 0.0037436471 -0.046993103 -0.057762865 -0.06710004 0.054041997
-0.029843066 -0.037640575 -0.007584713 -0.026650174 0.040189695 -0.06372916 -0.062442217 -0.041168228
00000000: cb09 df3b 84fc 1f3b 929c 8a3b 6bab fc3c
00000010: 50f8 6fbd 8139 20bc 6639 73bd c66a a9bd
00000020: fa7c 46bc 6372 93bd 7445 a33c 7418 97bc
00000030: a816 43bd 7673 f33c 3c80 a6bd d4c8 2cbd
00000040: c632 e83d 45aa 463b 44b3 783c 872a 813d
00000050: ba2a 163e b5d6 103e 2325 103e c40d 5c3c
00000060: f5db 933d f702 243e 5532 c03d 8dd4 6f3d
00000070: 90b5 c03d c59f 463d de1c 31bb f248 f13d
00000080: da7b 05bd e4d4 7e3c bee2 74bd 7b69 a2bc
00000090: d8c2 84bc e125 20bd 897c 18bc 3d8f bb3d
000000a0: 9136 bfbd 7b96 4d3b 101c 49bc e587 6b3c
000000b0: 5867 a83c 2cb5 463d cf1d 283c 27d3 45bc
000000c0: 1ebc cfbc 691f 0bbd c716 a2bd 6ee2 2ebc
000000d0: 5839 ff3c 2f44 d8bd 0acd 493d 3135 1b3d
000000e0: 138a 3dbd 7163 1cbd 7902 583c 6c83 e6bc
000000f0: 2fd9 c13c b141 c3bc 3cb2 413d 1ef9 2ebd
00000100: ce17 9f3d 7e73 fc3c 88b1 693d 253c 343d
00000110: 6829 08bb d80f 0f3c c54a 933d 08c5 723d
00000120: 36ec 5dbc a07f 703d c8ab ebbc da70 9a3d
00000130: ee3f 463d 3e3f 5e3d 3247 0a3d 5c20 0e3c
00000140: 7d38 2f3d ed78 a1bd d91c dbbc 3878 4c3c
00000150: 2630 a93d b54a 13bc dc41 77bd f7da f53c
00000160: bc7c 77bc fc4c d0bc 51db babd dabc 47bd
00000170: 20be 9c3d dfd9 b43c 7c9a 5dbd d6cd cdbb
00000180: 538f 283d 3245 28bd a57d 85ba ad52 28bd
00000190: 3ac8 b83d 91a4 0b3e 2a38 f33d ec1a ca3d
000001a0: 6044 593e 6766 143d 5b4e c03d 6e24 5e3e
000001b0: c2d2 213e 6fd5 443e b0f4 da3d 545d d33d
000001c0: ec2f d43d 51ce 033d e129 193c a319 14bd
000001d0: 5d56 f93d a610 903d ac07 b43d 163c db3d
000001e0: e8e5 bd3a d8b3 bc3d 1c4c 723d 74e7 cf3d
000001f0: 8e3e bc3d 9544 8dbc 485a 153e 2b61 f73d
00000200: 9d09 123d 5246 74bd 5876 c43c 94ee 1a3c
00000210: e454 103c 5072 c23c 6aea a33d 6d89 b23d
00000220: de83 973b d5f4 e83c edf9 f23d db5a 4fbd
00000230: 16ac 02bd 7deb 7abd 9e28 983d db34 99bd
00000240: 2894 2ebd e93d 233d a32d 7c3d e4a5 703d
00000250: a3b4 82bd aea5 a9bd 1b09 5f3d 4559 863d
00000260: 9df7 8a3d bbcc d53c 4ac2 253d 623a 883d
00000270: 179f c8bc 7467 61bd 084d 3c3d 3798 6abd
00000280: 7514 0dbd 7849 103d 53be 07bc 6b93 2fbc
00000290: a080 3bbd 045e 11bd 6b4e dd3c 7416 aabd
000002a0: 1bd0 77bc 2255 553c 302e 90bd 2efb 253d
000002b0: 28e9 4fbd 6dd4 2ebd d3eb 5fbd 9fd1 afbd
000002c0: 4ea1 7fbd 8dba 483d 309e 153d 5c86 adbd
000002d0: 6af9 75bc 6451 c63d 2f5f 923d bb95 7f3d
000002e0: 032f acbc c0a3 fabc 4b26 253a 9550 183c
000002f0: 3141 3abb 0781 3f3d eb62 143d d813 3d3c
00000300: cffe 993c d8cd 0abd b0d2 c73b 7b6c 2e3c
00000310: 678f bebc 726f 9abd 6304 113d 0f96 8f3c
00000320: f5f1 e3bc e1dc 673d 0284 02bd e9d8 6a3d
00000330: 249d 123d c559 86bd 7551 0f3d 610c 61bd
00000340: 0f73 063c 1f26 a43c 3989 ffbc 378f ce3d
00000350: 9f7d 9d3d b89a cd3d b961 81bb 1f0f c73d
00000360: 3a87 be3d ffd8 103d 5b5a ec3d 4765 913d
00000370: 0fbc ea3d 252e 253c 5330 1b3d 6b4a e23c
00000380: 12c7 6c3d 4e69 d93d 9e58 883d 6f11 8abc
00000390: 5261 ef3d 11fa 373e 7989 233d 62d9 0e3d
000003a0: 3f48 ef3d 8d6b 333e 0cda 243d 6123 c03c
000003b0: 6ee7 7ebd e5b7 2cbc 4575 2d3c 6c7f 58bd
000003c0: 4a48 603d 126b b8bc 3cf4 393d fa57 753b
000003d0: d77b 40bd c198 6cbd bf6b 89bd 245b 5d3d
000003e0: 7279 f4bc 012d 1abd 2f89 f8bb 7751 dabc
000003f0: f39d 243d 6f84 82bd 69c3 7fbd 04a0 28bd

encoder.2.bias f4 [24]
0.18204297 0.1747784 -0.09778988 0.046334445 -0.017296089 0.16364843 -0.05231964 0.0687333
-0.030666256 0.19031034 0.23925413 -0.09889216 -0.108837694 -0.12632692 0.175378 0.007223486
0.19777346 -0.14981009 0.023133248 0.1974382 0.18669498 -0.08222229 -0.099910475 -0.14327635
00000000: 7969 3a3e 1cf9 323e 1046 c8bd 30c9 3d3d
00000010: 87b0 8dbc 7493 273e 1e4d 56bd 0bc4 8c3d
00000020: cd37 fbbc b7e0 423e 09ff 743e f987 cabd
00000030: 4ce6 debd d85b 01be 4a96 333e feb2 ec3b
00000040: 2085 4a3e d167 19be f081 bd3c 3d2d 4a3e
00000050: f82c 3f3e 2964 a8bd dd9d ccbd 09b7 12be

encoder.4.weight f4 [48, 24, 4, 4]
-0.03718156 -0.042051338 -0.05635821 -0.0035494915 -0.08816303 0.1058098 -0.06758164 0.009597607
0.02310941 -0.10641836 -0.19524606 0.0081041 0.043282043 -0.07501173 -0.16717207 0.045066904
0.055682644 0.0047544874 -0.020328939 0.014000951 -0.013874657 0.040776093 0.122379184 -0.06624288
0.0025918223 -0.051525556 0.034741577 0.030765202 -0.0610741 0.019167934 -0.017473726 -0.04165496
0.047378898 0.018415868 0.010476147 0.02921222 -0.00902323 -0.14345387 -0.07576958 -0.036010638
0.07271276 -0.033970024 -0.01898101 -0.039920002 -0.027043968 0.005150989 0.028790697 -0.030764034
-0.014038076 0.01102853 0.012606964 -0.034177676 0.021984462 0.038774747 0.06265656 -0.01852172
-0.08567881 0.11563848 0.22560997 -0.0051389895 -0.010050871 -0.022084199 -0.03724043 -0.10334244
0.00921289 -0.07661412 -0.042955205 -0.02567374 -0.04247207 0.026375853 -0.04190333 -0.038869075
0.060851794 -0.17065655 -0.2212318 -0.0318523 -0.005411627 -0.09800309 -0.09275132 -0.008758295
-0.01895785 -0.011230337 0.026733475 0.03148533 -0.03271482 0.13279329 0.13231148 0.01961885
0.046248738 0.05852047 0.018217854 0.043259554 0.026030323 0.016755942 -0.04717699 0.0061264476
0.008557826 -0.020082783 5.4773354e-06 0.05516264 0.027783236 -0.11222415 -0.005732757 0.05468563
-0.007543267 0.09798954 0.05321315 0.007408915 0.0125673935 0.00064302934 0.032547344 0.005008423
-0.0056966124 -0.01512726 0.034712773 -0.05847179 -0.062134568 0.12400844 0.1970563 -0.0512593
0.009221545 -0.0166782 -0.04113573 -0.002393777 -0.011139786 0.079080194 0.047058873 -0.028412707
0.05003359 0.051035352 0.029976415 -0.010956382 -0.021527683 0.0020495353 0.16037613 0.038525365
0.014085302 -0.017692588 -0.052244913 0.021069815 -0.0014497939 -0.016749129 -0.016613193 -0.010441603
0.0016880608 -0.0056331293 -0.025796976 0.019101223 -0.027880447 0.010152955 0.17027882 0.015548124
-0.013652789 0.42684168 0.36938408 0.03146322 -0.020248752 -0.036247276 0.057737183 0.021277633
-0.08909292 -0.04395082 0.07869567 -0.12280628 -0.06239353 0.20855238 0.16614285 -0.120859355
0.061904654 0.04610242 0.07782045 -0.09642991 0.024052514 -0.0072355955 -0.009289303 -0.093445994
-0.028650615 -0.0527978 -0.005831558 0.011438437 -0.016327897 -0.04395038 -0.053291995 -0.013876985
-0.024844907 0.006807956 0.009647209 0.031367317 -0.027309053 -0.053719927 -0.07190956 -0.048075553
0.019922683 0.0162283 0.020845069 0.056182962 0.04242367 -0.093287 -0.08274093 0.022489974
0.074780844 -0.093716785 -0.016218055 -0.018057378 -0.010129202 -0.045650475 -0.025390811 0.03390589
-0.08274778 0.02756498 0.11491773 -0.029232468 -0.0020719678 -0.026164556 0.05187172 -0.0021182671
-0.056806307 0.0012756143 -0.049167562 -0.12026055 -0.013279767 0.0155818835 0.024805734 0.010918049
-0.014662906 0.017304499 -0.049670774 -0.053062405 0.03399054 -0.00432139 -0.15667483 -0.06920823
-0.019598275 -0.085994594 -0.074275196 0.042243656 -0.01617474 0.053574625 0.053091098 0.025668334
-0.04122582 -0.0329246 -0.0042158747 0.03994858 0.01909265 0.048069295 0.12712377 -0.039860606
0.014290231 -0.027289465 -0.07908055 0.053791247 0.034891106 0.096029714 0.04859185 0.06284202
00000000: b14b 18bd 063e 2cbd ded7 66bd 969e 68bb
00000010: d28e b4bd cfb2 d83d 3e68 8abd 483f 1d3c
00000020: f24f bd3c def1 d9bd 95ee 47be 0fc7 043c
00000030: 8348 313d c09f 99bd 282f 2bbe 1398 383d
00000040: 7c13 643d 88cb 9b3b e088 a6bc 3f64 653c
00000050: 8852 63bc d504 273d f0a1 fa3d 59aa 87bd
00000060: 90db 293b 760c 53bd 2f4d 0e3d 4e07 fc3c
00000070: d628 7abd 1206 9d3c 0f25 8fbc 649e 2abd
00000080: 6010 423d e0dc 963c 25a4 2b3c 774e ef3c
00000090: 2bd6 13bc 92e5 12be 152d 9bbd e47f 13bd
000000a0: 6dea 943d 2724 0bbd 107e 9bbc 2883 23bd
000000b0: 508b ddbc a1c9 a83b 78da eb3c db04 fcbc
000000c0: f5ff 65bc 02b1 343c 718d 4e3c e4fd 0bbd
000000d0: c218 b43c 45d2 1e3d 1552 803d ddba 97bc
000000e0: 5f78 afbd ded3 ec3d 4d06 673e f864 a8bb
000000f0: 69ac 24bc ece9 b4bc 6c89 18bd 34a5 d3bd
00000100: a9f1 163c dde7 9cbd ccf1 2fbd bc51 d2bc
00000110: 31f7 2dbd 2c12 d83c d3a2 2bbd 2e35 1fbd
00000120: bb3f 793d 97c0 2ebe 978a 62be 8f77 02bd
00000130: 0454 b1bb d8b5 c8bd 67f4 bdbd f47e 0fbc
00000140: 7e4d 9bbc 73ff 37bc 2900 db3c c3f6 003d
00000150: faff 05bd f7fa 073e a97c 073e b6b7 a03c
00000160: 516f 3d3d 29b3 6f3d 9c3d 953c ee30 313d
00000170: 8b3d d53c c243 893c a93c 41bd 5ec0 c83b
00000180: 2036 0c3c a684 a4bc f4c9 b736 38f2 613d
00000190: ab99 e33c c6d5 e5bd dad9 bbbb 0afe 5f3d
000001a0: 832d f7bb bdae c83d 08f6 593d 7cc6 f23b
000001b0: 78e7 4d3c f890 283a 5d50 053d b21d a43b
000001c0: a6aa babb 54d8 77bc fb2e 0e3d 1e80 6fbd
000001d0: d180 7ebd 23f8 fd3d 20c9 493e 46f5 51bd
000001e0: f715 173c b8a0 88bc f07d 28bd eae0 1cbb
000001f0: a683 36bc ccf4 a13d cec0 403d c4c1 e8bc
00000200: 06f0 4c3d 720a 513d 1991 f53c 6682 33bc
00000210: d35a b0bc 7f51 063b a439 243e c6cc 1d3d
00000220: 0ac6 663c 0cf0 90bc c3fe 55bd 9b9a ac3c
00000230: 0307 beba 7835 89bc 6418 88bc 4213 2bbc
00000240: ec41 dd3a 1d96 b8bb 2e54 d3bc 2b7a 9c3c
00000250: 8965 e4bc 9458 263c 925d 2e3e 8fbd 7e3c
00000260: f3af 5fbc fe8a da3e e91f bd3e 94df 003d
00000270: b6e0 a5bc 0678 14bd d37d 6c3d 6e4e ae3c
00000280: 5976 b6bd c605 34bd 322b a13d dc81 fbbd
00000290: 5c90 7fbd c18e 553e 5a21 2a3e 1c85 f7bd
000002a0: bc8f 7d3d e4d5 3c3d 5460 9f3d 0b7d c5bd
000002b0: c709 c53c 9318 edbb 2932 18bc 9d60 bfbd
000002c0: b2b4 eabc 8242 58bd a716 bfbb 4868 3b3c
000002d0: 15c2 85bc 5005 34bd b548 5abd 4b5c 63bc
000002e0: 8c87 cbbc 4615 df3b 540f 1e3c 047b 003d
000002f0: 3cb7 dfbc 6d09 5cbd 5245 93bd dfea 44bd
00000300: e534 a33c 36f1 843c 47c3 aa3c 1b20 663d
00000310: 71c4 2d3d 410d bfbd 1474 a9bd e53c b83c
00000320: b326 993d 96ee bfbd badb 84bc 11ed 93bc
00000330: f4f4 25bc fefb 3abd 6400 d0bc e7e0 0a3d
00000340: ab77 a9bd f4cf e13c fd59 eb3d ee78 efbc
00000350: dac9 07bb 0d57 d6bc 7177 543d a0d2 0abb
00000360: bbad 68bd 8332 a73a ed63 49bd 2a4b f6bd
00000370: 6193 59bc 284b 7f3c 6535 cb3c 9ee1 323c
00000380: af3c 70bc 2ac2 8d3c 9573 4bbd f757 59bd
00000390: aa39 0b3d 729a 8dbb 5e6f 20be 0bbd 8dbd
000003a0: 908c a0bc ef1d b0bd 981d 98bd af07 2d3d
000003b0: e380 84bc 1171 5b3d 0d76 593d 6646 d23c
000003c0: 68dc 28bd f2db 06bd 5225 8abb 1fa1 233d
000003d0: 3068 9c3c 4fe4 443d bc2c 023e e044 23bd
000003e0: 9321 6a3c 288e dfbc fcf4 a1bd 3654 5c3d
000003f0: fae9 0e3d 3aab c43d 3f08 473d 51b3 803d

encoder.4.bias f4 [48]
0.050383445 0.27084374 0.21628663 -0.09405094 -0.01378726 0.1907512 0.14820339 0.055533543
-0.15632765 0.07070826 -0.17248298 -0.13146101 0.16928113 -0.08168859 0.16015196 0.14852716
0.06435181 -0.096037425 -0.3248851 -0.09329689 -0.05026537 -0.106369406 -0.09042445 0.1870945
0.2148147 0.22683078 -0.1446556 -0.057835706 -0.13552676 -0.049960956 0.111282416 0.032955132
-0.16399287 0.04292439 0.17548898 0.19066004 0.105357625 0.03504764 -0.13410945 -0.099850714
-0.061640415 0.17501365 -0.14435723 -0.43003386 -0.13981673 0.14834861 0.12866873 0.1398785
00000000: df5e 4e3d 08ac 8a3e 3e7a 5d3e c79d c0bd
00000010: f6e3 61bc 4854 433e a1c2 173e 2477 633d
00000020: 5b14 20be 7ecf 903d 619f 30be b79d 06be
00000030: 0858 2d3e 594c a7bd e0fe 233e 8117 183e
00000040: e2ca 833d 45af c4bd 5757 a6be 7112 bfbd
00000050: 10e3 4dbd 34d8 d9bd 7430 b9bd b395 3f3e
00000060: 62f8 5b3e 5446 683e 9920 14be 22e5 6cbd
00000070: 87c7 0abe dca3 4cbd 09e8 e33d f6fb 063d
00000080: bfed 27be 7cd1 2f3d 62b3 333e 633c 433e
00000090: bdc5 d73d 1d8e 0f3d fd53 09be 887e ccbd
000000a0: a97a 7cbd c736 333e 62d2 13be 662d dcbe
000000b0: 1e2c 0fbe b3e8 173e bcc1 033e 4f3c 0f3e

decoder.0.weight f4 [48, 24, 4, 4]
0.0074268905 -0.011202296 0.04803244 0.0063950163 -0.0067575774 0.0045762947 0.12701555 -0.037281204
-0.0077128434 -0.1025492 -0.020609979 0.0583417 0.028868668 0.045051947 0.11902343 0.075628474
0.060615785 0.05972637 -0.08905415 -0.00886899 -0.01562751 0.001561253 0.07122964 -0.042455494
-0.065985315 -0.0049961507 -0.1299697 -0.026692064 0.003954751 0.040622596 0.055434376 -0.014399998
-0.0383006 -0.034215532 0.007781059 -0.0255029 0.07169102 0.04279215 0.06743989 0.029486164
0.06971168 -0.037903037 0.10210134 0.046627022 0.009328394 0.071879886 0.017188545 -0.051610682
-0.03856275 0.012779389 -0.0250231 -0.0015447163 0.0058198385 0.029212704 -0.034822382 -0.022703122
0.019423548 -0.02343021 -0.0637255 0.001976226 0.0063194577 -0.045541674 -0.00787071 -0.0065180208
-0.014107883 -0.014710944 -0.08495448 -0.046092045 0.042407695 0.20908026 0.07952981 -0.029245142
0.022112679 -0.17282258 -0.17903414 0.010287152 0.04715015 -0.007211868 0.018316587 0.038751677
0.05510451 0.045874 -0.0085131265 0.011462183 0.04803323 0.031765196 0.019317042 0.023035426
0.013930009 0.043737296 0.065372 0.051308986 -0.03981407 -0.06142727 -0.048276886 0.0034106537
0.04334305 -0.04104661 -0.041374248 0.007125264 0.0059957905 -0.023532394 -0.041209653 0.06525978
0.057542194 0.05946649 -0.07050068 0.03467223 -0.021299021 -0.10682943 0.016849078 0.02210861
0.060243513 -0.005303538 0.055758238 -0.026684664 0.0005722451 0.08904902 0.15276808 -0.017111052
0.027831668 0.06712556 0.055141993 -0.01176373 -0.06594326 -0.033702496 -0.06586999 0.00712317
0.01522362 -0.024277156 -0.00475669 -0.018817171 0.055889647 0.06476298 0.12121006 0.006548661
0.042888135 -0.042455748 0.01677798 -0.060713913 0.06097872 -0.0064252904 -0.12440317 -0.014107719
-0.04123961 -0.037024736 0.023324521 -0.020853775 0.012080934 0.009321296 0.05647795 -0.033934176
-0.075587265 -0.017947273 -0.050190452 -0.024823144 0.0037891932 0.031197047 -0.03836665 -0.0045650424
-0.041231107 0.033314057 0.02876882 0.03275648 0.0432501 0.038253825 0.024140118 0.026724562
0.019584835 0.04056005 0.12720253 0.022485452 0.005549142 -0.002602045 0.04957384 0.017313223
0.02883399 0.029612375 0.035258893 -0.022700977 -0.027310956 -0.03977362 0.10053809 -0.01361199
-0.03005827 0.060551606 -0.059728246 0.17063455 0.008112356 0.08928231 0.023905026 0.039821114
-0.044330303 -0.053901304 0.11413507 0.03429413 -0.079216644 0.28597006 0.2532476 0.05183149
-0.017737554 -0.086301185 0.010317341 -0.020237489 0.0018738257 -0.07214054 -0.023061577 0.06510732
-0.051354676 -0.0077053416 -0.013476886 -0.087806076 0.0023194996 0.2714164 0.10673929 -0.022248728
-0.0061968043 -0.10876199 -0.10735975 -0.03018887 0.02422631 0.055472102 0.06215811 -0.04401224
0.014282232 0.037195697 0.013010117 -0.09167717 -0.014736832 0.14041868 -0.0018525686 -0.07492328
0.01491017 0.253384 0.22413623 -0.05133383 -0.025176376 -0.07663592 -0.06725155 -0.080447875
0.012281296 0.05365216 0.02299448 0.022461088 -0.04881209 0.062296923 0.06932693 -0.0051377215
0.018489383 0.0836762 0.059328802 0.022142323 0.025541997 0.005567462 0.031522423 0.05760845
00000000: 465d f33b d689 37bc aabd 443d 498d d13b
00000010: ab6e ddbb bef4 953b 5d10 023e 2db4 18bd
00000020: 05bc fcbb 5105 d2bd 42d6 a8bc b5f7 6e3d
00000030: fc7d ec3c 6488 383d 8ec2 f33d 1ae3 9a3d
00000040: 4248 783d a3a3 743d 0662 b6bd 3d4f 11bc
00000050: 4405 80bc f5a2 cc3a d8e0 913d d0e5 2dbd
00000060: 4f23 87bd c0b6 a3bb c716 05be 51a9 dabc
00000070: db96 813b e163 263d 280f 633d f8ed 6bbc
00000080: 17e1 1cbd 9625 0cbd 41f8 fe3b 75eb d0bc
00000090: bed2 923d d246 2f3d ed1d 8a3d f88c f13c
000000a0: ffc4 8e3d 3740 1bbd 821a d13d fafb 3e3d
000000b0: 1fd6 183c c335 933d fece 8c3c b965 53bd
000000c0: f9f3 1dbd a460 513c 3ffd ccbc 1478 caba
000000d0: 58b4 be3b 7b4f ef3c eaa1 0ebd e6fb b9bc
000000e0: 221e 9f3c b6f0 bfbc 8482 82bd 9283 013b
000000f0: 7413 cf3b e889 3abd 27f4 00bc 1f95 d5bb
00000100: c024 67bc 2c06 71bc 9dfc adbd 03cb 3cbd
00000110: b1b3 2d3d 2319 563e 86e0 a23d 8293 efbc
00000120: a625 b53c 67f8 30be ba54 37be 718b 283c
00000130: 8420 413d 8951 ecbb ab0c 963c 14ba 1e3d
00000140: 44b5 613d 60e6 3b3d a47a 0bbc e1cb 3b3c
00000150: 7ebe 443d 391c 023d c63e 9e3c cab4 bc3c
00000160: b13a 643c e125 333d c1e1 853d 5f29 523d
00000170: 1414 23bd 299b 7bbd fcbd 45bd 4685 5f3b
00000180: 7b88 313d 7d20 28bd 0b78 29bd 0c7b e93b
00000190: 5678 c43b 02c7 c0bc 74cb 28bd eba6 853d
000001a0: 5db1 6b3d 2293 733d a962 90bd 7804 0e3d
000001b0: 497b aebc 63c9 dabd 1407 8a3c 1e1d b53c
000001c0: e7c1 763d 4dc9 adbb c062 643d cc99 dabc
000001d0: b802 163a 555f b63d 3c6f 1c3e 7a2c 8cbc
000001e0: 3dff e33c 2079 893d 92dc 613d a9bc 40bc
000001f0: 430d 87bd a10b 0abd d8e6 86bd 7b69 e93b
00000200: 7e6c 793c e3e0 c6bc 02de 9bbb 7826 9abc
00000210: 8bec 643d 74a2 843d fb3c f83d 2696 d63b
00000220: 78ab 2f3d 14e6 2dbd f971 893c 27af 78bd
00000230: d3c4 793d 3e8b d2bb 17c7 febd 1024 67bc
00000240: deea 28bd 40a7 17bd 1113 bf3c 89d5 aabc
00000250: 1cef 453c 59b8 183c 6c55 673d 90fe 0abd
00000260: 7fcd 9abd 2906 93bc 8194 4dbd e859 cbbc
00000270: 1d54 783b f390 ff3c 5926 1dbd 5a96 95bb
00000280: f3e1 28bd 5274 083d 97ac eb3c a92b 063d
00000290: 0427 313d 0bb0 1c3d 7fc1 c53c 78ed da3c
000002a0: 6070 a03c 4c22 263d 6141 023e 6933 b83c
000002b0: 94d5 b53b 1287 2abb f00d 4b3d 76d4 8d3c
000002c0: 4335 ec3c a795 f23c a16b 103d 66f7 b9bc
000002d0: 3abb dfbc aae9 22bd eae6 cd3d d304 5fbc
000002e0: c33c f6bc f604 783d 9ba5 74bd d3ba 2e3e
000002f0: b0e9 043c a5d9 b63d 79d4 c33c 771b 233d
00000300: b193 35bd 9dc7 5cbd a6bf e93d 0078 0c3d
00000310: 563c a2bd ab6a 923e aba9 813e 424d 543d
00000320: 594e 91bc adbe b0bd 110a 293c 17c9 a5bc
00000330: 289b f53a 6bbe 93bd a2eb bcbc fd56 853d
00000340: 4859 52bd 177d fcbb 28ce 5cbc acd3 b3bd
00000350: bf02 183b 17f7 8a3e 219a da3d f742 b6bc
00000360: 900e cbbb 9bbe debd 6edf dbbd a64e f7bc
00000370: 4176 c63c b736 633d 8199 7e3d 2e46 34bd
00000380: 0600 6a3c 845a 183d 6328 553c 3dc1 bbbd
00000390: c172 71bc eac9 0f3e e3d1 f2ba 6071 99bd
000003a0: c949 743c 8cbb 813e f883 653e 6c43 52bd
000003b0: b03e cebc 4bf3 9cbd 2ebb 89bd dbc1 a4bd
000003c0: 7d37 493c 5ec2 5b3d eb5e bc3c 5100 b83c
000003d0: 30ef 47bd 0f2b 7f3d 47fb 8d3d 555a a8bb
000003e0: 0c77 973c 6d5e ab3d c202 733d d163 b53c
000003f0: 733d d13c 426f b63b a81d 013d d7f6 6b3d

decoder.0.bias f4 [24]
0.020343827 -0.14507237 -0.23656994 -0.23890962 0.16151135 0.25413743 0.379082 0.13499314
-0.26598236 -0.1237261 -0.09756847 -0.17537421 -0.052283876 0.032613337 0.41609344 0.13698618
-0.20037767 0.09180355 -0.003192118 0.21357659 0.14121257 0.25961414 -0.18501803 0.0017571397
00000000: 19a8 a63c da8d 14be 643f 72be b9a4 74be
00000010: 3b63 253e 4d1e 823e 0917 c23e a43b 0a3e
00000020: d72e 88be 1c64 fdbd fad1 c7bd 4c95 33be
00000030: 9e27 56bd 9095 053d 330a d53e 1b46 0c3e
00000040: ce2f 4dbe 8003 bc3d da32 51bb d2b3 5a3e
00000050: 079a 103e 25ec 843e 5e75 3dbe d34f e63a

decoder.2.weight f4 [24, 12, 4, 4]
-0.009103228 -0.052809756 0.013683702 -0.06712959 -0.026369266 -0.16480339 0.017258858 -0.034295145
-0.07262751 -0.034293015 -0.0074447608 0.1526889 -0.27585158 -0.10210213 -0.15852836 0.029596841
-0.06602354 -0.10422614 0.009911548 0.0069874283 -0.0346559 -0.011150928 0.0063759093 0.001847839
0.06140068 0.0760386 0.022279996 -0.0031006273 -0.03977502 -0.07825578 -0.055576432 -0.08623404
-0.10570299 -0.0779188 -0.070418954 -0.13707614 -0.01055133 0.13361327 0.15891258 0.06888569
0.027596544 0.11276489 0.058183875 0.017355738 0.031800997 0.102330945 0.10125133 -0.055279657
-0.13479209 -0.081077 -0.06353717 -0.049307983 0.03442699 -0.0055124066 0.12484143 0.03477434
-0.009696341 0.013053286 -0.0076511134 -0.016468553 -0.0712652 0.038631655 -0.07330718 -0.025782293
0.1283243 -0.023861451 0.1424172 0.09789434 0.064105906 0.12514268 0.042865004 0.105890885
0.00025963597 -0.04002932 -0.039545313 -0.02868264 -0.014103246 -0.041254435 -0.014109229 -0.11151339
-0.09014872 0.02581873 -0.06985296 -0.009524359 -0.12958823 -0.025796082 0.018182298 -0.04623911
0.047077496 0.0059708455 -0.03472933 0.04645209 0.0017988333 -0.009815513 -0.010290337 0.029863646
0.02973983 -0.013353664 0.030028682 0.03342644 -0.054395527 -0.034018543 -0.019669028 -0.056788396
-0.15303935 -0.20873815 0.04138224 -0.0025807705 -0.09092459 -0.21890658 0.047032196 0.07292651
-0.023892406 0.08382103 -0.063246876 0.03741585 -0.041938547 0.030450203 0.03860889 -0.017419882
-0.0144934105 0.06688095 -0.016854694 0.008229804 0.0040367558 0.107551806 -0.062232044 -0.1398733
-0.008169633 -0.02729391 -0.015006175 0.10337144 -0.059761424 -0.12379876 -0.056223545 -0.09726067
-0.018931773 -0.08545417 -0.0065094605 -0.01854728 -0.042185187 -0.06787184 -0.054920685 0.007240997
-0.04849351 -0.020369383 0.13358158 -0.05762432 0.060799062 0.09440439 -0.026438829 0.01556988
-0.029839436 0.0003694983 0.24751034 0.028644662 0.007475226 -0.08747192 0.06996912 0.05542413
-0.021898206 -0.061646424 0.03388405 0.012637715 0.060659524 -0.010687269 0.06417283 0.016250245
-0.0009397084 0.069616556 0.12755316 0.044708084 -0.030683193 -0.049725097 -0.080750726 0.051987067
-0.07328395 0.059671022 -0.04903541 0.04267809 0.025196282 0.020040918 -0.0033280868 0.04709678
0.035820093 0.021318592 -0.06943452 -0.11679561 0.009064715 -0.034856323 0.03766859 0.0008545761
-0.07300776 -0.00039469302 0.004495391 -0.1615667 -0.006460304 -0.027473487 0.049689256 -0.0887021
-0.023905689 0.15297736 -0.015936768 0.110069804 -0.10730347 -0.00038412755 -0.2155478 0.04071752
0.018878274 -0.038297545 -0.07389844 -0.030760093 -0.028231734 0.048569977 -0.0623738 -0.054143716
-0.08487298 0.074871026 0.10900339 -0.03431932 -0.083129026 0.025169665 -0.08880494 -0.1312067
-0.0032355376 0.008748892 -0.02529061 -0.065021336 -0.022597162 0.15386203 0.13833568 0.11401869
-0.07104211 0.19889362 0.27408892 0.010442274 -0.0442141 0.028947113 0.038771693 -0.044692885
0.08120948 0.01379916 -0.06916338 0.02692124 0.014340741 0.067384385 0.002972509 0.041832395
0.036289174 0.113022156 0.11947706 -0.05619642 0.014680445 -0.011758478 -0.04136076 0.0011610934
00000000: b525 15bc 0b4f 58bd 9b31 603c 3d7b 89bd
00000010: 5c04 d8bc 38c2 28be 7362 8d3c 1179 0cbd
00000020: bbbd 94bd d576 0cbd 2ef3 f3bb 7b5a 1c3e
00000030: 6b3c 8dbe ec1a d1bd 4255 22be 1375 f23c
00000040: 5a37 87bd 8474 d5bd 0c64 223c ccf6 e43b
00000050: 58f3 0dbd 62b2 36bc 01ed d03b 3033 f23a
00000060: 487f 7b3d 20ba 9b3d 8a84 b63c e533 4bbb
00000070: 22eb 22bd 9144 a0bd 1da4 63bd 799b b0bd
00000080: cf7a d8bd e493 9fbd d037 90bd b05d 0cbe
00000090: 7cdf 2cbc ebd1 083e fbb9 223e f113 8d3d
000000a0: 2612 e23c 47f1 e63d 3752 6e3d 9f2d 8e3c
000000b0: c341 023d e392 d13d db5c cf3d ec6c 62bd
000000c0: f006 0abe b30b a6bd c71f 82bd 2bf7 49bd
000000d0: 5103 0d3d 6ba1 b4bb ddac ff3d 8a6f 0e3d
000000e0: 67dd 1ebc 73dd 553c 31b6 fabb 0fe9 86bc
000000f0: 7df3 91bd 3a3c 1e3d 1322 96bd 6335 d3bc
00000100: 7267 033e 1779 c3bc d1d5 113e d47c c83d
00000110: f549 833d 6725 003e 3793 2f3d 52dd d83d
00000120: c01f 8839 c9f5 23bd 44fa 21bd dbf7 eabc
00000130: 4d11 67bc 69fa 28bd 652a 67bc 2261 e4bd
00000140: e49f b8bd cd81 d33c 120f 8fbd 0f0c 1cbc
00000150: c7b2 04be 4e52 d3bc 0bf3 943c 3965 3dbd
00000160: 55d4 403d 15a7 c33b 5840 0ebd 8c44 3e3d
00000170: d4c6 eb3a 3fd1 20bc cd98 28bc 9ba4 f43c
00000180: f2a0 f33c 54c9 5abc b6fe f53c 2aea 083d
00000190: d8cd 5ebd 0757 0bbd f120 a1bc f39a 68bd
000001a0: 59b6 1cbe 74bf 55be 6c80 293d 2522 29bb
000001b0: ac36 babd 0c29 60be d5a4 403d 7e5a 953d
000001c0: 02ba c3bc 5caa ab3d 9487 81bd 5d41 193d
000001d0: c1c7 2bbd b472 f93c 5b24 1e3d 24b4 8ebc
000001e0: c575 6dbc e1f8 883d db12 8abc 4dd6 063c
000001f0: c346 843b 1f44 dc3d 07e7 7ebd f23a 0fbe
00000200: edd9 05bc 7a97 dfbc 76dc 75bc 68b4 d33d
00000210: 65c8 74bd 348a fdbd a94a 66bd 9a30 c7bd
00000220: ce16 9bbc 9902 afbd 504d d5bb 77f0 97bc
00000230: 60ca 2cbd 6400 8bbd 83f4 60bd e345 ed3b
00000240: 21a1 46bd b1dd a6bc 9cc9 083e 7b07 6cbd
00000250: 7008 793d 1757 c13d 3e96 d8bc cf18 7f3c
00000260: d571 f4bc 39b9 c139 5a73 7d3e 36a8 ea3c
00000270: bef2 f43b 7a24 b3bd f84b 8f3d 6a04 633d
00000280: de63 b3bc f680 7cbd 00ca 0a3d 6b0e 4f3c
00000290: 1f76 783d a819 2fbc 0b6d 833d 3c1f 853c
000002a0: c356 76ba 2093 8e3d 4c9d 023e d31f 373d
000002b0: 525b fbbc 8bac 4bbd a360 a5bd 64f0 543d
000002c0: e515 96bd 9a69 743d 5bd9 48bd 39cf 2e3d
000002d0: 6f68 ce3c da2c a43c 081c 5abb 8ee8 403d
000002e0: 17b8 123d 54a4 ae3c b033 8ebd 8932 efbd
000002f0: 2c84 143c 81c5 0ebd 614a 1a3d a205 603a
00000300: 1885 95bd cdee ceb9 134e 933b be71 25be
00000310: f5b0 d3bb 1410 e1bc f686 4b3d 72a9 b5bd
00000320: ddd5 c3bc 19a6 1c3e d38d 82bc 476c e13d
00000330: ecc1 dbbd ba64 c9b9 90b8 5cbe 6ac7 263d
00000340: 9ca6 9a3c e3dd 1cbd 1158 97bd 97fc fbbc
00000350: 3d46 e7bc 50f1 463d ab7b 7fbd cdc5 5dbd
00000360: e3d1 adbd fb55 993d 2b3d df3d 6a92 0cbd
00000370: 8d3f aabd 9d30 ce3c 5ddf b5bd 0d5b 06be
00000380: 500b 54bb 8357 0f3c 412e cfbc e829 85bd
00000390: af1d b9bc 028e 1d3e dea7 0d3e a282 e93d
000003a0: 877e 91bd c5aa 4b3e 6255 8c3e 1216 2b3c
000003b0: d819 35bd 7f22 ed3c 11cf 1e3d e30f 37bd
000003c0: 2851 a63d df15 623c 88a5 8dbd ef89 dc3c
000003d0: 6df5 6a3c d300 8a3d 6dce 423b 7258 2b3d
000003e0: f5a3 143d 2978 e73d 64b0 f43d 382e 66bd
000003f0: 4086 703c a2a6 40bc e669 29bd d42f 983a

decoder.2.bias f4 [12]
0.05774913 -0.21401563 -0.11848139 -0.1138855 0.5807826 -0.13896133 0.07503917 0.03395886
-0.07950063 0.14470205 0.26416987 -0.12793641
00000000: 5a8a 6c3d ea26 5bbe 5fa6 f2bd cd3c e9bd
00000010: 2bae 143f e14b 0ebe 23ae 993d 7218 0b3d
00000020: 3ad1 a2bd c62c 143e 4641 873e c301 03be

decoder.4.weight f4 [12, 3, 4, 4]
-0.10319196 -0.18713616 -0.11209696 -0.11157506 -0.17125879 -0.31797585 -0.16137463 -0.08763635
0.04253787 -0.018978763 0.09347053 0.1422571 0.034836072 0.0540361 0.13468347 0.110439904
-0.12623635 -0.25791347 -0.1773334 -0.1565467 -0.27950618 -0.5193941 -0.33759913 -0.18863212
-0.03047656 -0.20816663 -0.071263805 0.08299239 0.017774044 -0.04105255 0.038808312 0.08470751
-0.04938553 -0.22157435 -0.15717204 -0.13328604 -0.29419917 -0.5052964 -0.3620905 -0.18979795
-0.02919714 -0.23214437 -0.12798382 0.044130657 -0.019909652 -0.07482881 0.041327626 0.09022284
0.020244602 0.03652245 -0.031980745 -0.03643557 0.050557036 0.074113704 -0.016722217 -0.047533743
0.020769954 0.07528621 -0.009108714 -0.073053546 0.023981946 0.010730839 -0.0433639 -0.021153338
0.07057572 0.12926294 -0.0059652054 -0.033485327 0.113772646 0.18634434 0.045789126 -0.045243733
0.08669404 0.1874409 0.04841094 -0.046340425 0.050096083 0.056376673 -0.045965932 -0.04257928
0.28228563 0.44881997 0.15988542 0.0063435277 0.39258546 0.69199485 0.46769845 0.21395257
0.27178958 0.5270571 0.31001616 0.103044584 0.11055756 0.26043525 0.11499135 0.0042270236
0.09895285 0.27376497 0.17999952 0.018597005 0.24630275 0.4714465 0.31617105 0.10704359
0.23166943 0.43515742 0.28577784 0.08691142 0.028181229 0.18166256 0.08665428 -0.05661167
0.09292015 0.20261273 0.11420218 0.043684844 0.19140223 0.3264391 0.18962708 0.08059939
0.18104684 0.31117272 0.18123704 0.07421232 0.053494718 0.15109387 0.07917836 0.004671678
0.05854319 0.011505641 -0.045573667 0.028431673 0.041781977 0.014920647 -0.07698507 -0.038763087
0.022167217 -0.01990546 -0.13137875 -0.07892697 0.027084893 -0.059891123 -0.11709463 -0.019906051
0.039402287 0.09130809 0.0845297 0.0734921 -0.013949312 0.19797543 0.19460674 0.011545127
0.03461489 0.25011107 0.2663788 0.08593335 0.05957543 0.10089862 0.10877883 0.09431449
0.032947645 0.09430103 0.05478398 0.013741709 -0.0017595167 0.10232095 0.0353509 -0.026916074
-0.002180705 0.067475125 0.010555487 0.002288617 0.013810499 0.03207469 -0.029502332 -0.021093594
0.06700207 0.17680773 0.16706687 0.080096856 0.1186924 0.3490926 0.31724072 0.0928875
0.058954354 0.28025624 0.22635 0.06282304 -0.005471157 0.114102595 0.038714275 -0.04372995
-0.15270694 -0.29639864 -0.27727798 -0.115501344 -0.30677217 -0.47315288 -0.4287694 -0.24561474
-0.25362825 -0.463283 -0.39232358 -0.19952787 -0.13935456 -0.30484447 -0.23589073 -0.08204051
-0.018690238 -0.06751719 -0.051943157 0.029952677 -0.060233016 -0.10741718 -0.054624073 0.010693297
-0.035907533 -0.118627965 -0.052324504 0.014789482 -0.020615647 -0.094532266 -0.035226204 0.04075917
-0.066042885 0.009597826 0.017689198 -0.04001138 0.048302654 0.121671885 0.15952288 0.087855704
0.07934763 0.13279672 0.19377352 0.13316765 -0.052517973 0.018863259 0.07948421 0.0046293824
-0.0654382 -0.098096155 -0.019270897 -0.0025614654 0.07768851 0.1596807 0.23356424 0.15116775
0.22823383 0.4354596 0.45918426 0.3886256 0.13353764 0.21339157 0.32509843 0.19548085
00000000: 4e56 d3bd 9fa0 3fbe 1793 e5bd 7781 e4bd
00000010: 775e 2fbe bbcd a2be 643f 25be b07a b3bd
00000020: 313c 2e3d 5a79 9bbc 7a6d bf3d d8ab 113e
00000030: 45b0 0e3d f554 5d3d 77ea 093e 512e e23d
00000040: 1a44 01be 3c0d 84be e396 35be c74d 20be
00000050: 6f1b 8fbe 03f7 04bf cbd9 acbe c728 41be
00000060: fba9 f9bc a229 55be c2f2 91bd eaf7 a93d
00000070: df9a 913c b826 28bd 77f5 1e3d 227b ad3d
00000080: 7b48 4abd 63e4 62be b5f1 20be 237c 08be
00000090: 46a1 96be 1b5b 01bf ed63 b9be 655a 42be
000000a0: d72e efbc 41b7 6dbe 310e 03be 59c2 343d
000000b0: 9119 a3bc d93f 99bd 2847 293d c1c6 b83d
000000c0: 02d8 a53c 9198 153d 3efe 02bd 773d 15bd
000000d0: e514 4f3d edc8 973d 08fd 88bc beb2 42bd
000000e0: c025 aa3c a82f 9a3d b73c 15bc 199d 95bd
000000f0: c975 c43c 67d0 2f3c 589e 31bd c449 adbc
00000100: 018a 903d 815d 043e c577 c3bb e927 09bd
00000110: a201 e93d 0dd1 3e3e 618d 3b3d 7e51 39bd
00000120: a58c b13d 82f0 3f3e 8d4a 463d 75cf 3dbd
00000130: 8d31 4d3d 3aeb 663d c646 3cbd 9c67 2ebd
00000140: be87 903e bbcb e53e 01b9 233e 5edd cf3b
00000150: f600 c93e 9326 313f 2c76 ef3e 6216 5b3e
00000160: 0128 8b3e 37ed 063f 70ba 9e3e 0a09 d33d
00000170: 016c e23d c557 853e 9680 eb3d d882 8a3b
00000180: cba7 ca3d ec2a 8c3e cb51 383e bf58 983c
00000190: ca36 7c3e 7061 f13e 2ce1 a13e ab39 db3d
000001a0: c03a 6d3e f4cc de3e 7951 923e 9dfe b13d
000001b0: 52dc e63c c005 3a3e cd77 b13d a3e1 67bd
000001c0: eb4c be3d b679 4f3e d5e2 e93d e1ee 323d
000001d0: f2fe 433e 0723 a73e 9a2d 423e 4b11 a53d
000001e0: 5864 393e 0852 9f3e 3496 393e a1fc 973d
000001f0: 471d 5b3d 5ab8 1a3e 4428 a23d e014 993b
00000200: fcca 6f3d 2882 3c3c 74ab 3abd 8ae9 e83c
00000210: 9423 2b3d bb75 743c 59aa 9dbd 0bc6 1ebd
00000220: 0698 b53c c610 a3bc 2788 06be 77a4 a1bd
00000230: 23e1 dd3c 6550 75bd 4fcf efbd 0412 a3bc
00000240: 4b64 213d bcff ba3d e81d ad3d 0783 963d
00000250: a88b 64bc 12ba 4a3e fd46 473e c627 3d3c
00000260: 58c8 0d3d 8f0e 803e cd62 883e d3fd af3d
00000270: 5e05 743d f0a3 ce3d 6fc7 de3d f527 c13d
00000280: 1cf4 063d e620 c13d 2b65 603d e824 613c
00000290: 959f e6ba a58d d13d 1bcc 103d 197f dcbc
000002a0: 29ea 0ebb 6630 8a3d ecf0 2c3c 9ffc 153b
000002b0: 6e45 623c c060 033d e0ae f1bc 79cc acbc
000002c0: 6238 893d 160d 353e 9413 2b3e d209 a43d
000002d0: 0015 f33d 44bc b23e 606d a23e cd3b be3d
000002e0: 1f7a 713d bf7d 8f3e 4bc8 673e 5ea9 803d
000002f0: 6447 b3bb 9fae e93d dc92 1e3d 2d1e 33bd
00000300: 355f 1cbe 90c1 97be 61f7 8dbe f88b ecbd
00000310: 3e11 9dbe 1841 f2be aa87 dbbe 6e82 7bbe
00000320: 90db 81be 6e33 edbe a3de c8be 0951 4cbe
00000330: f6b2 0ebe 9314 9cbe 578d 71be db04 a8bd
00000340: 451c 99bc 7446 8abd 59c2 54bd 515f f53c
00000350: e5b6 76bd 8afd dbbd 7ebd 5fbd f032 2f3c
00000360: c713 13bd 38f3 f2bd 3852 56bd 954f 723c
00000370: 25e2 a8bc 229a c1bd 5a49 10bd 16f3 263d
00000380: 7e41 87bd 3340 1d3c f0e8 903c f9e2 23bd
00000390: 01d9 453d 1c2f f93d f759 233e b1ed b33d
000003a0: 0381 a23d ddfb 073e 916c 463e 1a5d 083e
000003b0: 161d 57bd 1f87 9a3c 9ec8 a23d 13b2 973b
000003c0: 7704 86bd a3e6 c8bd 00de 9dbc 42de 27bb
000003d0: 271b 9f3d 5683 233e 772b 6f3e b8cb 1a3e
000003e0: 21b6 693e 90f4 de3e 331a eb3e eff9 c63e
000003f0: 17be 083e 5283 5a3e 4d73 a63e 222c 483e

decoder.4.bias f4 [3]
-0.70360357 0.6495908 -0.24379557
00000000: 5d1f 34bf 954b 263f 8ca5 79be
