artifacts/pre-trained/cifar100/ae.pt (torch, 205031 bytes, 36 tensors)

encoder.0.weight f4 [12, 3, 4, 4]
0	0xba2fbdea	-0.00067040196
1	0xbd275c54	-0.040859535
2	0xbdf765fc	-0.12079999
3	0x3dbbe056	0.09173648
4	0x3dcb45a5	0.09925393
5	0xbee83165	-0.45350185
6	0xbf68f432	-0.9099761
7	0xbe00e0f6	-0.12585816
8	0xbde6ca72	-0.11269082
9	0xbf588ae8	-0.84586954
10	0xbf2bf359	-0.67168194
11	0x3d584a15	0.052805025
12	0x3d808f57	0.0627734
13	0xbd91c08b	-0.07116803
14	0xbcef8415	-0.029237786
15	0x3e081c07	0.13291942
16	0x3d6fd27e	0.05855035
17	0x3dd87adf	0.10570311
18	0xbd8e6bd4	-0.0695416
19	0x3d25f771	0.04051918
20	0x3e1b3405	0.15156563
21	0xbdade7aa	-0.08491452
22	0xbec61f58	-0.38695788
23	0xbe52d9ad	-0.20590849
24	0xbd7bc0f0	-0.061463296
25	0xbe308b02	-0.17240527
26	0xbebad161	-0.36487868
27	0x3ddd985a	0.108200744
28	0xbcd50bf1	-0.02600667
29	0x3d106a43	0.03525759
30	0xbcd9efea	-0.026603658
31	0x3e1ab96e	0.15109798
32	0x3db00e18	0.08596438
33	0x3da82d51	0.082117684
34	0x3daf34b3	0.085549735
35	0x3d3fa4ab	0.0467879
36	0x3ddf224c	0.108952135
37	0x3e7ec6aa	0.24880472
38	0xbda25f4c	-0.07928333
39	0xbd85fca5	-0.06542329
40	0xbc84d52c	-0.01621493
41	0xbd818df9	-0.06325907
42	0xbdce1864	-0.10063246
43	0xbccd83d2	-0.02508727
44	0x3d81a7d0	0.06330836
45	0x3d521d43	0.051297437
46	0xbd1d0ea5	-0.038344044
47	0xbdca6f28	-0.098844826
48	0xbdb22f7e	-0.08700465
49	0x3ce228e1	0.027607383
50	0xbe1b7de7	-0.15184747
51	0x3bc2a3c1	0.005939931
52	0xbd71d4fb	-0.059041005
53	0x3e5755db	0.21028845
54	0xbe120bd9	-0.14262332
55	0xbdbce680	-0.09223652
56	0xbd5b31c4	-0.053514257
57	0x3e542c37	0.20719992
58	0x3c9e45f5	0.019320467
59	0x3d4670f1	0.048447553
60	0xbcbdf794	-0.023189344
61	0x3cc6e1a4	0.024277516
62	0xbe10fcb7	-0.14158903
63	0xbc760bbf	-0.015017449
64	0x3ce93fec	0.028472863
65	0x3d88826d	0.06665502
66	0xbcd82d30	-0.026388735
67	0xbd80c0a9	-0.06286747
68	0x3e00022a	0.12500826
69	0x3f1de7c3	0.61681765
70	0x3e10eb6e	0.1415231
71	0xbd97445b	-0.07386085
72	0x3e988145	0.29786125
73	0x3f29c182	0.66310894
74	0x3ed072e9	0.4071267
75	0xbdd79fce	-0.10528527
76	0x3e5edff4	0.21765119
77	0x3ea07cf7	0.3134534
78	0x3e19d78e	0.15023634
79	0x3cd8e143	0.0264746
80	0xbc3b5913	-0.011434811
81	0x3e2709e6	0.1631237
82	0x3d165bee	0.036708765
83	0xbcad2d71	-0.021139832
84	0x3cf5d40f	0.030008344
85	0x3ea6b648	0.32560945
86	0xbd4c9669	-0.04994813
87	0xbe6a5016	-0.22882113
88	0x3e1005be	0.1406469
89	0x3ee2cc9d	0.44296733
90	0x3d622d06	0.05521872
91	0x3a9a94d9	0.0011793628
92	0xbd60e5a4	-0.054906502
93	0x3df3cf27	0.119047455
94	0xbdff3611	-0.12461484
95	0xbd6e0b84	-0.05811645
96	0x3cb9a2ac	0.022660576
97	0x3d953eb6	0.07287352
98	0x3d87f513	0.06638541
99	0x3e3f9977	0.18710886
100	0x3d653830	0.055961788
101	0x3ea40e04	0.32041943
102	0x3e469bc6	0.1939536
103	0x3e7600f6	0.24023804
104	0x3da61be9	0.08110792
105	0xbc101e0c	-0.008796226
106	0xbe939f83	-0.28832635
107	0x3cd7a6d2	0.026324663
108	0xbd871be6	-0.06597118
109	0x3de5fdaa	0.11230023
110	0xbdbebfd0	-0.09313929
111	0x3d6381f1	0.055543844
112	0xbd20b81a	-0.039238073
113	0x3d5431b9	0.05180523
114	0xbd4cd07e	-0.05000352
115	0x3c8431a2	0.016136948
116	0x3db453ab	0.08805021
117	0x3e8eed58	0.27915454
118	0xbda74d57	-0.08169048
119	0x3e1acb72	0.1511667
120	0xbd78cb41	-0.060740713
121	0xbdf4eeb8	-0.119595945
122	0xbec82a72	-0.39094883
123	0xbe0ae834	-0.13565141
124	0x3d04e0c4	0.032440916
125	0x3d819576	0.063273355
126	0xbe2c2289	-0.16810049
127	0x3d0932f6	0.033495866
128	0x3daac988	0.0833922
129	0xbb9601fa	-0.0045778723
130	0x3d0f1565	0.034932513
131	0xbb31b7b2	-0.0027117548
132	0x3e645c2e	0.22300789
133	0x3e3db76e	0.18527004
134	0xbdd2656b	-0.1027325
135	0xbb2d8510	-0.0026477017
136	0x3db50676	0.08839123
137	0xbd3e365d	-0.046438564
138	0xbee080b9	-0.43848208
139	0xbe660f30	-0.22466731
140	0x3e4a523c	0.19757932
141	0x3d6b0157	0.057374325
142	0xbdd4824c	-0.10376415
143	0x3db87934	0.09007493
144	0xbb87fa17	-0.004149686
145	0xbdb41a5b	-0.087940894
146	0xbdf31726	-0.118696496
147	0xbe262ea0	-0.16228724
148	0xbd7f39c5	-0.062310953
149	0xbec56175	-0.38550916
150	0xbde701c4	-0.11279634
151	0xbe9a63c6	-0.30154246
152	0xbd402ea4	-0.04691948
153	0xbd3e0542	-0.046391733
154	0x3e8cd1d7	0.27503845
155	0xbc937bb5	-0.018003324
156	0x3d9c5011	0.07632459
157	0xbe07725a	-0.13227215
158	0x3d97728a	0.073948935
159	0xbd72e097	-0.059296217
160	0x3c31d03b	0.010852869
161	0xbd2bd9f6	-0.04195591
162	0x3d8a9752	0.06767143
163	0xbd52ffb3	-0.051513385
164	0xbdd8b7b6	-0.10581915
165	0xbe80ab73	-0.25130805
166	0xbc4c801f	-0.012481718
167	0xbdc740f3	-0.09729185
168	0x3d16a745	0.036780614
169	0x3e102cf9	0.14079656
170	0x3ed93798	0.42425227
171	0x3e049cdf	0.12950467
172	0xbd821b43	-0.06352856
173	0xbc3302b3	-0.0109259365
174	0x3e3d79bc	0.18503469
175	0xbd197e4f	-0.037473973
176	0xbda20ac6	-0.07912211
177	0xbd2458e9	-0.040123854
178	0x3c6ae387	0.014336473
179	0xbcc22466	-0.023698997
180	0xbe696027	-0.22790585
181	0xbe333748	-0.17501557
182	0x3dea3174	0.11435214
183	0x3bc0f06c	0.0058880355
184	0xbe06fac8	-0.13181603
185	0x3da98e3d	0.08279083
186	0x3ef08f5a	0.4698437
187	0x3e449c4d	0.19200249
188	0xbe2fb3b2	-0.17158392
189	0xbe17969e	-0.1480355
190	0x3e1d17f6	0.15341172
191	0xbdd3c667	-0.103405766
192	0xbcdad5cd	-0.026713276
193	0x3ca58e7a	0.02020954
194	0x3dec1b1a	0.11528607
195	0x3d32a6b6	0.04361602
196	0x3ded5676	0.11588757
197	0xbe0e6a68	-0.13907778
198	0x3e1f2c9b	0.1554436
199	0x3d4d8c22	0.05018247
200	0x3d3d1754	0.046164826
201	0xbe7378bc	-0.23776525
202	0x3da3d14f	0.07998907
203	0xbd4cf6ea	-0.050040163
204	0xbd78c5aa	-0.060735382
205	0x3d29084d	0.041267682
206	0x3da920ef	0.08258235
207	0xbc86490b	-0.016392251
208	0x3d8b6b30	0.06807554
209	0xbd4cc29d	-0.049990285
210	0x3d2d2af3	0.042277288
211	0x3c26e2ce	0.01018591
212	0xbe286d03	-0.16447835
213	0xbf3657f2	-0.71227944
214	0xbe06bf20	-0.13158846
215	0x3e47e6a2	0.19521573
216	0xbe6dc845	-0.23220928
217	0xbf462137	-0.7739443
218	0xbed865a1	-0.42265037
219	0x3d8a5861	0.06755138
220	0xbe0c9210	-0.13727593
221	0xbeb67513	-0.35636196
222	0xbdaa3351	-0.08310569
223	0xbc275b45	-0.010214631
224	0xbca84214	-0.020539321
225	0xbe4cb86e	-0.1999223
226	0xbca9c7fa	-0.020725239
227	0x3b17dbe1	0.002317183
228	0xbcb17db5	-0.021666387
229	0xbead888a	-0.33893234
230	0x3daef714	0.0854322
231	0x3e3154d4	0.17317516
232	0xbe195acc	-0.14976043
233	0xbeb39fb6	-0.35082787
234	0xbd9929e9	-0.07478697
235	0x3b919e80	0.0044439435
236	0x3b6e4c68	0.003636146
237	0xbd94fd70	-0.07274902
238	0x3dc2cb30	0.09511411
239	0x3d3e9f20	0.046538472
240	0x3dc74dc5	0.0973163
241	0x3df77a53	0.12083878
242	0x3e4cf901	0.20016862
243	0x3cb0e1f6	0.021592122
244	0xbd18a3a9	-0.037265453
245	0x3efc018d	0.49219933
246	0x3f2a7acd	0.6659363
247	0x3e62d89e	0.22152945
248	0x3e0a83ad	0.13526793
249	0x3f3ad2c0	0.7297783
250	0x3f24f41e	0.64434993
251	0x3d0d4aa3	0.034495007
252	0x3b3f9a8c	0.0029236404
253	0x3d8dd0f2	0.06924619
254	0x3e1e592f	0.15463708
255	0xbc3ef262	-0.011654468

encoder.0.bias f4 [12]
0	0x3e04acb7	0.1295651
1	0xbe07d5a1	-0.13265087
2	0x3d797f42	0.060912378
3	0x3c3db4ef	0.011578782
4	0x3dd27cfc	0.10277745
5	0x3ced66a5	0.028979609
6	0x3d9f3934	0.077745825
7	0xbd8459f6	-0.06462471
8	0x3cb37602	0.021906856
9	0x3b65d37b	0.003506868
10	0xbdc0f01b	-0.094207965
11	0xbda50bf4	-0.080589205

encoder.1.weight f4 [12]
0	0x3f51d594	0.8196652
1	0x3f872044	1.0556722
2	0x3eaea240	0.34108162
3	0x3edb9307	0.4288561
4	0x3f572142	0.8403512
5	0x3f829cc3	1.020409
6	0x3f24a3fe	0.6431273
7	0x3f22ef7a	0.6364666
8	0x3eeec9c1	0.466383
9	0x3f8ca109	1.0986644
10	0x3f4f4868	0.8096986
11	0x3f19287f	0.5982742

encoder.1.bias f4 [12]
0	0x3f5ce725	0.862902
1	0xbed6be91	-0.41942266
2	0x3e12323b	0.14276974
3	0xbe3c2129	-0.18372025
4	0x3e965903	0.29364786
5	0xbf89f6ec	-1.077848
6	0xbf047b7d	-0.5175093
7	0xbf42dce3	-0.76118296
8	0x3f670032	0.90234673
9	0xbeeb51e7	-0.45960924
10	0x3e930740	0.2871647
11	0xbf44d272	-0.76883614

encoder.1.running_mean f4 [12]
0	0xbfd0acf2	-1.6302779
1	0x3fb50465	1.4141966
2	0x3eba3728	0.36370206
3	0xbeba04be	-0.36331743
4	0xbfb58ffb	-1.4184564
5	0x40007c86	2.0076003
6	0xbf82733f	-1.019142
7	0xbfa0fe91	-1.2577688
8	0xbf68ba21	-0.9090901
9	0x3f7c3857	0.9852347
10	0xbf8b534b	-1.0884794
11	0xc00c46c0	-2.1918182

encoder.1.running_var f4 [12]
0	0x3f566c16	0.83758676
1	0x3f396ae5	0.72428733
2	0x3d967e64	0.07348326
3	0x3dbc33ca	0.091895655
4	0x3f33eb26	0.70280683
5	0x3f84d0af	1.0376185
6	0x3ef10012	0.47070366
7	0x3ec4643e	0.3835773
8	0x3e9822b2	0.2971397
9	0x3edf8850	0.43658686
10	0x3eec6b7c	0.46175754
11	0x3f9202c5	1.1407095

encoder.3.weight f4 [24, 12, 4, 4]
0	0x3e0e0034	0.13867265
1	0xbc2eec58	-0.010676466
2	0x3d566ee8	0.052351862
3	0x3e235873	0.1595171
4	0xbe2fb44e	-0.17158625
5	0xbe21c60a	-0.15798202
6	0xbe81d60f	-0.25358626
7	0xbda9028b	-0.08252438
8	0xbaf1c780	-0.0018446296
9	0x3e378ff5	0.17926009
10	0xbda89fbd	-0.08233593
11	0xbd12acd5	-0.035809357
12	0x3cc808ed	0.024418319
13	0xbd5bdf18	-0.053679556
14	0xbd533e4f	-0.051573094
15	0x3e0083b0	0.12550235
16	0x3df50c7d	0.119652726
17	0x3ddeaaaa	0.10872395
18	0x3dd46f9c	0.1037285
19	0x3db0072f	0.0859512
20	0x3cc4d9fd	0.024029726
21	0x3d158840	0.03650689
22	0x3e7ef088	0.24896443
23	0x3dca151b	0.09867307
24	0xbce7e9e4	-0.02830977
25	0xbeb37eac	-0.3505758
26	0xbde29cb5	-0.11065046
27	0xbaf5a9bc	-0.0018742601
28	0xbceb06e8	-0.028689817
29	0xbdc16af7	-0.0944423
30	0x3d823ee1	0.063596494
31	0x3d8b9873	0.06816187
32	0xbd9ff69e	-0.0781071
33	0xbd5aff2d	-0.05346601
34	0xbe09c956	-0.1345571
35	0x3bfe6736	0.0077637685
36	0xbd916cbc	-0.071008176
37	0x3db62220	0.088932276
38	0x3d49a23b	0.04922698
39	0xbd053c78	-0.03252837
40	0xbe05325c	-0.13007492
41	0xbdf31a07	-0.11870199
42	0xbd434982	-0.047677524
43	0xbded5838	-0.11589092
44	0xbb5104df	-0.0031893773
45	0xbdc44310	-0.09583104
46	0x3dbef975	0.09324924
47	0xbcb0e030	-0.021591276
48	0x3d2f02fb	0.04272745
49	0xbd1762e1	-0.036959533
50	0x3e2daad7	0.16959701
51	0x3ddf912d	0.10916362
52	0xbdb9a090	-0.09063828
53	0xbe081253	-0.1328824
54	0x3d4b2ec0	0.04960513
55	0x3ddf0228	0.10889083
56	0xbbc40c1a	-0.005982888
57	0x3d8def8b	0.06930455
58	0x3d1b24db	0.037876945
59	0x3dce61ab	0.100772224
60	0xbd195314	-0.037432745
61	0xbd61325d	-0.05497967
62	0x3cf5e44e	0.03001609
63	0x3d52617e	0.051362507
64	0xbd3e9279	-0.046526406
65	0xbd21274b	-0.039344113
66	0xbdd48956	-0.10377757
67	0x3b9a88c4	0.0047160108
68	0xbbab50ad	-0.005228123
69	0x3e513839	0.20431603
70	0x3e0637c5	0.13107212
71	0xbcffd2ea	-0.031228501
72	0xbb029db6	-0.0019930429
73	0x3e9a205b	0.3010281
74	0xbca22816	-0.019794505
75	0x3c6f3633	0.014600324
76	0x3b739675	0.0037168537
77	0x3d5b365a	0.05351863
78	0xbca3c1e0	-0.019989908
79	0xbd72b6cc	-0.05925636
80	0xbdcf3fb4	-0.10119572
81	0x3dee10bd	0.11624286
82	0xbdebb1f9	-0.11508555
83	0xbd713d9f	-0.058896657
84	0x3e62b9e4	0.22141224
85	0x3e98584a	0.2975486
86	0x3e67b4f4	0.22627622
87	0x3db37ab0	0.08763635
88	0xbc87e011	-0.016586335
89	0xbe0f0775	-0.13967688
90	0x3d9de13a	0.07708974
91	0x3d9c364a	0.07627542
92	0x3dbee160	0.093203306
93	0x3e43c2cd	0.1911728
94	0x3cd5c05c	0.0260927
95	0xbdeb92b9	-0.115025945
96	0x3dbebd1b	0.09313413
97	0x3e52d6aa	0.205897
98	0xbd3d6cf8	-0.0462465
99	0xbd732540	-0.059361696
100	0x3e6e6a24	0.23282677
101	0x3e5a9ad1	0.2134812
102	0x3e259e43	0.16173653
103	0x3d965ca1	0.07341886
104	0x3e3dbdc6	0.18529424
105	0x3e7412a3	0.23835234
106	0x3ddc574e	0.107588395
107	0x3d93a0ae	0.072083816
108	0x3dea9e43	0.11455967
109	0x3e6106dc	0.21975273
110	0x3d14eabd	0.036356676
111	0xbc6a2e82	-0.014293315
112	0xbd2203b0	-0.039554298
113	0xbdc390c6	-0.09549098
114	0xbdac9f2d	-0.08428798
115	0xbdc0a45f	-0.09406351
116	0x3d9dcd1c	0.07705137
117	0x3d6df7e8	0.05809775
118	0xbd40e66b	-0.047094744
119	0xbe0a360d	-0.13497181
120	0x3e01c967	0.12674485
121	0x3e59dcd9	0.21275653
122	0x3e09e90d	0.13467808
123	0xbdc35c34	-0.09539071
124	0x3e156f10	0.14593148
125	0x3e1cf586	0.15328035
126	0x3df31ce4	0.11870745
127	0xbe18655f	-0.1488242
128	0xbce3f8b7	-0.027828557
129	0xbd419da6	-0.047269486
130	0x3d85e8e6	0.065385625
131	0x3d2bfe4e	0.04199057
132	0x3d98d74c	0.074629396
133	0x3ea80811	0.32818654
134	0xbe047749	-0.12936129
135	0xbd148e5d	-0.03626858
136	0xbe203673	-0.1564577
137	0x3ed35bb0	0.4128089
138	0xbd4a7e84	-0.04943706
139	0x3b3d9f2e	0.002893399
140	0xbd4ac698	-0.0495058
141	0xbd45a964	-0.048257247
142	0xbdb3b3a0	-0.08774495
143	0xbcd77bf6	-0.026304226
144	0x3dc3455a	0.09534712
145	0xbd06899c	-0.03284608
146	0x3d99a830	0.07502782
147	0x3e0b79f4	0.1362074
148	0xbe63a990	-0.22232652
149	0xbd3a2cb4	-0.04545279
150	0xbe2d79d3	-0.16941004
151	0xbddfcfe1	-0.10928322
152	0xbe4bd761	-0.1990638
153	0xbeb3cc07	-0.35116598
154	0xbd30491e	-0.04303848
155	0xbdc73be2	-0.097282186
156	0xbe80d4b3	-0.25162277
157	0xbee03aee	-0.4379496
158	0xbdf9c360	-0.12195468
159	0xbc8a5997	-0.016888423
160	0xbdd91156	-0.1059901
161	0xbc9cb7d4	-0.019130625
162	0xbd673ee3	-0.056456458
163	0xbde1011d	-0.109865405
164	0x3d9964b8	0.07489914
165	0x3e245106	0.16046533
166	0x3e28ac06	0.16471872
167	0x3d565c97	0.052334394
168	0x3d67f84e	0.056633286
169	0x3e5a9a8e	0.2134802
170	0x3e614770	0.21999907
171	0x3ddc856b	0.10767635
172	0xbd907ff3	-0.070556544
173	0x3d8f2e27	0.06991225
174	0x3e0d1857	0.13778816
175	0xbd8b7c74	-0.06810847
176	0xbdcbfa6f	-0.09959876
177	0xbe5159dd	-0.20444436
178	0xbe6f8f01	-0.23394395
179	0xbdc03b9a	-0.09386368
180	0xbdd26306	-0.102727935
181	0xbd902e2c	-0.070400566
182	0xbe809048	-0.25110078
183	0xbe78f56e	-0.24312374
184	0x3d69e1e7	0.057100203
185	0x3e0e5357	0.13898979
186	0xbca014c0	-0.019541144
187	0xbdafdc3e	-0.0858693
188	0x3d92b981	0.07164288
189	0x3d1b7177	0.037950005
190	0xbe4518e7	-0.1924778
191	0xba870da5	-0.0010303749
192	0xbce7c241	-0.02829087
193	0x3e8d0d2b	0.2754911
194	0xbd05f043	-0.032699835
195	0x3cb616ab	0.022227606
196	0xbd53fc4a	-0.051754273
197	0x3d5f7bfe	0.054561608
198	0xbedbb3f1	-0.42910722
199	0xbe8d45ea	-0.27592403
200	0x3d26768b	0.040640395
201	0x3e8f17f1	0.27947953
202	0x3dad7df1	0.08471287
203	0x3e7e31e3	0.24823718
204	0xbe0a4a68	-0.13504946
205	0x3e0aa91d	0.13541074
206	0xbdcf846b	-0.101326786
207	0x3d6ff669	0.058584604
208	0xbc9745fe	-0.018465992
209	0x3d50596a	0.050866522
210	0xbd02b88a	-0.03191427
211	0xbbc63422	-0.006048695
212	0x3d874904	0.066057235
213	0xbe03b216	-0.12860903
214	0x3cbce2d0	0.023057371
215	0xbdb5c9ca	-0.08876379
216	0xbd9bc14d	-0.076052286
217	0x3e313f09	0.17309202
218	0xbdab8046	-0.083740756
219	0x3e1f33f3	0.15547161
220	0x3c92cb9d	0.017919356
221	0xbc5dd570	-0.013539657
222	0xbbf6f1e6	-0.0075361608
223	0xbc433be6	-0.011916136
224	0xbcd8719a	-0.026421357
225	0x3e1fdb30	0.15610957
226	0x3e0b7859	0.13620128
227	0xbd8fb143	-0.07016232
228	0x3d63418a	0.055482425
229	0xbe3e589c	-0.1858849
230	0x3f3182b7	0.6934008
231	0xbe8de5c8	-0.27714372
232	0xbdcaf1aa	-0.09909375
233	0x3e352b23	0.17692237
234	0xbed28d1c	-0.41123283
235	0x3c0c3588	0.008557685
236	0x3e4668e3	0.19375949
237	0xbe03d491	-0.12874056
238	0x3e85dc9f	0.26144883
239	0xbe066fa4	-0.13128525
240	0x3d3641d7	0.044496384
241	0xbdeb494b	-0.11488589
242	0xbdeba69f	-0.1150639
243	0x3d7aee43	0.06126238
244	0xbd1054a1	-0.03523696
245	0x3e4fc8d0	0.20291448
246	0xbf0cfcac	-0.55073047
247	0x3e808243	0.25099382
248	0x3da04f23	0.07827594
249	0xbdef8767	-0.11695748
250	0x3ec15c4f	0.37765738
251	0xbcae6971	-0.021290513
252	0xbe2e0e16	-0.16997561
253	0x3de1f774	0.11033526
254	0xbe590ff3	-0.2119749
255	0x3db63741	0.088972576

encoder.3.bias f4 [24]
0	0xbd49d500	-0.0492754
1	0x3cc15727	0.023601128
2	0x3d8bd66e	0.068280086
3	0x3cdeb58f	0.027186183
4	0xbd6e9e05	-0.058256168
5	0xbd8b6dbe	-0.06808041
6	0x3cab7b45	0.020932803
7	0xbd73d5df	-0.059530135
8	0x3c2fd9f3	0.0107331155
9	0xbc3437a2	-0.010999592
10	0xbc07905c	-0.008274164
11	0xbb00ea80	-0.0019671023
12	0x3ccf2484	0.025285967
13	0x3d8226fe	0.063550934
14	0xbc8a7de1	-0.016905727
15	0xbd73c760	-0.05951631
16	0x3b8a5789	0.004221861
17	0xbd40c6bb	-0.047064524
18	0x3a499ce5	0.00076909206
19	0xbd58c053	-0.05291779
20	0xbbf9db57	-0.0076250243
21	0x3cf30b50	0.02966848
22	0xbc519274	-0.012791265
23	0xbd3b9b7b	-0.045802575

encoder.4.weight f4 [24]
0	0x3f261fe0	0.6489239
1	0x3e466400	0.19374084
2	0x3f390b95	0.722833
3	0x3f303b12	0.68840134
4	0x3f41cc65	0.75702506
5	0x3f6884a1	0.90827376
6	0x3ec2f00c	0.38073766
7	0x3f4b0b71	0.79314333
8	0x3f403445	0.75079757
9	0x3f33f22e	0.7029141
10	0x3f512235	0.8169282
11	0x3f3e6a41	0.7438088
12	0x3f0cf1ef	0.5505666
13	0x3f6e2306	0.9302219
14	0x3ea7ba6f	0.32759425
15	0x3ed6160d	0.41813698
16	0x3f46bfb3	0.7763626
17	0x3f38f44b	0.7224776
18	0x3f1c3c11	0.61029154
19	0x3f7d1664	0.9886229
20	0x3f23ca39	0.6398044
21	0x3f51481a	0.81750643
22	0x3f2d7dfc	0.6777036
23	0x3e8d4a26	0.27595633

encoder.4.bias f4 [24]
0	0xbf79c8c5	-0.97571975
1	0x3f081119	0.5315109
2	0xbee2ed97	-0.44321892
3	0x3eadeedc	0.33971298
4	0xbec152da	-0.37758523
5	0xbe05641a	-0.13026467
6	0x3fa699be	1.3015668
7	0x3dab4a50	0.08363783
8	0xbe6403d4	-0.22267085
9	0x3e961f35	0.29320684
10	0x3ec99225	0.39369312
11	0xbfcc4c53	-1.5960792
12	0x3fcf6572	1.6202834
13	0x3eb85fc5	0.36010566
14	0x3f8cc417	1.0997342
15	0x3fc35fdd	1.526363
16	0x3ce79fff	0.028274534
17	0xbcd79bde	-0.02631944
18	0x3ef435ff	0.47697446
19	0xbec408c5	-0.3828794
20	0xbfd5aafa	-1.6692803
21	0xbebcf91c	-0.36908805
22	0xbf687b47	-0.90813106
23	0xbe7c55a7	-0.24642049

encoder.4.running_mean f4 [24]
0	0x3eb5cee2	0.35509402
1	0xbe265771	-0.16244294
2	0x3f746317	0.954637
3	0x3fed902c	1.8559623
4	0xbf967e86	-1.1757362
5	0xbf710b71	-0.94158083
6	0xbf3259eb	-0.69668454
7	0x3f647400	0.892395
8	0x3f0da068	0.55322886
9	0xbe5f43af	-0.21803163
10	0x3f3f5c7d	0.747505
11	0x4048095f	3.125572
12	0xbf54a5f6	-0.83065736
13	0x3d253b3a	0.040339686
14	0x3e3ed4d6	0.18635878
15	0xbe6b6047	-0.22985946
16	0x3f84b979	1.0369102
17	0xbf855cb3	-1.0418915
18	0xbefdd054	-0.49573004
19	0x3e03754f	0.12837718
20	0x402fab22	2.74482
21	0xbf22bf37	-0.6357302
22	0xbefef57e	-0.4979667
23	0xbe87c3c2	-0.2651654

encoder.4.running_var f4 [24]
0	0x3fb55d82	1.4169161
1	0x3d6852db	0.056719642
2	0x3efe92e3	0.4972144
3	0x40d0c966	6.524585
4	0x409def73	4.9354796
5	0x407da502	3.9631963
6	0x3e922630	0.2854476
7	0x4094f72e	4.6551733
8	0x3f23706c	0.6384342
9	0x3f0b13e2	0.54327214
10	0x3f68aaf4	0.90885854
11	0x3f572936	0.8404726
12	0x3ec9e447	0.39431974
13	0x3fd97671	1.698927
14	0x3e22770d	0.15865727
15	0x3e71540f	0.23567222
16	0x3ef844c9	0.4848998
17	0x3efad45f	0.4899015
18	0x3ece0b24	0.40242875
19	0x3fd34e14	1.6508203
20	0x3f7a422b	0.97757214
21	0x3f57d9c6	0.8431667
22	0x3f888944	1.066689
23	0x3e75ed06	0.24016199

encoder.6.weight f4 [48, 24, 4, 4]
0	0xbcf18692	-0.029483113
1	0x3dc3056a	0.09522517
2	0xbd016be5	-0.031597037
3	0xbc502ef6	-0.012706509
4	0x3d69d90e	0.057091765
5	0x3e963f7c	0.2934531
6	0xbe6f5aee	-0.2337453
7	0x3d79a49d	0.060948003
8	0xbb9bf6b3	-0.0047596334
9	0x3eb656cf	0.35613105
10	0xbdc4cb61	-0.09609104
11	0xbdbae4b5	-0.09125654
12	0x3d0dbac8	0.034601957
13	0x3e8b22b0	0.27174902
14	0x3d233b3a	0.039851405
15	0x3af4428e	0.0018635557
16	0x3b3cc937	0.0028806457
17	0x3bbcf62d	0.005766651
18	0xbd80dfbb	-0.06292673
19	0xbcb1e418	-0.021715209
20	0x3ccae8e3	0.024769252
21	0xbe357083	-0.17718701
22	0xbe1458e2	-0.14487031
23	0x3ba0cfc2	0.004907579
24	0xbbd7cf47	-0.0065859887
25	0x3ea605f7	0.32426426
26	0x3ebe0d0e	0.37119335
27	0xbdbc8f63	-0.09207036
28	0xbc8e0773	-0.017337536
29	0x3c96fde2	0.018431608
30	0x3bb2ccb1	0.00545653
31	0x3ccb82fa	0.024842728
32	0x3d22b03b	0.039718848
33	0xbd814c90	-0.06313431
34	0xbdb13d83	-0.086543106
35	0x3d06b335	0.03288575
36	0xbc4f2034	-0.012641955
37	0xbdcdde0e	-0.10052119
38	0x3eda51c0	0.42640495
39	0xbd56479d	-0.05231439
40	0x3c8a4072	0.016876433
41	0xbd725496	-0.0591627
42	0xbc2ac165	-0.010422085
43	0x3d297609	0.041372333
44	0xbd686e90	-0.056746066
45	0xbd2af53d	-0.041737784
46	0x3d113434	0.035450175
47	0x3cdb9512	0.02680448
48	0xbcb276ec	-0.021785222
49	0xbccb7b7f	-0.024839161
50	0xbd8bfcee	-0.06835352
51	0x3d51e06a	0.05123941
52	0x3ce5a5c7	0.02803315
53	0xbe346949	-0.17618288
54	0xbc6a6628	-0.0143065825
55	0xbb8420c1	-0.004032225
56	0x3e3de62f	0.1854484
57	0xbe1db0a9	-0.15399422
58	0xbe1a3c84	-0.15062147
59	0xbdb8f687	-0.09031396
60	0x3cceef85	0.025260696
61	0xbda86f6e	-0.082243785
62	0xbde17b08	-0.110097945
63	0xbd604c26	-0.05476012
64	0x3cb35dd3	0.021895325
65	0xbbb07f83	-0.0053862943
66	0x3dc1307f	0.09433078
67	0xbd8fa811	-0.07014478
68	0xbc66da98	-0.014090203
69	0x3ddd31f5	0.10800544
70	0x3d03da21	0.032190446
71	0xbbdbf51f	-0.0067125703
72	0xbe1a3b27	-0.15061627
73	0x3e27975c	0.16366333
74	0x3e65f6de	0.22457454
75	0x3d5e800a	0.054321326
76	0xbcdedd68	-0.027205184
77	0x3d87e0c0	0.066346645
78	0x3de4f92d	0.11180339
79	0x3ca2b30c	0.019860767
80	0x3d13fc58	0.036129326
81	0x3c68eb90	0.014216319
82	0xbc704e3f	-0.014667093
83	0x3ce0aadb	0.02742522
84	0xbcfadd75	-0.030623177
85	0x3df51d98	0.11968535
86	0xbdfa7d8f	-0.1223098
87	0xbce9b3c3	-0.0285281
88	0xbd63bc7d	-0.05559968
89	0xbe14c446	-0.14527997
90	0xbe178003	-0.14794926
91	0x3b0b3810	0.0021243133
92	0x3d35d785	0.04439499
93	0x3ddb4392	0.107062474
94	0x3ce80e5b	0.028327158
95	0x3cbf4462	0.023348037
96	0x3db63e18	0.08898562
97	0x3e0681df	0.1313548
98	0xba3c8ff1	-0.000719308
99	0xbd296424	-0.041355267
100	0xbdab6529	-0.08368904
101	0xbe8107b8	-0.252012
102	0x3d126f95	0.035750944
103	0x3dc75820	0.097336054
104	0xbd92e2b6	-0.07172148
105	0x3e747d97	0.23876034
106	0x3ec05447	0.375643
107	0xbd18e9ae	-0.03733223
108	0x3cbf72e1	0.023370208
109	0x3c7127ab	0.01471893
110	0x3d2b30f2	0.041794725
111	0x3c2be8ef	0.010492547
112	0xbd6758d8	-0.056481212
113	0x3bb0a168	0.005390335
114	0x3d33c607	0.043890025
115	0xbd0a33ce	-0.03374081
116	0x3d2ce0a9	0.04220644
117	0xbe029ab4	-0.12754327
118	0x3dfee309	0.12445647
119	0x3d960a9d	0.07326243
120	0x3da34321	0.07971788
121	0x3e105750	0.14095807
122	0x3e06c0e3	0.13159518
123	0xbba5bd3e	-0.00505796
124	0xbd0a0224	-0.033693448
125	0xbdb676f3	-0.089094065
126	0xbc9b2cf5	-0.018942336
127	0xbc784611	-0.015153424
128	0x3c5f9254	0.013645727
129	0xbd0a8ef4	-0.033827737
130	0x3d6755d8	0.05647835
131	0xbcffaf42	-0.0312115
132	0x3b4a592f	0.0030875911
133	0xbc95334b	-0.018212935
134	0xbdb18480	-0.086678505
135	0x3c24f31c	0.010067727
136	0x3de54bb5	0.111960806
137	0xbe5afcaa	-0.21385446
138	0xbd02ab16	-0.03190144
139	0xbd9a9218	-0.075473964
140	0xbc885c74	-0.016645648
141	0xbd94222f	-0.072330825
142	0xbcbda977	-0.023152096
143	0xbc06ffc2	-0.008239688
144	0xbc2dd142	-0.010608973
145	0x3d2d86db	0.042364936
146	0xbd6ab10c	-0.05729775
147	0x3d066dc6	0.03281953
148	0x3c6bde01	0.014396192
149	0x3d4e43a6	0.050357483
150	0x3dd9a461	0.10627056
151	0xbc17bcee	-0.009261353
152	0xbddb8d35	-0.107202925
153	0x3e85c866	0.26129454
154	0x3cd441b5	0.025910238
155	0x3d9e6eca	0.07735975
156	0x3cc996fc	0.024608128
157	0x3db0aaa7	0.08626299
158	0x3d1940e7	0.03741541
159	0x3c6f2162	0.014595361
160	0xbc31115d	-0.010807362
161	0xbcb04319	-0.02151637
162	0xbbd7d566	-0.0065867184
163	0x3cee80eb	0.029114207
164	0xbdb330bc	-0.0874953
165	0x3da136d5	0.078717865
166	0xbe3e4bb6	-0.18583569
167	0x3d235828	0.039878994
168	0x3d2ffd39	0.0429661
169	0xbdcdf87b	-0.100571595
170	0x3dba170a	0.090864256
171	0xbd89d021	-0.067291506
172	0xbcea4324	-0.028596468
173	0xbd08e887	-0.03342488
174	0xbd72964f	-0.059225377
175	0xbd4625f8	-0.048376054
176	0xbd14fe43	-0.036375295
177	0x3e447762	0.19186166
178	0x3c4387e4	0.011934254
179	0xbdf6d13d	-0.12051628
180	0x3c8a90d8	0.01691477
181	0xbe12c71d	-0.14333768
182	0xbc090f16	-0.008365413
183	0x3dd6e398	0.10492629
184	0xbd43c7b1	-0.047797862
185	0x3ec2dc3a	0.38058645
186	0xbe347eff	-0.1762657
187	0xbc245f47	-0.0100324815
188	0xbc2e6bd0	-0.010645822
189	0x3e34cc88	0.17656147
190	0xbd161e2a	-0.03664986
191	0x3cb6875d	0.022281343
192	0xbdb2ec84	-0.08736518
193	0xbe281ccc	-0.16417235
194	0x3d1715db	0.036886077
195	0xbc11a6bf	-0.008889853
196	0x3d5b8288	0.05359128
197	0xbf5468aa	-0.82972205
198	0x3de14ec4	0.110013515
199	0x3d8ee3a3	0.06977012
200	0x3de90169	0.11377222
201	0x3d455ab7	0.048182216
202	0x3cb360eb	0.0218968
203	0x3d316156	0.043305717
204	0xbaf65df6	-0.0018796313
205	0x3dcff8c7	0.101548724
206	0xbd7e44da	-0.06207738
207	0xbb91f19b	-0.0044538504
208	0xbc886d9a	-0.016653825
209	0x3c84d48c	0.016214631
210	0x3d5dcf51	0.05415279
211	0xbc8ef7e6	-0.017452192
212	0xbcef7a9b	-0.029233268
213	0x3c575c56	0.013144573
214	0xbde750eb	-0.11294731
215	0xbccf748d	-0.02532413
216	0xbb970830	-0.0046091303
217	0x3d9deb5b	0.07710906
218	0x3dee1150	0.11624396
219	0xbd40439e	-0.046939485
220	0x3d38bfd4	0.045104817
221	0xbd3aca3c	-0.045603022
222	0x3d1ecc41	0.03876901
223	0xbb810437	-0.00393727
224	0x3dbb15e7	0.09135037
225	0xbe39f1be	-0.18158624
226	0xbe2d3f63	-0.16918711
227	0x3cad125c	0.021126918
228	0x3e86c395	0.26321092
229	0x3f32d7b1	0.6986037
230	0x3d3663a8	0.044528633
231	0xbbfe14d5	-0.007753948
232	0xbe1e12ed	-0.15436907
233	0x3e5ca8ed	0.21548815
234	0xbe38c600	-0.18044281
235	0x3ca67875	0.02032111
236	0x3d94228b	0.07233151
237	0xbda1f430	-0.07907903
238	0xbdb99635	-0.09061853
239	0xbda90c82	-0.08254339
240	0xbda58f60	-0.08083987
241	0x3e926ffd	0.28601065
242	0xbd254f89	-0.040359054
243	0xba37485f	-0.000699168
244	0x3da48423	0.080330156
245	0xbf779b29	-0.9672113
246	0x3e85c977	0.26130268
247	0xbc74de77	-0.014945618
248	0x3dddd5b8	0.10831779
249	0xbf98cdb8	-1.193778
250	0xbd9f60e5	-0.07782153
251	0xbcb02ab5	-0.02150474
252	0xbd39b567	-0.045339014
253	0xbde348e2	-0.11097886
254	0xbcd6c994	-0.026219167
255	0x3c864b76	0.016393404

encoder.6.bias f4 [48]
0	0x3aaeb4c8	0.0013329023
1	0xbcd45476	-0.02591918
2	0x3c093e0c	0.0083766095
3	0xbca4481b	-0.020053914
4	0x3d3071e6	0.043077372
5	0xbcc6e9b6	-0.024281364
6	0xbd4ef1c3	-0.05052353
7	0x3c91cc04	0.017797478
8	0xbc689aa6	-0.014197027
9	0x3ba983c3	0.005173178
10	0x3d50e00c	0.050994918
11	0x3d280923	0.04102434
12	0x3d22bcdc	0.03973089
13	0xbc50d8a9	-0.012746968
14	0xbcce6ead	-0.025199259
15	0xbd005367	-0.03132954
16	0xbcc4b855	-0.024013678
17	0xbcbdbc28	-0.023161009
18	0xbd0fdb28	-0.035121113
19	0x3cfbfec3	0.030761128
20	0xbc5e0f8e	-0.013553513
21	0xbcc3cd2b	-0.023901543
22	0xbcf48e93	-0.029853141
23	0xbc698c53	-0.014254647
24	0x3c835a9b	0.016034415
25	0x3a3f2662	0.0007291791
26	0x3cfb7db6	0.030699592
27	0xbd36220f	-0.044466075
28	0x3c3550f0	0.01106666
29	0x3cd2b811	0.025722535
30	0x3a32696b	0.00068058696
31	0x3d09cf47	0.03364494
32	0x3d2ec293	0.04266603
33	0xbbcd96a7	-0.0062740627
34	0x3c4d77c3	0.01254076
35	0x3d4ea2d4	0.050448254
36	0x3c022434	0.007943202
37	0xbd058870	-0.03260082
38	0x3d1e5264	0.038652793
39	0xbd46d008	-0.048538238
40	0xbab5dec4	-0.0013875593
41	0x39d6fe37	0.00041006666
42	0xbd4bbbb1	-0.049739543
43	0x3d251d87	0.040311363
44	0x3c82082a	0.015873034
45	0xb9309afd	-0.00016842406
46	0xbcb93359	-0.022607492
47	0x3cf7a59c	0.030230336

encoder.7.weight f4 [48]
0	0x3ea1c320	0.3159418
1	0x3f5454b7	0.82941765
2	0x3f69ef24	0.91380525
3	0x3f4304b9	0.7617908
4	0x3eb59aea	0.35469753
5	0x3f5932e2	0.84843266
6	0x3f86d795	1.053454
7	0x3e99ab4b	0.300135
8	0x3f83cc49	1.0296718
9	0x3f8734bf	1.0562972
10	0x3edb9186	0.42884463
11	0x3f33e597	0.702722
12	0x3eacd153	0.33753452
13	0x3f3919c2	0.7230493
14	0x3f53cdb8	0.82735777
15	0x3f3e1994	0.7425778
16	0x3e8fcf73	0.2808796
17	0x3f82b08b	1.0210127
18	0x3f6634a1	0.89924055
19	0x3f827899	1.0193053
20	0x3f726467	0.9468445
21	0x3e9a5883	0.30145654
22	0x3ead3e68	0.33836675
23	0x3f8461b8	1.0342321
24	0x3f7976ae	0.97446716
25	0x3f84a23c	1.036201
26	0x3eb469c9	0.35236958
27	0x3eb0414c	0.34424818
28	0x3eb7fff9	0.3593748
29	0x3ec1360c	0.37736547
30	0x3f1fda4c	0.6244247
31	0x3f503ff1	0.81347567
32	0x3ee3cd3c	0.4449252
33	0x3f80a663	1.0050777
34	0x3ea83e46	0.3286001
35	0x3f5c8ad6	0.86149347
36	0x3e992062	0.2990752
37	0x3ec41c4b	0.38302836
38	0x3f3788ca	0.716931
39	0x3eb2c1a8	0.34913373
40	0x3eb7d886	0.35907382
41	0x3e9a7a2e	0.3017134
42	0x3f851574	1.0397172
43	0x3f4cc4a1	0.7998753
44	0x3f7b36e9	0.9813066
45	0x3f827e34	1.0194764
46	0x3f7e975e	0.9944972
47	0x3eb879e4	0.36030495

encoder.7.bias f4 [48]
0	0x3f6d6a0b	0.92739934
1	0xbef0439d	-0.46926585
2	0x3f3ec1e4	0.74514604
3	0xbdf868e9	-0.12129385
4	0x3f82f8d5	1.0232188
5	0xbd9f241f	-0.077705614
6	0xbddc468f	-0.107556455
7	0x3f4d7bfd	0.80267316
8	0x3e0c922e	0.13727638
9	0xbec50bbc	-0.38485515
10	0x3f94ec08	1.1634531
11	0x3e2a5cc8	0.16636956
12	0x3f69ace0	0.9127941
13	0x3f5a5b56	0.8529562
14	0x3e755f47	0.23962127
15	0xbd9aab52	-0.07552208
16	0x3f469098	0.7756438
17	0xbc72e1ec	-0.014824372
18	0x3e9b4ded	0.3033289
19	0x3d1137b2	0.035453506
20	0x3ec5187a	0.38495237
21	0x3f654b3d	0.8956793
22	0x3f75578c	0.9583671
23	0xbe94a376	-0.2903096
24	0x3dde46b4	0.10853329
25	0x3ce39e21	0.027785363
26	0x3f827b02	1.0193789
27	0x3f490d80	0.78536224
28	0x3f7f07e7	0.99621433
29	0x3f4addf9	0.79244953
30	0x3ed0fd67	0.4081833
31	0x3ef2a1f2	0.4738918
32	0x3f992cda	1.1966813
33	0x3ea327e5	0.31866375
34	0x3f5d072e	0.8633908
35	0xbe7a53cb	-0.24446027
36	0x3f55431a	0.83305514
37	0x3f704356	0.93852746
38	0x3da5707d	0.08078096
39	0x3f7dff16	0.99217355
40	0x3f83edc5	1.0306937
41	0x3f4b8805	0.79504424
42	0xbdebb65d	-0.115093924
43	0x3e02de9c	0.12780231
44	0xbea346c2	-0.3188992
45	0x3bbc16d6	0.005740027
46	0xbf04b4a9	-0.51838166
47	0x3f56fd3c	0.83980155

encoder.7.running_mean f4 [48]
0	0xc00af569	-2.1712286
1	0xbfa50a91	-1.289385
2	0xbde3b31f	-0.11118149
3	0xbf16f757	-0.5897116
4	0x3fa87373	1.3160232
5	0x3f7073e4	0.93926835
6	0x402a31cf	2.65929
7	0x402cc229	2.6993506
8	0xbfce8b6f	-1.6136302
9	0xbf9dfb11	-1.2342244
10	0x3ff612f6	1.9224536
11	0x3f401f63	0.7504789
12	0x4026d2aa	2.606608
13	0x3f619a34	0.8812592
14	0x3f2fd464	0.6868346
15	0xbf79e236	-0.97610795
16	0x3f88954b	1.0670561
17	0xc00773db	-2.1164463
18	0x3f178f84	0.5920336
19	0xbf95c3fc	-1.1700435
20	0x4005166d	2.0794938
21	0x3ff10952	1.8830969
22	0xbd587d76	-0.052854024
23	0xbe6fd075	-0.23419364
24	0xc020a5af	-2.5101125
25	0x3ffe1516	1.9850185
26	0x40385447	2.880144
27	0x3fb840a8	1.4394732
28	0x4042ffa3	3.0468528
29	0xbcb43e45	-0.022002349
30	0x3fd01d8a	1.6259015
31	0x3f9b0879	1.2111961
32	0x4026691a	2.600165
33	0x3f197e83	0.59958667
34	0x40332f0b	2.7997463
35	0xbf6eb2e5	-0.9324172
36	0x400f24f6	2.236631
37	0x404451aa	3.0674844
38	0x3f9394cd	1.1529785
39	0x403ef74c	2.9838438
40	0x3ff00870	1.8752575
41	0x3fbcc3d2	1.474726
42	0x3fe117cf	1.7585391
43	0xbf614ecc	-0.8801086
44	0xbee543ea	-0.44778377
45	0x3f863450	1.0484715
46	0xbedab992	-0.42719704
47	0x3f92fb74	1.1482987

encoder.7.running_var f4 [48]
0	0x3f8c37be	1.0954511
1	0x3f4b8aa9	0.79508454
2	0x3efe78b5	0.49701467
3	0x3f8977f4	1.0739732
4	0x3f2a9e5a	0.66647875
5	0x3fb91472	1.4459364
6	0x405f8eed	3.4930985
7	0x3ee3baac	0.44478357
8	0x40672d0d	3.6121247
9	0x402e823a	2.7266984
10	0x3f2106b9	0.6290088
11	0x3fa44515	1.2833582
12	0x3efb0942	0.490305
13	0x3ede0c89	0.4336894
14	0x4007fda7	2.1248567
15	0x3f987e70	1.1913586
16	0x3ea911c4	0.33021367
17	0x4033f2bf	2.811691
18	0x40615966	3.5210814
19	0x4030287f	2.7524717
20	0x4082ed28	4.0914497
21	0x3ef5690e	0.47931713
22	0x3f00e4db	0.50349206
23	0x405700d7	3.3594263
24	0x4081f48f	4.0611033
25	0x40445180	3.0674744
26	0x3f3279cc	0.697171
27	0x3e8cd40c	0.2750553
28	0x3f51ebe3	0.8200056
29	0x3eb68803	0.35650644
30	0x3fa46a33	1.284491
31	0x40233c83	2.5505683
32	0x3f95f447	1.1715173
33	0x4085426a	4.164357
34	0x3ec1d130	0.3785491
35	0x4004402c	2.0664167
36	0x3ed6ce21	0.4195414
37	0x3ef7af4e	0.48375934
38	0x3fa76985	1.3079077
39	0x3f4285ec	0.759856
40	0x3f55037a	0.8320843
41	0x3eaae20e	0.3337559
42	0x40699376	3.6496253
43	0x3fed777b	1.8552088
44	0x403d867d	2.9613335
45	0x40297ac6	2.6481185
46	0x3fe80916	1.8127773
47	0x3e5e5927	0.21713696

decoder.0.weight f4 [48, 24, 4, 4]
0	0xbc37659b	-0.011193658
1	0x3c59fc43	0.013304773
2	0xbd8588e3	-0.0652025
3	0xbd22c427	-0.039737847
4	0xbd1ba7ca	-0.038001813
5	0x3e32615c	0.17419952
6	0xbecd47e3	-0.40093908
7	0x3d73382e	0.05937975
8	0xbe195962	-0.14975503
9	0xbe1b410a	-0.15161529
10	0xbeb979c5	-0.36225715
11	0xbc82f4b5	-0.015985826
12	0xbcb526f4	-0.0221133
13	0x3d941e0a	0.07232292
14	0xbe0afe42	-0.13573554
15	0xbcdd1b03	-0.02699042
16	0xbd044484	-0.032291904
17	0x3dbc339f	0.091895334
18	0x3da44413	0.080207966
19	0xbc00b3e4	-0.007855389
20	0x3cfb3dff	0.03066921
21	0xbe35eda5	-0.17766435
22	0x3e24d81a	0.16098061
23	0x3cbe5f15	0.023238698
24	0xbdc5a045	-0.096497096
25	0xbe8d8fe8	-0.27648854
26	0xbea97779	-0.33098963
27	0xbe0277da	-0.12741032
28	0xbd6fb807	-0.05852511
29	0xbcf5ffd4	-0.030029215
30	0x3da59069	0.08084185
31	0x3c926c88	0.017874017
32	0xbdd0bc59	-0.101921745
33	0xbdb456a2	-0.088055864
34	0xbc06989d	-0.008215097
35	0xbdc9b35a	-0.09848662
36	0xbd9c9416	-0.07645433
37	0xbe279c6b	-0.16368262
38	0xbd807ffc	-0.06274411
39	0xbcd5cdf5	-0.026099185
40	0xbbc57a0c	-0.006026512
41	0xbe09ba29	-0.1344992
42	0x3dada4ff	0.08478736
43	0xbe3bd01f	-0.1834111
44	0x381d958d	3.7570997e-05
45	0x3da3a091	0.0798961
46	0x3d015230	0.03157252
47	0x3d07809c	0.033081636
48	0x3bfe9301	0.007768989
49	0xbcbef596	-0.023310464
50	0x3c80a468	0.015703395
51	0xbc096e0c	-0.008388054
52	0xbd05471a	-0.03253851
53	0x3e950046	0.2910177
54	0x3d5ae9a5	0.053445477
55	0x3bdcd2a2	0.0067389766
56	0xbcfe1453	-0.03101555
57	0x3e0511e2	0.12995103
58	0xbe18e44b	-0.14930837
59	0xbd31e2ec	-0.0434293
60	0xbd679ea7	-0.056547787
61	0x3be096b3	0.0068539022
62	0xbe175865	-0.14779814
63	0xbd676853	-0.056495976
64	0xbbcb2c76	-0.0062003685
65	0xbcc6e90c	-0.024281047
66	0x3cdc9a53	0.026929056
67	0xbd8bc8a3	-0.06825378
68	0xbdf5b9bd	-0.119983174
69	0xbe8e98e4	-0.2785102
70	0xbeaaf297	-0.33388206
71	0xbd133596	-0.035939775
72	0x3cf8a39a	0.030351449
73	0xbe7fc410	-0.24977136
74	0xbe8ad63d	-0.27116576
75	0x3d0732be	0.033007376
76	0xbe0e1f9f	-0.1387925
77	0xbbaedf16	-0.0053366525
78	0xbe1110f8	-0.1416663
79	0xbb9a4df6	-0.0047090007
80	0xba57c6aa	-0.00082312024
81	0x3d4bdba2	0.049770005
82	0x3dbe4664	0.0929077
83	0xbc80a735	-0.01570473
84	0xbe74a351	-0.23890425
85	0xbdfca99a	-0.123370364
86	0xbe8d1780	-0.27556992
87	0x3d79e356	0.06100782
88	0x3c9aa7d2	0.018878851
89	0x3ea8882f	0.329164
90	0x3e909889	0.28241375
91	0xbd966599	-0.07343597
92	0xbd6c07c3	-0.05762459
93	0xbd715d24	-0.058926716
94	0xbdd719e9	-0.10502989
95	0x3c647fda	0.013946498
96	0x3cad9d00	0.021193027
97	0x3d5a93e7	0.053363707
98	0xbd06d8ca	-0.03292159
99	0x3d115d26	0.035489224
100	0x3b968126	0.0045930324
101	0xbe3eba0c	-0.18625659
102	0x3ea0a1af	0.31373355
103	0x3b0272c1	0.0019904824
104	0x3cbd3079	0.023094403
105	0xbdffc879	-0.12489409
106	0xbc53f901	-0.012937785
107	0x3c04ab2e	0.008097453
108	0xbd385c48	-0.04500988
109	0x3b14d6dc	0.0022711074
110	0xbde91a40	-0.1138196
111	0xbc5439ee	-0.012953265
112	0x3c98db71	0.018659325
113	0xbd6d97da	-0.058006145
114	0xbd8d6994	-0.06904903
115	0xbd046dd5	-0.032331306
116	0xbd69ae75	-0.05705114
117	0x3e41dc1c	0.18931621
118	0x3eb98825	0.36236683
119	0x3c261e25	0.010139023
120	0xbe3065fc	-0.17226404
121	0xbe2de426	-0.16981563
122	0x3deb7bb9	0.114982076
123	0xbdcb9d1c	-0.099420756
124	0xbc685716	-0.014180919
125	0x3ca7b5eb	0.020472487
126	0x3cd9b4fe	0.026575562
127	0xba373347	-0.0006988537
128	0xbcb70968	-0.022343352
129	0xbda3ad1b	-0.079920016
130	0x3d349be9	0.044094
131	0xbcfbf811	-0.030757936
132	0xbdadf38a	-0.08493717
133	0x3ed56dcf	0.4168534
134	0xbeae24a0	-0.34012318
135	0x3cf6969c	0.030101113
136	0x3c2429e7	0.010019756
137	0xbd018817	-0.031623926
138	0x3d8f8f1a	0.07009716
139	0xbd1adfb5	-0.037811
140	0xbcb696a8	-0.022288635
141	0x3d020484	0.031742588
142	0x3ca3eb2b	0.020009598
143	0xbc0cda03	-0.0085969
144	0xbc9d4fda	-0.019203115
145	0x36b0dbca	5.2707956e-06
146	0x3cf5d505	0.030008802
147	0x3d37254d	0.044713307
148	0x3e13be72	0.14428118
149	0x3da81650	0.08207381
150	0x3d37cad4	0.044871166
151	0xbd90c8fb	-0.07069584
152	0xbd2cd084	-0.042191043
153	0xbe6ceb0f	-0.23136543
154	0xbd850281	-0.06494618
155	0x3da44c0d	0.08022318
156	0xbd8ad818	-0.06779498
157	0xbd093b6f	-0.033503946
158	0xbc15dd40	-0.009146988
159	0xbd25b225	-0.040453095
160	0x3b26995f	0.0025421006
161	0x3dc0fe11	0.09423459
162	0xbaecfd8f	-0.0018080937
163	0x3da24162	0.07922627
164	0xbb48c6f8	-0.0030636173
165	0x3d210f6a	0.03932134
166	0xbdb96df9	-0.09054179
167	0xbbf2b4d2	-0.0074068094
168	0x3c32b61d	0.010907677
169	0xbdec07a9	-0.115248986
170	0x3e3baf6e	0.1832864
171	0xbbd31acd	-0.006442404
172	0x3caa2ead	0.02077421
173	0x3d42efcc	0.04759197
174	0xbd01805e	-0.03161656
175	0xbce7fcdf	-0.02831882
176	0xbd8da4b8	-0.06916183
177	0x3d440f9f	0.04786646
178	0xbdf1d60e	-0.11808406
179	0xbc9f28a4	-0.019428559
180	0x3cade8f6	0.021229248
181	0xbc8674cf	-0.01641312
182	0x3cf23058	0.029564068
183	0xbdc7976b	-0.097456776
184	0xbd9b60fc	-0.07586858
185	0x3db055f4	0.08610144
186	0xbe0df5b8	-0.13863266
187	0x3a4e2d36	0.00078650133
188	0xbced4ae5	-0.028966377
189	0xbe09e55d	-0.13466401
190	0x3c70a5ea	0.0146879945
191	0xbd03c74b	-0.032172482
192	0xbce738e8	-0.028225377
193	0xbe499e1e	-0.19689223
194	0x3e0d0301	0.13770677
195	0xbd56e8a9	-0.052467976
196	0xbe138802	-0.14407352
197	0xbf0f3036	-0.5593294
198	0xbe72571a	-0.23666039
199	0x392343f6	0.00015570209
200	0xbb13dbff	-0.0022561548
201	0xbe870c16	-0.26376408
202	0xbd70cee2	-0.05879105
203	0xbd17fdda	-0.037107326
204	0xbe2a0632	-0.16603926
205	0x3cefda75	0.029278973
206	0xbe241dea	-0.16027036
207	0xbc808d55	-0.015692392
208	0xbd59a77e	-0.05313825
209	0xbd17853c	-0.036992297
210	0x3c7e24e7	0.015511728
211	0xbc6fc3f7	-0.014634124
212	0x3dce82fb	0.10083576
213	0xbd1cefbb	-0.038314562
214	0xbe0a3b7f	-0.13499258
215	0x3be2b4b4	0.006918514
216	0x3e07b83f	0.13253878
217	0xbd246f6d	-0.040145326
218	0xbd5bab8c	-0.053630397
219	0xbd29ea8f	-0.041483458
220	0x3cef8b9c	0.029241376
221	0x3d572431	0.05252475
222	0xbdfffc43	-0.12499287
223	0x3c5a41c0	0.01332134
224	0xbe122d7b	-0.14275162
225	0x3e3d2bb8	0.18473709
226	0xbdfe52e1	-0.12418152
227	0x3b8ed371	0.004358702
228	0x3d2a1904	0.041527763
229	0xbe9a2723	-0.30107984
230	0xbe7a70cf	-0.24457096
231	0x3dda6e1a	0.106655315
232	0xbe4a6069	-0.1976334
233	0xbe2c24e6	-0.1681095
234	0xbe42d8ae	-0.19027969
235	0xbd4c9dc9	-0.049955163
236	0x3d80ce62	0.062893644
237	0x3c3a87c1	0.011384905
238	0xbc0d1f13	-0.008613366
239	0xbce7c570	-0.028292388
240	0x3d64f0d1	0.055893723
241	0xbda665c4	-0.08124879
242	0xbd339ab3	-0.043848705
243	0xbce1e839	-0.027576553
244	0xbceb09ac	-0.028691135
245	0x3e22a147	0.15881835
246	0xbd2b0c7d	-0.041759957
247	0xbd8e9148	-0.06961304
248	0x3d2cfd9b	0.042234045
249	0x3d70f812	0.05883033
250	0x3dae8c10	0.085228086
251	0xbbea8f9e	-0.007158234
252	0x3c204583	0.009782198
253	0xbd87b3bd	-0.06626079
254	0x3cf9abd9	0.030477451
255	0xbe10bd62	-0.14134744

decoder.0.bias f4 [24]
0	0x3cd9c99a	0.026585389
1	0x3c07bd07	0.008284814
2	0xbce2a34e	-0.02766576
3	0x3c902772	0.017596934
4	0xbd1ebd5d	-0.03875481
5	0xbb99e3ec	-0.00469636
6	0x3c246a7b	0.010035153
7	0x3d33ae48	0.04386738
8	0xbd013adb	-0.03155027
9	0xbd0655e5	-0.03279676
10	0xbc101b1d	-0.008795527
11	0xbcb40783	-0.021976238
12	0x3d4b24c2	0.0495956
13	0xbc8fe06f	-0.017563073
14	0x3d12b765	0.03581943
15	0xbd1a334b	-0.037646573
16	0x3cbaec58	0.022817776
17	0xbb95035d	-0.00454752
18	0x3c97a0fb	0.018509379
19	0xbcfd321c	-0.030907683
20	0xbce2e43b	-0.02769672
21	0xbc64a455	-0.013955195
22	0x3cec1a7c	0.028821222
23	0xbcc26f4d	-0.023734713

decoder.1.weight f4 [24]
0	0x3f7f121d	0.99637014
1	0x3f7689ce	0.96304023
2	0x3f6f4fab	0.9348094
3	0x3f8a9457	1.082652
4	0x3f7ae740	0.9800911
5	0x3f8a8259	1.0821029
6	0x3f76be4a	0.9638411
7	0x3f8fbaa7	1.1228837
8	0x3f413069	0.75464493
9	0x3f895b39	1.0730964
10	0x3f8a7e1d	1.0819737
11	0x3f7d18cc	0.9886596
12	0x3f6747f3	0.9034416
13	0x3f724826	0.9464134
14	0x3f73c8df	0.9522838
15	0x3f9f62c3	1.2452015
16	0x3f842fa0	1.0327034
17	0x3f667e38	0.90036345
18	0x3f7e7e4e	0.99411476
19	0x3f87d7e6	1.0612762
20	0x3f80e661	1.0070306
21	0x3f7c7019	0.9860855
22	0x3f62f6d3	0.88657874
23	0x3f858265	1.0430418

decoder.1.bias f4 [24]
0	0xbe091ca6	-0.13389835
1	0xbe7a612d	-0.24451132
2	0x3ce79038	0.028267011
3	0xbe17a7f0	-0.14810157
4	0x3d48ad17	0.048993196
5	0x3e0ded29	0.1386
6	0xbe3ee5bb	-0.18642323
7	0x3e390eae	0.18072006
8	0xbe983af5	-0.2973248
9	0x3df3883b	0.11891218
10	0xbe5020ff	-0.20325087
11	0x3e25124b	0.1612026
12	0xbe07593b	-0.13217632
13	0x3c756d3e	0.014979659
14	0x3cc49bbb	0.02400004
15	0x3e934d22	0.28769785
16	0x3e13eb9e	0.1444535
17	0xbe10d0d1	-0.14142157
18	0x3d805e36	0.06267969
19	0x3e04ec31	0.12980725
20	0x3e44672c	0.19179982
21	0x3cb7a033	0.022415256
22	0x3e00a23f	0.12561892
23	0x3da44b72	0.080222026

decoder.1.running_mean f4 [24]
0	0xbea2df93	-0.318112
1	0xbfb224d6	-1.3917491
2	0xbffd8b42	-1.9808123
3	0xbf279ab2	-0.6547042
4	0xc081c59d	-4.0553727
5	0xc009c0d1	-2.1523936
6	0xbf66fec8	-0.90232515
7	0xc0101abb	-2.2516315
8	0x3f2702d2	0.6523868
9	0xbf7d14cc	-0.9885986
10	0xbf87ba19	-1.0603667
11	0xbfce8754	-1.6135049
12	0xbfe4c77a	-1.7873375
13	0xbf35e3b2	-0.7105056
14	0xbfb126ff	-1.3840026
15	0xbfce3821	-1.6110879
16	0xbf9c6e85	-1.2221228
17	0xbf8a8922	-1.08231
18	0xbe191ba3	-0.14951949
19	0xbfbfa0a6	-1.4970901
20	0x3d9acc80	0.075585365
21	0xbdba9c75	-0.09111873
22	0xbc147184	-0.009060267
23	0xbf9c24b6	-1.2198703

decoder.1.running_var f4 [24]
0	0x40c93f5c	6.2889843
1	0x40b5cc40	5.681183
2	0x4139513b	11.582332
3	0x40d0df19	6.5272336
4	0x41963542	18.776005
5	0x410fffad	8.999921
6	0x40e436c8	7.131687
7	0x41685c3c	14.522518
8	0x4072f84c	3.7964048
9	0x418aaa09	17.333025
10	0x4108beb6	8.54656
11	0x413e6657	11.899985
12	0x414c2b0c	12.7605095
13	0x40e5618a	7.1681566
14	0x414b7239	12.715386
15	0x413cc584	11.798222
16	0x40eea5d9	7.457745
17	0x40694e81	3.6454165
18	0x41495578	12.583366
19	0x4103ba98	8.233055
20	0x410bd7d3	8.740191
21	0x40b9b0f7	5.802852
22	0x40aa2eaa	5.3181963
23	0x40e68e56	7.204875

decoder.3.weight f4 [24, 12, 4, 4]
0	0x3c21fd42	0.0098870415
1	0xbcd86853	-0.026416933
2	0xbdcad108	-0.09903151
3	0xbeb6b334	-0.35683596
4	0xbd3183ae	-0.04333847
5	0x3cc819f9	0.024426447
6	0xbed0c02a	-0.4077161
7	0xbe09aef7	-0.1344565
8	0xbbde552f	-0.006785057
9	0xbce0720f	-0.027398137
10	0xbd0b3a2b	-0.03399102
11	0x3d5d74d9	0.054066513
12	0xbc634f3b	-0.0138738705
13	0xbd207885	-0.039177436
14	0xbbeccdf9	-0.0072267023
15	0xbcafe8ba	-0.021473277
16	0x3b696d96	0.0035618297
17	0x3d2feefe	0.04295253
18	0xbdeef8d3	-0.11668553
19	0xba9c28ce	-0.0011914016
20	0xbcccba60	-0.024991214
21	0x3c6007f3	0.01367377
22	0xbc309818	-0.0107784495
23	0xbe4bcc45	-0.19902141
24	0xbd9d9709	-0.07694823
25	0x3d27fcc0	0.041012526
26	0x3dc1c60d	0.09461603
27	0x3da08fd5	0.07839934
28	0xbaa54f39	-0.0012612111
29	0xbd50fff1	-0.051025335
30	0xbd235e09	-0.0398846
31	0xbd8550ca	-0.0650955
32	0xbdec1ed6	-0.11529319
33	0x3d064b53	0.03278668
34	0xbb0c8f8b	-0.0021447863
35	0xbd2cdd25	-0.042203087
36	0xbc8b7e5c	-0.017028026
37	0xbdaa08eb	-0.08302482
38	0xbdcfa777	-0.10139363
39	0xbe3e5498	-0.18586957
40	0xbe363316	-0.17792925
41	0xbd898189	-0.0671416
42	0x3d64efd3	0.055892777
43	0x3d943920	0.07237458
44	0xbc5680f9	-0.013092273
45	0xbe86ab43	-0.26302537
46	0xbdd6d1dd	-0.10489247
47	0xbe65d1fd	-0.22443385
48	0x3d0a6072	0.033783384
49	0x3d0f8b9c	0.03504525
50	0xbd94dfb9	-0.07269234
51	0xbcafd5d0	-0.021464258
52	0x3c696ea7	0.014247573
53	0xbd3212dd	-0.04347502
54	0xbd64600b	-0.055755656
55	0x3cd4167e	0.025889631
56	0x3e11e8d7	0.14248978
57	0x3d747af0	0.059687555
58	0xbc16af24	-0.00919703
59	0x3c95d05d	0.018287832
60	0xbcb4603e	-0.022018548
61	0x3cad8039	0.021179305
62	0xbcaf7dc3	-0.021422273
63	0xbd04f45d	-0.032459605
64	0xbc3fb09c	-0.011699822
65	0x3d3a319b	0.045457464
66	0x3d57b627	0.05266395
67	0xbdca305c	-0.09872505
68	0xbdeff078	-0.11715788
69	0x3de29d3f	0.110651486
70	0x3ddc0f61	0.10745121
71	0xbd4856a6	-0.04891076
72	0x3c5c523d	0.0134473415
73	0xbc6e454d	-0.01454289
74	0x3de30010	0.11083996
75	0xbdfacdf7	-0.12246316
76	0xbe1c0f00	-0.15240097
77	0xbcc9b092	-0.024620328
78	0xbd01bc6c	-0.031673834
79	0xbcf707da	-0.030155111
80	0x3dd74eb3	0.105130576
81	0x3da8a60d	0.08234797
82	0x3e887dd0	0.26658487
83	0xbc4a8888	-0.012361653
84	0x3e522c92	0.20524815
85	0x3e75bebf	0.23998545
86	0x3f21eb52	0.63249695
87	0x3d81e8c8	0.063432276
88	0x3df56f25	0.1198409
89	0x3e436b30	0.19083858
90	0x3ec1e6dd	0.37871447
91	0xbc44a1ec	-0.012001496
92	0x3d48b9e5	0.049005408
93	0x3d9171c5	0.07101778
94	0x3dd99821	0.106247194
95	0x3ca288a0	0.019840539
96	0xbb4d1ff1	-0.0031299556
97	0xbecfcd91	-0.40586522
98	0xbe18b8fd	-0.14914317
99	0xbe98651b	-0.29764637
100	0xbd96178e	-0.073287115
101	0xbe483d4e	-0.19554636
102	0xbeccb1b1	-0.39979318
103	0x3c56b9da	0.013105834
104	0xbc9cf31b	-0.01915889
105	0xbe1f364c	-0.15548056
106	0xbe3f6432	-0.18690565
107	0xbdcd4fe3	-0.10025003
108	0xbd1e010b	-0.038575213
109	0xbe024f95	-0.1272567
110	0xbcf4c5de	-0.029879507
111	0xbc42116e	-0.011844976
112	0x3d2a98de	0.04164969
113	0xbde27532	-0.110575095
114	0x3de2ebc4	0.11080125
115	0xbd96a7e6	-0.07356243
116	0x3da20dd1	0.079127915
117	0x3e2167d0	0.15762258
118	0x3df42259	0.11920614
119	0x3e34b9ef	0.17649053
120	0x3d85b012	0.06527723
121	0x3cf60949	0.030033724
122	0x3e450186	0.19238862
123	0xbcb72ebd	-0.022361154
124	0xbd9f6b92	-0.07784189
125	0x3a915f0c	0.0011090948
126	0x3d22b302	0.039721496
127	0x3cc7066c	0.024295054
128	0x3acdfc5f	0.0015715471
129	0xbdd5b2df	-0.104345076
130	0xbe3992dd	-0.1812243
131	0xbcebcd52	-0.028784428
132	0xbe2091a6	-0.1568056
133	0xbe1af5cd	-0.15132828
134	0xbc1aeab0	-0.009455368
135	0xbb2b0097	-0.002609288
136	0xbd75d4b2	-0.060017295
137	0xbdc3ec17	-0.09566515
138	0x3d6ac7c2	0.05731941
139	0xbd38eb68	-0.045146376
140	0xbe218eee	-0.1577718
141	0x3c792d84	0.015208606
142	0x3d2fdd11	0.042935435
143	0x3bc79426	0.0060906587
144	0x3ccf759a	0.025324631
145	0x3cc3ea74	0.023915507
146	0xbd826e88	-0.063687384
147	0xbd4067d9	-0.046974037
148	0xbd2243a1	-0.039615277
149	0xbc8ea181	-0.017410995
150	0xbdfa27f3	-0.12214651
151	0xbd517ae1	-0.051142577
152	0x3d21f341	0.039538626
153	0xbd25dbf8	-0.04049298
154	0xbdf85933	-0.121263884
155	0xbd890e2c	-0.06692156
156	0x3c943299	0.018090533
157	0x3cb95446	0.022623193
158	0xbaf973ee	-0.0019031742
159	0x3ce591b9	0.028023588
160	0xbde1b52f	-0.11020886
161	0xbda70c3f	-0.08156633
162	0xbe27621c	-0.1634602
163	0xbdc7ce20	-0.09756112
164	0xbd7558e9	-0.059899244
165	0xbe2eeb43	-0.17081933
166	0xbda73c38	-0.08165783
167	0x3a91cfbe	0.0011124534
168	0xbd04796f	-0.03234237
169	0xbdfc5a68	-0.12321931
170	0xbdb97bed	-0.0905684
171	0xbdb7ba79	-0.08971114
172	0xbe759e9e	-0.23986289
173	0xbdbbd586	-0.09171586
174	0xbdab7771	-0.08372391
175	0xbb99156e	-0.004671744
176	0xbcdb0cf5	-0.026739577
177	0x3d007876	0.03136488
178	0xbd8192e4	-0.06326845
179	0x3d25a5c5	0.040441293
180	0x3ba43704	0.005011441
181	0x3e19f412	0.15034512
182	0xbe87362c	-0.26408517
183	0x3da2e649	0.0795408
184	0x3dabd2d4	0.08389822
185	0x3e4fc3c2	0.2028952
186	0xbc682521	-0.0141690085
187	0x3e28557d	0.16438861
188	0x3bfe8090	0.0077667907
189	0xbc8d5774	-0.017253615
190	0x3d9cc251	0.076542504
191	0xbd065141	-0.032792334
192	0x3ca067d5	0.019580761
193	0xba833a1d	-0.0010011826
194	0xbb8b4cdc	-0.0042511057
195	0x3ddbcb22	0.10732104
196	0x3cdfe029	0.027328568
197	0xbdb9c033	-0.09069862
198	0xbc518156	-0.012787184
199	0xbdbebf5a	-0.09313841
200	0x3c973654	0.018458523
201	0xbdc61668	-0.096722424
202	0x3e1be08e	0.1522238
203	0xbdfc5614	-0.123211056
204	0x3d56c642	0.052435167
205	0xbc842e41	-0.016135337
206	0x3c2a8bf7	0.010409347
207	0x3d65d7d4	0.056114033
208	0xbe1c8937	-0.15286718
209	0x3cab4670	0.02090761
210	0x3cc7973e	0.02436411
211	0xbc3c703a	-0.011501366
212	0x3d9f444d	0.07776699
213	0x3d8fcabd	0.07021091
214	0x3c27df2f	0.010246082
215	0x3d5136d4	0.05107768
216	0xbdefed91	-0.11715234
217	0x3da38df9	0.079860635
218	0xbe316400	-0.17323303
219	0x3cc79339	0.024362193
220	0xbcd51839	-0.026012527
221	0x3c59113d	0.013248739
222	0xbc245d73	-0.010032046
223	0xbc74c587	-0.014939672
224	0xba827956	-0.0009954374
225	0x3cab69d7	0.020924492
226	0x3dc78791	0.09742654
227	0x3b395264	0.0028277868
228	0xbd8a4214	-0.06750885
229	0x3df072f2	0.11740674
230	0xbc01d4a0	-0.007924229
231	0x3d6c4404	0.057682052
232	0x3ec7cfcf	0.39025733
233	0x3ec766fb	0.38945755
234	0x3eebf6d7	0.4608676
235	0xbc9c27be	-0.01906192
236	0x3d0e2776	0.0347056
237	0x3e107aaa	0.14109293
238	0xbccf8eec	-0.025336705
239	0x3d39d34e	0.04536753
240	0x3dc9a008	0.09844977
241	0x3ca36d1c	0.019949488
242	0x3dbf0759	0.09327573
243	0xbcfa5303	-0.030557161
244	0x3b7c8c2d	0.00385357
245	0xbdd4e678	-0.10395521
246	0xbcc53198	-0.0240715
247	0xbbb3dd70	-0.005489044
248	0xbe773705	-0.24142082
249	0xbd028034	-0.031860545
250	0xbe6b107d	-0.22955509
251	0xbd0f5c1c	-0.03499995
252	0x3d6e7af2	0.05822272
253	0x3ca7607f	0.020431755
254	0xba7db538	-0.0009678188
255	0x3ca4acfb	0.020102015

decoder.3.bias f4 [12]
0	0xbc5f7e2b	-0.013640921
1	0xbc95a1d2	-0.018265639
2	0x3d5968da	0.05307851
3	0xbcaa16ad	-0.020762766
4	0xbd1df302	-0.03856183
5	0xbcd74731	-0.026279064
6	0x3c8e3b00	0.017362118
7	0xbd0e8471	-0.034794275
8	0x3d90f117	0.07077234
9	0xbd92e1e9	-0.07171995
10	0x3c17b408	0.009259231
11	0xbd492de5	-0.049116034

decoder.4.weight f4 [12]
0	0x3f6f24f9	0.9341579
1	0x3f152311	0.5825663
2	0x3f7a41a6	0.9775642
3	0x3f7a4417	0.97760147
4	0x3f7645d9	0.9620033
5	0x3f97980b	1.1843275
6	0x3f715737	0.94273704
7	0x3f8445b5	1.0333773
8	0x3f6ea9b2	0.93227684
9	0x3f92c647	1.146676
10	0x3f83fde7	1.031186
11	0x3f809059	1.0044051

decoder.4.bias f4 [12]
0	0x3d986650	0.074413896
1	0xbdf376a6	-0.11887865
2	0xbe75af45	-0.23992641
3	0x3e89a8ff	0.26886746
4	0xbea501f0	-0.3222804
5	0xbe8b8064	-0.27246392
6	0xbcad854b	-0.021181723
7	0xbca0687a	-0.019581068
8	0xbd1004da	-0.035160877
9	0xbd819356	-0.0632693
10	0x3e4ccbd7	0.19999634
11	0xbddf9858	-0.10917729

decoder.4.running_mean f4 [12]
0	0xbf05d6be	-0.52280796
1	0xbee2c427	-0.44290277
2	0x3ea62376	0.3244893
3	0xbdad13a0	-0.08451009
4	0x3d70260c	0.058630034
5	0xbdfd1688	-0.12357813
6	0xbef4c03f	-0.47802922
7	0xbef671f1	-0.48133805
8	0xbecc1953	-0.3986307
9	0xbe44af48	-0.1920749
10	0xbbdfd4a6	-0.0068307696
11	0xbd64ec90	-0.055889666

decoder.4.running_var f4 [12]
0	0x3f97432c	1.1817374
1	0x3efcefee	0.49401802
2	0x3fa85142	1.3149798
3	0x3face059	1.3505965
4	0x3f90b09c	1.1303897
5	0x4005d522	2.0911336
6	0x3fd8be82	1.6933138
7	0x3ff27d0a	1.8944409
8	0x40159c5e	2.337669
9	0x3f9d7173	1.2300247
10	0x3fd559c0	1.6668015
11	0x3f9f86e3	1.2463039
