paper/notebooks/data_reconstruction/pre-trained/mnist/ae.pt (torch, 673949 bytes, 8 tensors)

encoder.1.weight f4 [100, 784]
000000 a1 ae df 3c 2c d6 f2 3c 37 15 09 bc 35 61 06 3d
       0.02730495 0.02964314 -0.008366874 0.032807548
000010 f7 34 00 bc 1c 27 ec 3b 9c 70 8e bc 77 d2 ab 3c
       -0.007825128 0.0072068106 -0.01738768 0.02097438
000020 07 f5 00 3d 7e a3 d6 bc 4e 4d fe 3c a5 07 db 3b
       0.031483676 -0.026201006 0.031042721 0.006684261
000030 85 27 d8 3c 13 7e 9e 3b 10 13 8d 3c dc 3b a5 bb
       0.026386032 0.0048368066 0.017221004 -0.005042536
000040 08 8a e1 3c 8a fa ac 3b 83 95 88 bc e5 26 15 3c
       0.027531639 0.00527889 -0.016672855 0.009103511
000050 63 cc 86 bc 25 3e 89 bb 21 a9 6d bc 5a 15 c2 3c
       -0.016454881 -0.0041883164 -0.0145056555 0.023691822
000060 7a f2 e6 bc e3 e0 86 bc c5 3a 25 bc 47 ea af bc
       -0.028191794 -0.016464656 -0.0100848125 -0.021474017
000070 13 e9 5c 3b bd 7b 10 bd aa 1c 04 3d b8 87 f8 bc
       0.003370826 -0.035274256 0.0322539 -0.030338153
000080 88 df e1 3c 0a c2 c2 3b b2 7b 2e bc b5 43 01 3d
       0.027572408 0.0059435414 -0.010649608 0.03155871
000090 44 ce 0e 3d 30 e0 7f 3d e1 87 41 3d f7 80 28 3d
       0.03486468 0.06246966 0.047248725 0.041138615
0000a0 54 17 01 3d b8 2a 3d 3b 66 74 67 bd 21 e3 16 bd
       0.031516388 0.0028864574 -0.05650749 -0.0368377
0000b0 04 7d 14 3c e9 99 35 3d bf b1 19 3d d1 98 26 bc
       0.009063009 0.044336233 0.037523028 -0.01016827
0000c0 90 62 17 3a 46 c1 c0 bc 9e 70 9f bc 7c 13 62 bc
       0.000577488 -0.02352966 -0.01946288 -0.013798591
0000d0 b3 68 e0 bc f5 10 f0 3c 1c 8a 28 3c c5 5f 72 3c
       -0.027393674 0.02930496 0.010286834 0.014793341
0000e0 d7 0e 39 3c b7 dd 22 ba 05 f8 e4 3c 41 e0 cf bc
       0.011295042 -0.00062128477 0.027950296 -0.025375487
0000f0 a4 26 95 3b a9 b8 b4 bc 78 de 3e bb 19 55 f0 bc
       0.0045517255 -0.02206071 -0.00291243 -0.029337453
000100 11 da d8 bb 9f c6 64 3c 73 7b 92 be 55 62 c9 be
       -0.0066177924 0.013963371 -0.2860981 -0.39332834
000110 d5 56 70 be 93 45 1f 3c c4 0f ef bc 72 e9 9d bd
       -0.23470624 0.009721178 -0.029182322 -0.07710542
000120 bf da 32 3d f0 eb 8f 3d 2d 70 3f 3d aa d6 29 3d
       0.043665644 0.070274234 0.04673784 0.041464485
000130 5d fb 3f 3d 95 d7 44 3d 42 a6 da 3c d3 83 81 3c
       0.046870578 0.048057158 0.026690606 0.015809929
000140 8f 8a 21 bd fe d7 6f bd 65 3b 9b 3c 73 84 6c bc
       -0.03943878 -0.058555596 0.01894922 -0.014435875
000150 8e 91 b1 3c d3 da 0a bc 47 f0 3e bd 89 cc 8e bd
       0.021675851 -0.008475023 -0.046615865 -0.06972606
000160 8f 23 52 3b d0 78 05 bd 34 94 82 bd ab 8b 4c bd
       0.0032064652 -0.03258592 -0.06375924 -0.049937885
000170 9b cb 1b bd cd 79 42 3d a9 0d 99 3d 1e 08 8a 3b
       -0.03803597 0.04747944 0.074733086 0.0042123934
000180 be 84 a1 3d 5d b7 7c be e4 f1 23 be 5a 7c ad be
       0.07886647 -0.24679323 -0.16010243 -0.33883935
000190 e3 02 c6 be 4b 0f 51 be d6 4f 87 be ea 49 b2 be
       -0.38674077 -0.2041599 -0.26428097 -0.34822017
0001a0 55 76 ea be a5 23 42 3d c9 d9 63 3d 75 50 a9 bd
       -0.45793405 0.047397275 0.055627618 -0.08267299
0001b0 81 b9 76 bd 3b 41 0f bd 7f 3a 12 3d a5 09 dd 3b
       -0.060235504 -0.034974318 0.035700317 0.0067455345
0001c0 45 51 34 3c 9c 28 21 bd 3d a4 ad bd 34 64 86 bd
       0.011005704 -0.03934537 -0.084785916 -0.06562081
0001d0 e4 a6 02 3d 71 86 a8 bd cc 60 ca bd a5 3e 7c 3d
       0.03189744 -0.08228768 -0.09881744 0.06158318
0001e0 ab 2f a3 bd b5 33 d0 bd 8a 26 2f 3b 02 36 85 3c
       -0.07968076 -0.10166112 0.0026725852 0.016261104
0001f0 05 05 6f bd a8 98 e1 3d 94 72 fa 3c 8f 0a ab 3d
       -0.058354396 0.11015445 0.030572213 0.08351623
000200 c5 a0 e2 39 93 b2 ab 3d 98 39 14 3d 58 e8 ed bd
       0.00043225862 0.0838367 0.03618774 -0.11616582
000210 3a 37 6a 3c fc 41 98 3d 44 60 35 bd 18 c2 8e 3d
       0.014295394 0.074344605 -0.04428126 0.06970614
000220 6b f0 3f 3e dc b0 a7 3d a3 0d e5 3c 05 70 05 3c
       0.18744056 0.0818803 0.027960604 0.008144383
000230 45 cf 63 3c 4a 1a f0 bc 0d f3 a0 3c d6 88 bf bc
       0.013904397 -0.02930941 0.019647146 -0.023380678
000240 19 f5 11 3d f2 8e 55 3e 9e 9b 8b bc ec df 00 3e
       0.035634134 0.2085531 -0.017041977 0.1258542
000250 97 7b 0e be 89 67 10 be 10 64 45 3d 50 e8 ad bc
       -0.13914333 -0.14101996 0.04819113 -0.02122894
000260 c4 9b 21 be cf 06 54 3d 22 e7 45 3d a8 46 e4 bc
       -0.15782076 0.051764306 0.04831613 -0.027865723
000270 23 73 49 bc d3 28 f1 3b 71 10 56 bd 24 0f 8d bb
       -0.012295517 0.007359603 -0.052261773 -0.0043047834
000280 28 fd 49 3d 7a 58 d9 3d 26 59 1b bd 31 99 96 bc
       0.049313694 0.10612579 -0.037926815 -0.018383594
000290 19 0a e0 bc ed 6c f0 bb 1a 1d 3a be b6 25 70 3d
       -0.027348565 -0.0073372037 -0.18175164 0.058629714
0002a0 f7 74 02 3c 75 df a1 bc 76 80 fb 3c b6 9d 7b 3d
       0.007962457 -0.019759873 0.030700903 0.0614297
0002b0 92 5e 01 3e 8d 45 01 be cf f2 1d be dc 68 49 be
       0.12633732 -0.12624188 -0.15424655 -0.19668907
0002c0 cc ce 75 bd e2 48 fe bd 69 b1 aa bc 5a ab a2 bd
       -0.06001167 -0.12416245 -0.020836549 -0.07942839
0002d0 20 26 04 be 34 36 24 be 96 68 26 bd 6c 21 39 be
       -0.12905169 -0.16036302 -0.040627085 -0.18079156
0002e0 bd 60 05 be be 97 f4 bd 6e 9a f0 bc 60 67 d2 bc
       -0.13025184 -0.11943005 -0.029370513 -0.025684059
0002f0 c1 97 8c 3c 60 66 35 bd 1d 7d 0a 3e 64 e8 c0 3d
       0.017162206 -0.044287086 0.1352429 0.09419325
000300 e3 6c f3 3b ab 51 23 3c bc 10 e2 3c 8c 88 f0 bb
       0.007428752 0.009968202 0.02759587 -0.0073404964
000310 00 9e 08 3a 65 af e4 bb 9c c3 30 3d 60 47 d8 3d
       0.0005211532 -0.0069789165 0.043155298 0.10560489
000320 b6 11 9c 3d d5 ca 24 bd 4e 70 2d be 6e e6 c9 bd
       0.076205656 -0.0402325 -0.16937372 -0.09858404
000330 a3 cd b1 3d e0 8f 97 bd dd b4 01 3d 6d da 86 bd
       0.086818 -0.07400489 0.031666625 -0.0658463
000340 06 c2 9a bd 3f 02 c0 bd 78 41 57 3c fd 53 33 be
       -0.07556538 -0.093754284 0.013138168 -0.17512508
000350 76 0b b2 bd 23 df a6 bc a5 e0 64 bd cb 18 8c bd
       -0.08693592 -0.020370072 -0.0558783 -0.068406664
000360 c1 71 c4 bb a6 3d 6b bd 9c 21 77 bd 23 7d c3 b9
       -0.005995006 -0.05743184 -0.060334787 -0.00037286532
000370 dc 5e 0d 3d dd be 1e bc 0c 42 82 3d 94 ee d3 bc
       0.034514293 -0.00968906 0.06360254 -0.025870599
000380 92 86 11 bd 3d 23 3d 3c b2 24 92 3d 66 76 0e 3e
       -0.035528727 0.011544046 0.07135905 0.13912353
000390 73 5b 65 3d 70 b0 1a be c9 0d 62 be 48 de 47 bc
       0.055995416 -0.15106368 -0.22075571 -0.012198992
0003a0 67 29 f0 3c dd fc 8b bc 53 1a 3b 3d 7e d6 94 3c
       0.029316617 -0.017088348 0.0456794 0.018168684
0003b0 85 f1 40 bd 64 5c 2e bd 99 0e 52 bc c3 55 80 bd
       -0.04710533 -0.04256858 -0.012820863 -0.06266358
0003c0 cc 08 bf bb bf 52 61 3d 98 71 20 bd 73 6c 9a bd
       -0.005829906 0.055010553 -0.03917083 -0.07540216
0003d0 cb 20 9c bd 73 6b 94 bd 26 ae 36 bc 25 80 3d be
       -0.07623442 -0.07247057 -0.011149919 -0.18505915
0003e0 7b 72 aa bd 26 5f ba 3d 0d 17 13 bd 3c 04 06 3b
       -0.08322617 0.091001794 -0.035910655 0.0020449301
0003f0 e5 7b ce bb 29 6d 0d bd aa f4 45 3c 41 78 2b 3e
       -0.0063013905 -0.03452793 0.012082258 0.16745092

encoder.1.bias f4 [100]
000000 4e 82 8e 3f 7d fa 1b 3f b4 f4 14 3f cf 50 cd 3e
       1.1133516 0.6092909 0.5818589 0.40100715
000010 f2 d1 0b bf 15 28 75 3f e7 47 63 be 29 af 3e 3c
       -0.54617226 0.95764285 -0.22195397 0.011638441
000020 ce 24 2f be ae 5b ce bc 9e 71 19 bd 9b 6b 36 bf
       -0.17103884 -0.0251902 -0.03746187 -0.7125794
000030 11 99 50 3f 53 e9 23 3c 22 03 15 bd 92 b8 a1 3c
       0.8148356 0.010004359 -0.03637994 0.01974133
000040 a7 25 cb b9 05 a0 6f be 5f 37 43 3f 81 4a 35 3f
       -0.0003874723 -0.23400886 0.76256365 0.7081681
000050 8f 35 b2 3e 08 5d 74 3f 38 62 af 3e 9a da 6b be
       0.34806487 0.95454454 0.34254622 -0.23032609
000060 5e 0a 65 be 44 b7 d6 be ec ec 51 3f ad 0e 9f be
       -0.22367236 -0.41936696 0.8200214 -0.31065884
000070 80 9a 98 3c c1 85 06 bf a4 b9 f9 be 69 68 73 3f
       0.018628359 -0.5254784 -0.48774445 0.9508119
000080 bc 0c ae be 20 ba b7 be b5 50 e1 3e 11 2d 28 bd
       -0.3399409 -0.3588419 0.44006887 -0.041058604
000090 a6 3e 23 bd ba 2d 9b 3f 48 e0 bb bc 35 bf da 3e
       -0.039854668 1.212333 -0.022934094 0.42724004
0000a0 b1 9b f5 3e 4a a0 a5 3f aa e4 d2 be 45 a9 9d 3e
       0.47970346 1.2939541 -0.41190082 0.30793205
0000b0 1f 58 8c be 01 f5 f7 3d 63 49 89 3f e5 b9 99 bc
       -0.2741098 0.12107278 1.0725521 -0.0187654
0000c0 5d e5 24 3b 71 21 62 3f 4a 1d 95 3d b7 3c 30 bf
       0.0025161125 0.8833228 0.07280977 -0.68842643
0000d0 7b e0 a9 bc 85 7b e6 3e 81 b4 09 bd 98 a8 bd 3f
       -0.020736923 0.45016113 -0.033619408 1.4817076
0000e0 b7 57 2d 3d 80 f5 96 bc 6e 3f 1f 3f 89 46 81 3c
       0.04231998 -0.01842761 0.6220616 0.015780704
0000f0 b6 0e 10 bd f0 cb 85 3d 00 e6 4f be 85 2a 72 be
       -0.03517028 0.065330386 -0.20302582 -0.23649032
000100 aa c5 dd 3e 40 b7 76 be d9 4e 04 bd c3 c0 dd bc
       0.43314868 -0.24093342 -0.032301757 -0.027069455
000110 00 b7 2c bf 6b 50 c0 bc 59 4b 8a 3f 35 7b 92 3f
       -0.67466736 -0.023475846 1.0804244 1.144385
000120 9b 9e 94 3f 7a 4b e0 be dd 83 af 3e 15 e5 be 3e
       1.1610903 -0.43807584 0.3428029 0.3728415
000130 14 e3 2b 3c 0d 91 93 3f 58 a4 7a bc 18 61 81 3f
       0.010491151 1.1528641 -0.015297972 1.0107756
000140 75 cd fd 3e 28 8b 8f 3f 3d 3c 90 3e 27 5d 24 bd
       0.49570814 1.1214342 0.28170958 -0.0401279
000150 2b 6a 92 be 48 ca d0 bc 90 2e a4 3d d1 52 bd bc
       -0.28596625 -0.02548708 0.080166936 -0.023110779
000160 62 fc 56 3f 8b a9 a9 3d 0a 44 12 bd 43 5b 5c bc
       0.83978856 0.08284291 -0.03570942 -0.013449493
000170 fc e6 22 bd b2 fa 87 bc 76 af 49 be 22 43 a7 3e
       -0.039771065 -0.016599033 -0.1969584 0.32668406
000180 fa 8f 98 3c da 0d e3 3e 78 e6 cf 3c 10 b9 2f 3f
       0.01862334 0.44346505 0.02537845 0.6864176

encoder.3.weight f4 [50, 100]
000000 92 96 6b 3d 84 cf 1a be e9 30 87 3e e4 e9 1b 3e
       0.057516642 -0.15118223 0.26404503 0.15225941
000010 54 2b 2b be ee a9 3f 3d a2 fd 3b 3d 01 8c 5b 39
       -0.16715747 0.046792917 0.04589618 0.00020937623
000020 a8 c4 52 bd 53 ce 53 3d dc 00 a8 3c c4 d4 fb bd
       -0.051457077 0.051710438 0.020508222 -0.12296441
000030 52 1f 45 be c4 5a 69 3d 15 a7 a9 3d 5e e9 d9 bb
       -0.19250229 0.056971326 0.082838215 -0.006650134
000040 c0 05 a8 3d 10 19 79 bc 8b d2 bf bd 8f 7c 4c be
       0.08204222 -0.015203729 -0.0936633 -0.1996939
000050 b1 e5 2e 3e 69 54 5a 3e 2f 91 da bd 19 16 eb bd
       0.17079808 0.21321262 -0.10672223 -0.11478824
000060 96 cb 8e 3c d2 10 9c bd 0c 8e fa 3d e7 34 41 3d
       0.017431062 -0.07620396 0.122341245 0.047169592
000070 f7 2f 6c 3c 80 1a c2 3d a1 8f 8e bd 2d c1 a0 be
       0.014415733 0.09477711 -0.06960989 -0.3139738
000080 4d 77 19 bc 06 9b 6c bd f3 ae 97 bd b5 5f ba 3d
       -0.009366822 -0.05776503 -0.07406416 0.09100286
000090 b3 b6 73 3d 17 4a 47 be ba 44 26 3c 46 2a 09 3e
       0.059500407 -0.19461857 0.010148222 0.13395032
0000a0 2c 13 58 3e 84 f5 eb be 05 d9 8f 3e c4 04 34 3e
       0.21101063 -0.4608575 0.2809526 0.17579943
0000b0 67 72 60 3e aa 39 9d 3d eb 28 a3 3e 4a 98 fa bc
       0.21918641 0.07677014 0.31867155 -0.030590195
0000c0 d2 9e 1f bc f3 5f 39 bd 36 ed 18 bd 83 6a b2 be
       -0.009742456 -0.04525752 -0.037335597 -0.34846887
0000d0 d9 ab ad bd cc 6e 7f bd 9c d6 c7 bc c7 e2 1f 3e
       -0.08480043 -0.062361524 -0.024394326 0.15613852
0000e0 11 c3 c3 3d 03 a4 ae bd ee 41 da bc c9 bb 25 3d
       0.0955869 -0.085273765 -0.026642766 0.04046229
0000f0 42 98 e9 39 6e 4c 9a 3c 30 1c 04 be a5 90 db bd
       0.00044554664 0.018835273 -0.12901378 -0.10720948
000100 6b 70 6a 3e 74 df 4c 3c d7 d4 7e 3d 2c 8d b4 3c
       0.22894447 0.012504447 0.0622147 0.022039972
000110 2a 95 04 be 21 4a d5 bd a7 b1 19 be 0f f0 58 be
       -0.12947527 -0.104145296 -0.15009175 -0.21185325
000120 9f f0 aa 3d 12 11 b6 3d 97 5a 38 be 05 0e 97 3d
       0.08346676 0.08889975 -0.18003307 0.07375721
000130 84 7e 49 3d ef ad b8 bd c4 5a b0 bc 92 00 0c 3c
       0.04919292 -0.0901755 -0.021527655 0.008545058
000140 8c 50 87 bc 98 dc ac 3d d5 d7 de 3d f1 9f 07 be
       -0.0165179 0.084405124 0.108810104 -0.13244607
000150 ef 04 da 3d 4e 4f 3f bd 70 cb 7d be d4 34 98 bd
       0.10645472 -0.04670649 -0.24784636 -0.07431951
000160 c9 26 78 3d b5 5f b1 3e 2d 16 9d bd 3b 34 8a 3d
       0.060583863 0.3464333 -0.07670245 0.067482434
000170 bd 23 b2 bd c6 dd de bc f9 1d 80 be f4 7a 22 bd
       -0.08698223 -0.02720536 -0.25022867 -0.03966804
000180 99 79 28 3c 57 8b 22 3e b8 0d 14 3d 76 27 8c be
       0.010282897 0.15873466 0.036145896 -0.27373856
000190 0c 06 85 be b9 67 24 be e0 2d 69 bc 4e 03 17 be
       -0.25981176 -0.16055192 -0.014232129 -0.14747354
0001a0 8f 13 8d be 03 e2 4f 3d 59 63 c7 bd 9f ce ac 3d
       -0.27553985 0.05075265 -0.09735746 0.08437847
0001b0 86 54 fd 3c c2 d6 34 bd b6 c4 b2 3d d2 05 3f 3e
       0.030924093 -0.04415012 0.08728926 0.18654564
0001c0 29 c3 15 3e 54 ed 7a bd 5b 30 00 be 9b 41 e4 3c
       0.14625229 -0.06126149 -0.12518446 0.027863314
0001d0 04 dc 8a bd 3c 60 b2 3b 20 80 48 3e 4d 7f 35 be
       -0.06780246 0.005443601 0.19580126 -0.17724343
0001e0 23 60 83 3d b5 8f ab be 97 bb 15 be c7 9e 21 3d
       0.06414821 -0.33508077 -0.14622341 0.039458062
0001f0 a5 9b 11 3e 7a 60 10 be 6d 01 e6 3c 6b b8 0a 3d
       0.1421953 -0.14099303 0.028076852 0.03386728
000200 4b c6 3f bd fe c7 a4 bc 28 0a 8c be 6b b7 d5 3d
       -0.046819966 -0.020114895 -0.273515 0.10435375
000210 6e 01 0d bd 44 c7 90 3d 08 5a 06 3d ef 11 86 3c
       -0.03442519 0.07069257 0.032800704 0.016365973
000220 6c 91 86 bd 98 38 9e 3d 41 08 59 3d ba 63 56 3e
       -0.06570706 0.07725638 0.052986387 0.2093648
000230 de de 3e 3d 54 b4 c2 bb 13 35 29 3d 64 35 6c be
       0.04659926 -0.005941907 0.04131038 -0.23067242
000240 c6 02 b7 bb 3b 7f 7f 3d d8 d4 b0 3b b2 06 27 bc
       -0.0055850474 0.062377196 0.0053964667 -0.010194467
000250 ca b8 86 bd f9 81 1c 3e ce 51 6d 3e e5 8a f2 bd
       -0.065782145 0.15283956 0.23175737 -0.11842898
000260 f5 53 2b 3d 78 bd 42 3e 55 74 84 bd d4 a6 73 be
       0.041828115 0.19017589 -0.06467501 -0.23794109
000270 3d 96 e3 bd ae 40 a3 bc cd 32 bf 3d c4 2e 7a bd
       -0.1111264 -0.019928303 0.09335861 -0.061079755
000280 a1 88 81 bd 02 9a 21 be fd 2d 11 bd c7 36 3f 3d
       -0.06324888 -0.15781406 -0.03544425 0.0466831
000290 54 fc 55 be 55 52 fe 3d a8 13 9b 3c 02 1f 2a ba
       -0.20897037 0.12418047 0.018930271 -0.0006489606
0002a0 ae 7e 17 3e 02 3e 03 bd 60 f6 9d 3c cd 19 fd 3d
       0.14794418 -0.032041557 0.01928252 0.12358437
0002b0 b4 e8 81 3c ec a0 26 bd 9b 51 56 3d 17 e4 dd 3d
       0.015858032 -0.04068081 0.05232392 0.1083452
0002c0 d2 45 53 3c c1 95 e3 3d 43 03 a9 bd 8b ef 18 3d
       0.012895064 0.11112548 -0.08252575 0.03733782
0002d0 72 0f 2f bd 9c 90 73 be a9 3e 93 bd 9a 46 99 3e
       -0.04273934 -0.23785633 -0.07189686 0.29936677
0002e0 80 28 d9 bd 8c 2f 7d bd 6f fa 9a bc 43 e8 87 3d
       -0.10603428 -0.061812922 -0.018918244 0.06636097
0002f0 7e 8b 8c 3c 5c c3 68 3e 22 93 05 3d 2d a4 83 3c
       0.017156359 0.22730774 0.03261102 0.016069496
000300 64 00 34 bd 85 64 c0 bd 54 c0 29 3e 70 6a 4f 3c
       -0.043945685 -0.093941726 0.16577274 0.012659654
000310 c7 95 bc bd 33 35 a1 3d a7 8f 8a bd 14 1f 35 be
       -0.09208255 0.07871475 -0.06765681 -0.17687637
000320 3b ea 62 3e 1f 39 30 3d aa 34 2f 3e 1e 2a f9 3c
       0.22159664 0.043023225 0.17109933 0.03041559
000330 be 4c e1 3d 7a 34 f9 3d b2 4d d4 bd f3 4d e4 bc
       0.110009655 0.12168212 -0.10366382 -0.0278692
000340 c6 24 12 be 7e 70 7f 3d 1a 87 8e bd 10 8f ab 3c
       -0.1427184 0.06236314 -0.06959362 0.020942241
000350 f9 fc ad 3c af 0c a8 3d 23 eb 0f bd 9d 3e a2 bd
       0.02123879 0.08205544 -0.035136353 -0.07922099
000360 2e 7a da bd b8 0a 5e bb d7 d9 b8 bd ae 88 49 bd
       -0.10667835 -0.00338809 -0.09025925 -0.049202614
000370 ad c0 49 3e 4f a3 49 3a 3d d6 4b bd b8 b4 08 be
       0.19702406 0.00076918764 -0.04976486 -0.13350189
000380 67 da 31 be 73 3c ac bd cb 07 7f 3d c6 35 77 be
       -0.1736847 -0.08409967 0.06226329 -0.24141607
000390 76 fc 60 3c f8 63 02 be c3 3d be bd 21 5f 08 3e
       0.013732066 -0.12733448 -0.09289124 0.13317539
0003a0 7e 6f fd bd 94 8b 15 be 47 22 6d 3d 52 57 42 bd
       -0.12374781 -0.14604026 0.057894018 -0.047446556
0003b0 11 f7 2a 3c 92 65 b3 3c 5e 84 97 3d 40 7b d8 3d
       0.010434882 0.021899018 0.07398294 0.10570383
0003c0 10 66 23 3d 71 10 f5 bd 2c 51 19 be 0d de bd 3d
       0.039892256 -0.119660266 -0.14972371 0.092708685
0003d0 96 1a 0d 3d 69 70 d1 3d 7e ef e1 bd b0 94 15 ba
       0.034449182 0.10226519 -0.11032008 -0.0005706055
0003e0 a9 7c 3b 3d c6 3c 8d 3c 5b 2e 1b 3e 21 6f 10 be
       0.045773182 0.017240893 0.15154402 -0.14104892
0003f0 d3 ce 85 3d f9 1a 6b 3e c9 19 49 3d ee 44 16 3e
       0.06533589 0.22959508 0.049096856 0.14674732

encoder.3.bias f4 [50]
000000 dc ef 8e 3e f7 94 f8 bd a0 18 87 3f 8f 5a 07 bf
       0.27917373 -0.12137788 1.055439 -0.52872556
000010 a3 df 3b 3f 3b 8a 74 3f 78 48 cc 3e 13 96 13 be
       0.7338812 0.9552342 0.3989904 -0.14412718
000020 e9 91 91 3e ca 98 f4 3d ed a2 04 3f 56 cb 1b 3f
       0.28431633 0.11943205 0.51811105 0.6085714
000030 e4 03 33 bf a0 6c 94 be 18 99 bc 3d 6b ce 17 3e
       -0.6992781 -0.28989124 0.09208888 0.14824836
000040 e4 58 c0 3e b3 47 09 bf 18 af 2a 3f 05 1a 6d bf
       0.37567818 -0.5362503 0.6667342 -0.9261783
000050 f0 d0 e6 3e 83 a8 2d 3e 8d da 45 3e bb 2f ae bd
       0.45081282 0.16958813 0.19321652 -0.085051976
000060 ad e7 87 3d 47 21 15 3e 79 cb a2 3d 06 45 b9 bd
       0.066359855 0.14563476 0.079489656 -0.09046368
000070 e7 4b 61 bf 75 6e d8 be 59 ce 55 be fe 99 45 3f
       -0.8800644 -0.42271772 -0.20879497 0.771881
000080 64 d3 7f bd 7b bd 40 be 33 c4 38 bf 24 41 1e bf
       -0.062457457 -0.18822281 -0.72174376 -0.61818147
000090 12 29 30 bf 35 4b 2e bd 9c 26 97 be 86 80 bd 3e
       -0.6881267 -0.04255219 -0.29521644 0.37012118
0000a0 d4 a5 78 be cf 3b 40 3c 0a 76 17 3e 5f 49 bd 3e
       -0.24282008 0.0117330095 0.14791122 0.3697004
0000b0 02 42 79 be 65 d4 8d 3e b8 ba a5 be 6a ab 69 bf
       -0.24341586 0.27701107 -0.32369018 -0.9127718
0000c0 86 85 a2 be 7d f1 c9 be
       -0.31742495 -0.39442053

decoder.0.weight f4 [100, 50]
000000 8d b8 5a 3c c3 11 ec 3d f8 2c 38 bd e6 5c a8 3d
       0.013349664 0.11526825 -0.04496476 0.08220844
000010 fa 7a 1b be 71 01 0f 3f b4 43 42 be 1a 28 09 be
       -0.1518363 0.55861574 -0.18971139 -0.13394204
000020 6c 18 ef 3d 0b ad 75 be 3b 88 e6 3d 31 9c dc bd
       0.1167458 -0.23991792 0.11256453 -0.10771979
000030 cb d7 e8 3d e0 53 94 be 32 c0 bc bd 54 7f 94 be
       0.11369284 -0.28970242 -0.09216346 -0.29003394
000040 99 5b 01 be b1 b4 e3 be f3 e4 5b 3d 52 b5 ae be
       -0.12632598 -0.44473794 0.05368514 -0.3412271
000050 39 c8 8a 3e 69 02 83 3e 24 b0 76 3d 37 3a e6 be
       0.27105883 0.25587776 0.060226575 -0.4496629
000060 1f f1 a6 3e 3f 60 06 3e 63 79 76 3d aa dd 50 be
       0.32605836 0.13122652 0.060174357 -0.20397058
000070 40 3d 8a 3e b4 36 46 3d 4a bd 8e 3e d8 f3 7b bd
       0.26999855 0.048392013 0.2787879 -0.061511844
000080 75 88 17 be cb a8 c7 bd ad 6b a4 3e e4 45 be 3d
       -0.14798148 -0.097489916 0.321134 0.09290674
000090 6f c9 65 be d8 a6 ad 3e c2 53 bd 3e 81 d6 25 3d
       -0.22440122 0.33916354 0.36977965 0.04048777
0000a0 96 1d 73 3e da 06 07 be 94 6b 68 3d 4d f5 e3 bd
       0.23741755 -0.13186207 0.05674322 -0.11130772
0000b0 0e b4 28 3c ba f1 7f 3e 12 82 44 3e 86 6d 3e be
       0.010296835 0.24994555 0.19190243 -0.18596467
0000c0 79 93 2d 3e ac 70 7b 3e 97 d0 d6 bc 87 14 5b be
       0.16950788 0.245547 -0.02622251 -0.2139455
0000d0 56 4b 16 bf 3b 0f 77 be 74 55 2b 3e c6 2f 0f bc
       -0.58708704 -0.24126904 0.16731817 -0.008739417
0000e0 8d 04 b5 3e c8 37 99 3e e8 16 f7 3b ac ac 9d 3e
       0.35355034 0.2992537 0.0075405724 0.307958
0000f0 3e 86 33 3e 1f d8 82 3b 4a cf 39 be 1b fd 07 be
       0.17531678 0.003993049 -0.18145481 -0.13280146
000100 a2 ee 9f be f5 0d 7d 3e 36 07 6b bb d1 c0 36 be
       -0.3123675 0.24712355 -0.0035862452 -0.17846991
000110 f1 8d 2e 3e 75 7e 5c be ca 63 d3 3e a1 f8 25 bd
       0.17046334 -0.21532615 0.4128707 -0.040520314
000120 6a 41 62 3e 8c 38 81 be 2c f9 ff bb 12 5b 8a 3e
       0.22095266 -0.25238454 -0.007811686 0.27022606
000130 f3 e8 b6 bc c4 a9 5b 3e 33 2c 75 3d 04 9b 49 be
       -0.022327876 0.21451479 0.059856605 -0.1968804
000140 41 84 a3 3e 4c 9b 17 be 5f af ae be 4f d0 16 bd
       0.3193684 -0.14805335 -0.34118173 -0.036819752
000150 32 bf a0 be 8c f8 b4 3d 7c dc eb bd 32 b2 06 3e
       -0.3139587 0.08836469 -0.115166634 0.13153914
000160 fb 75 ac 3c 8c d1 93 be f8 8b 08 3f 22 77 69 be
       0.021052351 -0.2887081 0.53338575 -0.22799352
000170 37 12 88 bd b2 2a 0a 3f c3 f9 d9 3e f6 65 85 be
       -0.06644099 0.539714 0.42573366 -0.26054353
000180 d3 35 89 3c 0b 75 19 bd 32 f0 de 3d f8 9d 89 be
       0.016749298 -0.037465136 0.10885657 -0.26878333
000190 43 a9 5b be ce a9 83 bd db 89 03 be 63 43 f7 3d
       -0.21451287 -0.06428872 -0.12845556 0.120734
0001a0 1a 2b 86 3e c1 19 2e 3e 05 a6 f6 bd e9 69 f5 3d
       0.2620476 0.17002012 -0.120433845 0.119830914
0001b0 f5 4f 82 3e 0b e0 9d 3e 07 b2 9e 3e 89 97 32 3e
       0.25451627 0.30834994 0.309952 0.17440619
0001c0 92 5d 03 bc cc 38 a4 3e 8c e6 c5 bd d8 48 14 3e
       -0.008017914 0.32074583 -0.09663114 0.14480913
0001d0 ef 2b d5 3d 49 88 dc bd e4 c3 9d 3d 15 05 36 3e
       0.1040877 -0.10768182 0.07703379 0.17775376
0001e0 73 3c 0b bd 6e 7f 1f be a4 7c f0 bd 4d 87 43 3d
       -0.033993196 -0.15575954 -0.11742523 0.047736455
0001f0 f3 22 8b bd 0e a8 fa bd 06 eb 74 ba 6a 3b 64 3b
       -0.067937754 -0.12239085 -0.00093428825 0.0034825453
000200 d0 6d 88 3e 38 a3 0c be de e4 49 bd a7 6c 75 be
       0.2664628 -0.13734138 -0.04929053 -0.23967229
000210 58 98 ef 3d c9 5a 50 be be c8 ac bc 8a 09 02 3e
       0.11698979 -0.20347132 -0.021091815 0.12698951
000220 b1 25 16 be 0c cc b9 3d 32 85 ee 3c fd e1 8c 3d
       -0.14662816 0.09072122 0.029116247 0.06879041
000230 f6 80 97 bd 46 39 e3 3d 46 52 01 3e cc da da bd
       -0.07397644 0.110949084 0.12629041 -0.106862634
000240 cb 90 32 3e eb b6 eb bc 70 2e 94 be d7 55 a4 be
       0.17438047 -0.028773746 -0.2894168 -0.3209674
000250 83 92 b3 ba 70 67 be bd a0 c8 3b 3e 70 99 cf 3e
       -0.001370028 -0.09297073 0.18338251 0.4054675
000260 5f b7 f1 3e 42 4d 5c 3d 40 fc 16 3e 68 29 d0 3c
       0.47210214 0.053784616 0.14744663 0.025410369
000270 05 d7 30 bd 77 7b 68 3d 48 2c 10 bd 20 95 a6 bd
       -0.04317381 0.05675837 -0.03519848 -0.08133912
000280 d5 d6 d5 3c fb 7b 47 3e ae 80 45 be 18 32 72 3e
       0.026103416 0.19480889 -0.19287369 0.23651922
000290 d3 c0 f2 3b b4 24 87 3d f4 0d 3a be e8 02 3b be
       0.0074082403 0.065987974 -0.18169385 -0.18262827
0002a0 f4 49 be 3e 7e 6e fa bd 1d 56 ba be f8 9f 24 3e
       0.37165797 -0.12228106 -0.36393824 0.16076648
0002b0 ed a6 c1 3d 19 45 e8 3d 25 14 be 3b 14 27 5f 3e
       0.09455667 0.11341304 0.0058007413 0.21792251
0002c0 fa 16 b7 bd 73 a6 5f 3e 14 79 47 bd 9f 0a 30 be
       -0.08939929 0.21840839 -0.048699453 -0.17191552
0002d0 8a 5b 45 3d 4c a5 c0 3c a7 6a 8a bd 28 9b 04 3e
       0.048183 0.02351632 -0.067586236 0.12949812
0002e0 d6 27 a8 3e 12 04 bf 3d ae 28 db bd 28 2c 7a be
       0.32842892 0.09326948 -0.107011184 -0.24430907
0002f0 95 25 a4 3d d0 62 eb 3d 79 27 36 be 5d ae a8 3e
       0.08014981 0.11493456 -0.17788495 0.3294553
000300 b7 41 19 bd b1 5c 1d be d3 15 10 3e b4 4f 60 3e
       -0.037416186 -0.1536739 0.14070825 0.21905404
000310 2f a4 76 3c 57 9d 12 3e 36 e1 ac 3e 80 b8 3e 3e
       0.015053793 0.14317833 0.33765572 0.18625069
000320 b7 f6 8f be 93 3d c5 3e f8 f1 16 be f8 1a bb 3d
       -0.28117916 0.3852354 -0.14740741 0.09136003
000330 ae 82 dc bd 57 a0 00 be 6f 9b a8 3e fe 29 8e be
       -0.10767113 -0.12561165 0.32931086 -0.27766412
000340 90 4b 3f bd 14 9a a2 bd 91 d9 f0 3d 91 5f e8 bc
       -0.04670292 -0.07939544 0.117602475 -0.028365882
000350 f2 4f 37 be 2e dc 94 3d 23 a9 a9 b9 03 7d 4e 3d
       -0.1790159 0.072685584 -0.0003236021 0.05041219
000360 f5 b9 2b bd 61 59 8c 3d a9 2b 6f 3c 22 2c 33 3e
       -0.04192539 0.06852985 0.014597812 0.17497304
000370 78 4b d2 3d bb f6 58 3e bb 33 15 3e df f3 67 bc
       0.10268301 0.2118787 0.14570515 -0.0141572645
000380 31 c8 74 3d 46 aa 94 3e dd 96 88 3d 8b 17 24 be
       0.05976123 0.29036158 0.066694 -0.16024606
000390 a5 0e 00 3e 67 4d 49 3d 26 e0 0d 3e 3b 48 88 3d
       0.12505586 0.049146082 0.13855037 0.06654402
0003a0 51 a6 8a be 79 59 0c 3d 5b fe 2c 3e 47 30 51 bd
       -0.27080014 0.034265015 0.16893904 -0.05107143
0003b0 d0 75 5a bd 1e 34 e2 bd 76 7c 92 be 94 d5 01 bd
       -0.05333501 -0.11045097 -0.2861058 -0.031697825
0003c0 2d 2d 71 3d f7 5a 90 bd 87 c5 f1 bd aa 8a c4 3d
       0.058880974 -0.070486 -0.118052535 0.095967606
0003d0 cc e0 a8 be 13 3f 0d bd 8f 5b f9 3d 85 a6 f8 3d
       -0.32984006 -0.03448398 0.121756665 0.12141136
0003e0 bc d4 a1 bc ea 48 5d 3e 58 8d 4b be 31 94 92 3e
       -0.01975476 0.21609846 -0.19878137 0.28628686
0003f0 56 85 59 3e c7 de 2a 3e c1 36 ab 3d ae 57 f6 3e
       0.2124227 0.16686545 0.08360053 0.4811377

decoder.0.bias f4 [100]
000000 0c f1 86 3e 51 13 c9 3e 6b 37 3e be eb ff 15 bd
       0.2635578 0.3927255 -0.18575828 -0.036621016
000010 6f 2e 4e 3e c5 10 e3 3e ff 59 9b 3d 85 66 44 3f
       0.201349 0.44348732 0.07585525 0.7671893
000020 e9 98 2d 3e 62 23 8c 3e eb 1e 34 3e de 6a 59 bf
       0.16952862 0.27370745 0.1758992 -0.8492869
000030 88 c4 3d 3e 47 1e 83 3d 87 2d c9 3e e9 ab bf bd
       0.18532002 0.06402259 0.39292547 -0.09358961
000040 f2 a0 4d be 84 8c eb 3d 62 c2 e9 3d b5 7f 9a 3e
       -0.20080927 0.115014106 0.11414029 0.30175558
000050 8e 9b 1b bf 6b 59 1a 3f 11 07 f2 3e 68 26 50 3f
       -0.6078423 0.6029269 0.47271016 0.81308603
000060 bc 71 9b 3e 6d 11 5c 3e af d5 a4 3e 7c af 62 3e
       0.3036021 0.21491022 0.32194278 0.22137254
000070 d2 0b db 3e a7 00 82 be 96 55 ab 3e 45 58 95 3e
       0.42782456 -0.25391123 0.33463734 0.29168907
000080 70 26 88 bd 29 3b bf 3e 79 44 00 3f da 63 cd be
       -0.06647956 0.37349823 0.5010448 -0.40115243
000090 e0 ec ea 3e 80 82 e6 3d b4 06 6f 3f d3 ba e5 bd
       0.45883846 0.1125536 0.93369603 -0.112172745
0000a0 7d e5 68 ba 17 2b 04 be 8e 9f 44 be 7a 84 4f 3d
       -0.0008884294 -0.12907062 -0.1920149 0.05066345
0000b0 c9 d2 bb 3e c4 c5 dd 3e 42 ae 9e 3c 6e 78 9d 3e
       0.36684254 0.43314946 0.019370202 0.30755943
0000c0 63 6a eb 3e 8d 33 23 bf fd 24 da 3e 60 fd 78 be
       0.45979604 -0.63750535 0.42606345 -0.24315405
0000d0 6a 89 c6 3e 27 46 8d be fa 81 70 3e 2e 64 0c 3e
       0.38776714 -0.27592584 0.23487082 0.1371009
0000e0 8e 03 0a be 56 30 7c 3d 49 c2 86 3e 06 f3 ff 3e
       -0.13477919 0.061569534 0.26320103 0.499901
0000f0 da eb 90 3e 05 37 01 3f 31 a1 dd 3d 2c 2b 94 be
       0.2830494 0.5047458 0.108217604 -0.28939188
000100 bf 67 46 3f 05 b2 af bd 2a 59 df be a9 2d 88 bf
       0.77502054 -0.085788764 -0.43622714 -1.0638934
000110 dc 68 84 3e a5 4d 2c 3e d8 99 7c 3e 10 a4 03 3f
       0.2586125 0.16826494 0.24668062 0.51422215
000120 a3 d6 38 3f 2b e9 66 bd 61 ad 86 3e d5 13 8b 3e
       0.7220251 -0.05637471 0.26304153 0.27163568
000130 be 91 b7 3e de 45 51 3f 5c 1d 32 3f 96 7f 77 3e
       0.3585338 0.81747234 0.6957605 0.24169764
000140 91 bb 6e 3d 44 1e 4a be df 07 00 3f 8f e4 35 3f
       0.058284346 -0.19738108 0.5001201 0.7105188
000150 66 28 a4 3e f9 87 6b 3e 2a 02 ea 3d 07 3b 64 3f
       0.32062072 0.23001088 0.11426194 0.8915257
000160 ae 80 64 3e 19 11 b1 be c8 04 d2 3e 37 bd 01 3e
       0.22314712 -0.34583357 0.41019273 0.12669836
000170 2a e1 ff bc bd dd 48 3e 23 49 ae 3d a7 9e e0 be
       -0.031235296 0.19615836 0.085100435 -0.43871042
000180 ce 7c 39 be d7 15 c8 be 0d f0 95 3e 53 04 2f 3e
       -0.18114015 -0.39079162 0.29284707 0.17091493

decoder.2.weight f4 [784, 100]
000000 19 4a 51 3d 12 58 8a bd fe 3b 00 be e2 d1 4e 3d
       0.051096056 -0.06755079 -0.12522885 0.05049313
000010 ad 1d 34 38 91 5e 45 3d 42 c1 bf bd 5d 2d b6 3c
       4.2942982e-05 0.04818589 -0.09363033 0.022238428
000020 09 41 24 3d 82 47 2f 3d d4 9b 9c 3c 2b 36 c6 3c
       0.040101085 0.042792805 0.019117273 0.024195751
000030 b1 5d ec 3b 89 a3 fc bd 58 3e 1e bd 51 fe af bd
       0.0072133173 -0.12335879 -0.038633674 -0.08593429
000040 9a 7d e8 bd 35 e6 88 3d 42 64 6f bd 10 ed fa bc
       -0.113520816 0.066845335 -0.058445223 -0.030630618
000050 2e e7 26 bd 67 b4 cc bd ce 34 8d bd e3 62 01 be
       -0.040747814 -0.099953465 -0.06894837 -0.12635379
000060 a1 05 2b 3c 6d c1 a9 bd ad 18 f0 3c 00 d7 92 bd
       0.010438354 -0.08288846 0.029308641 -0.07169914
000070 09 9b 6b bb 58 b8 9b bd 2e 41 43 bd f6 a6 b2 bd
       -0.0035950562 -0.0760352 -0.047669582 -0.087232515
000080 dc 2d f7 bc 2e 09 75 3d f5 94 ee bd d5 09 f6 bd
       -0.030173235 0.059823208 -0.11649505 -0.12013594
000090 c3 e4 39 be dc f8 4d 3d 01 07 13 bd 7e c9 cc 3c
       -0.18153672 0.05028616 -0.03589535 0.024998423
0000a0 d7 c4 d5 3c ec 0f b2 bd 7a 3d 84 bd ba 9c 4c 3b
       0.026094837 -0.08694443 -0.06457038 0.0031221346
0000b0 da d5 ee 3c 03 b8 00 be 71 78 34 bd af cb 04 be
       0.029154707 -0.12570195 -0.044060174 -0.12968324
0000c0 9e 08 f8 bd bc 05 d3 3c 51 9d b3 3d 57 f6 7e bd
       -0.121110186 0.02575957 0.0877024 -0.062246647
0000d0 b2 05 76 bc ce 03 2c 3c 65 e9 90 3d 4a 00 0b be
       -0.015016006 0.010498954 0.070757665 -0.13574329
0000e0 d6 cf d7 bd 17 de 98 bd bc 70 cb bb fe e5 6a 3c
       -0.105376884 -0.07464235 -0.0062085073 0.014337061
0000f0 0b ce b2 bd c4 b8 cf bd e1 93 ba 3d 72 a6 99 bd
       -0.08730706 -0.10142663 0.09110237 -0.0750245
000100 1c 41 c5 bd e1 d0 8e bd 66 1e 06 bd da a3 3f 3d
       -0.09631559 -0.06973434 -0.032743834 0.04678712
000110 04 de 2d 3d 96 9c f9 ba b9 1f cb bd 3a 2f 60 bd
       0.04244806 -0.0019043859 -0.0991816 -0.05473254
000120 da 32 41 bd a3 a6 57 3d e6 d4 b4 bd 88 62 de bc
       -0.047167636 0.05264915 -0.0882967 -0.027146593
000130 61 75 c4 bc 14 5b e8 bd e5 ad 32 be 18 f0 7b 3d
       -0.023981752 -0.11345497 -0.17449148 0.061508268
000140 56 d3 04 be 97 45 97 bd 7e 42 6d bd 38 52 27 3c
       -0.12971243 -0.0738632 -0.05792474 0.010212474
000150 e3 2c 2a 3d 68 c1 53 3d 6f 5e 65 bd 30 c7 68 be
       0.041546714 0.05169812 -0.055998262 -0.22732234
000160 4c bc 7b bd 66 7a 72 be be 8f a5 bd 4d 84 be bd
       -0.06145887 -0.23679504 -0.08084057 -0.09302578
000170 3f 7c 91 bd 8c 74 a6 bc ea 9d b3 bd 6f eb ec bd
       -0.07103776 -0.020319246 -0.08770354 -0.11568343
000180 ef 8a 4d be ef 34 ef 3c 20 39 a7 bd b4 92 5f 3b
       -0.2007253 0.029200045 -0.081651926 0.0034114541
000190 db ff 1e bd ac 69 9e bd cf 4f 97 bd 11 e0 ae bc
       -0.03881822 -0.07734999 -0.07388269 -0.021347078
0001a0 fa ef 09 3d 17 12 8e 3d 97 e0 81 3a 14 28 cb bc
       0.033676125 0.06937044 0.0009908852 -0.024799384
0001b0 9c 29 3c bd cb f8 18 bd e4 0b a3 bc 39 de 84 3d
       -0.04593812 -0.037346642 -0.01990313 0.06487698
0001c0 7e 45 b9 bd be b6 4c be 14 a1 07 bd cd b4 ed 3c
       -0.09046458 -0.19991586 -0.0331126 0.029016877
0001d0 fb f3 b3 bd 6c dd ca bd 18 d8 88 3d d7 e0 4d 3b
       -0.0878677 -0.09905514 0.066818416 0.0031414533
0001e0 75 ff 61 bd 4e 6e 65 3d 1f cc 84 bd 24 1c 90 3d
       -0.055175263 0.056013398 -0.064842455 0.070366174
0001f0 b5 b0 c0 bc 37 25 b2 3d 7b 4d 8b bc cb 8e ff bd
       -0.02352176 0.086985044 -0.017004719 -0.124784075
000200 09 ad f6 bd f8 cd ce bc c7 e9 f2 bd 8c 94 09 bd
       -0.120447226 -0.025244698 -0.11860996 -0.03358893
000210 bb be 45 3d 63 68 5e bd 7a 40 de 3c 0e cc 21 be
       0.048277598 -0.05429877 0.027130354 -0.15800497
000220 63 5c 38 be 9d 58 3a bd 68 e0 d6 bd 61 6e 12 bd
       -0.18003993 -0.045494664 -0.10492021 -0.035749797
000230 7a ea 5f bd 13 d5 74 bd d2 0f fa 3b f5 2a ba bd
       -0.054666974 -0.059773516 0.0076312805 -0.09090225
000240 00 93 d8 bd b9 ca a4 ba 76 31 f3 bd 0a 0d 9e bd
       -0.10574913 -0.0012572623 -0.11874668 -0.07717331
000250 a8 a5 66 bd 79 05 f9 bd 69 f3 8d bd 7b 64 40 be
       -0.056310326 -0.12159247 -0.069311924 -0.1878833
000260 7f 27 5e 3d 6b 6d 54 bd e4 ae 97 3b ce 8b 45 be
       0.054236885 -0.05186216 0.004629003 -0.19291613
000270 95 3b 5e bd eb 99 fd 3c 1b fd 8c bd e2 bc 26 bd
       -0.05425604 0.030957183 -0.068842135 -0.040707476
000280 1e 37 51 be 0d d9 16 bd 66 de 51 3d 48 02 c2 bc
       -0.20431182 -0.03682809 0.051237486 -0.023682728
000290 5f 0f 22 be 2e 42 07 3d 76 ba ce bd f8 22 86 3d
       -0.15826176 0.0330221 -0.10094158 0.065496385
0002a0 cb b2 d6 bd 4e 72 1d bd c1 19 31 3d 7c 2c ae 3d
       -0.10483321 -0.038439088 0.04323745 0.085045785
0002b0 32 34 f2 bd 95 97 aa 3c 93 ee 65 3d 62 9e bc bd
       -0.11826362 0.020824233 0.056135725 -0.092098966
0002c0 5a 89 5c bc 43 95 60 bd e3 22 14 bd be 77 30 bd
       -0.013460482 -0.054829847 -0.036166083 -0.043082945
0002d0 79 5a 09 3d 11 4c 18 bd 59 a9 84 3c ad 6c 12 bd
       0.033533547 -0.037181918 0.016194033 -0.035748173
0002e0 b9 37 5d 3d 86 bb 6b bc 4f 49 0a bd c8 3c 6f bd
       0.05400822 -0.014387971 -0.03376132 -0.058407575
0002f0 27 bb 56 bd 7d 00 67 be c0 de 62 3d e0 f3 9a 3c
       -0.052424576 -0.2255878 0.055388212 0.018915117
000300 ec 72 d3 bd 57 ac 9d bd 7c f3 2d 3d 14 d5 58 bd
       -0.10324654 -0.07698887 0.042468533 -0.052937582
000310 42 df 5e be e3 7f c5 bd a3 2a 8e 3d 9d 61 ec bd
       -0.21764854 -0.09643533 0.06941726 -0.11542056
000320 e0 83 a6 bc c3 1c 49 bd 19 79 c4 bd 9f c8 bf bd
       -0.020326555 -0.049099695 -0.0959341 -0.09364437
000330 49 d9 bc 3d 37 20 fd 3c 10 be 8c bd bb d5 4d 3d
       0.09221131 0.03089915 -0.06872189 0.050252657
000340 cc ff fc bd f3 45 73 bd 6f 83 10 bd 09 b5 f6 bd
       -0.12353477 -0.05939288 -0.035281595 -0.120462485
000350 e6 50 cc bd 53 52 48 be 8d 34 95 3d 29 37 fc 3c
       -0.09976368 -0.19562654 0.07285414 0.030788021
000360 59 d3 e4 bd b6 e4 07 3c c0 71 e2 bd 92 92 0d bd
       -0.11173124 0.008294275 -0.11056852 -0.03456361
000370 b1 17 cc bd d3 72 de bc 6e b5 53 3d 3f 15 9c bd
       -0.09965456 -0.027154362 0.051686697 -0.0762124
000380 d0 56 18 bd ea 0d e7 bc e7 8b 57 bd 6d 48 c9 bd
       -0.037192166 -0.028204877 -0.052623656 -0.09828267
000390 b1 44 f7 3c a3 d2 39 bc 76 6a 73 ba bd 94 03 3d
       0.030184122 -0.011341724 -0.0009285578 0.03212427
0003a0 68 fa 63 bd 3b 0c 0f 3d c5 38 26 3d 09 c4 ec bc
       -0.055658728 0.034923773 0.040581483 -0.02890207
0003b0 0e 42 f0 3a 1e d2 ab 3c fd e0 73 bd 6d e2 04 3c
       0.0018330233 0.020974215 -0.059540737 0.008110625
0003c0 27 58 c1 bd 22 52 dc bc a9 93 c8 bd af c6 27 bc
       -0.09440642 -0.026894633 -0.09793789 -0.010240241
0003d0 5d 7c ad bd 4b 6f e8 bd a3 de ca bb ab 50 21 bd
       -0.08470986 -0.113493524 -0.006191091 -0.03938357
0003e0 4e ad cc bd af b7 c3 bd f1 b1 bf bd bc e6 ab bd
       -0.09993993 -0.09556519 -0.093601115 -0.083936185
0003f0 05 ce fd bd e9 49 5e bd 13 5b 44 3d 58 c7 05 be
       -0.12392811 -0.054269705 0.047938418 -0.13064325

decoder.2.bias f4 [784]
000000 4c b5 a2 bd 33 2e fb bd 0d 13 2d bd 83 75 d3 bd
       -0.07944736 -0.12264671 -0.042254496 -0.10325148
000010 f8 47 ca bd a7 03 83 3d bb 65 14 bd 13 b7 29 bd
       -0.09877008 0.06397181 -0.03622983 -0.04143436
000020 0f ad 1f bd 10 f3 b4 bd 3c af ac bd a3 71 47 bb
       -0.0389834 -0.08835423 -0.08431861 -0.0030432723
000030 06 7f ae 3c 51 fb 2a 3d 29 16 e5 bd ec 5c 3c bd
       0.021300804 0.04174358 -0.11185867 -0.045987055
000040 36 82 80 3c c3 da 4c 3d 2b f3 8e 3d de 6e b1 bc
       0.01568709 0.050013315 0.06979974 -0.02165931
000050 47 4c 3d 3c 54 1d 62 3d 95 1f 54 3d 43 42 67 bd
       0.0115538305 0.05520375 0.05178793 -0.056459676
000060 14 20 6e 3d 9c 8c 2b bc 58 f6 78 bd 03 14 12 bd
       0.05813606 -0.010470536 -0.060781807 -0.035663616
000070 4c f5 2d 3d e4 d9 8d 3d 0b 37 9c bd 89 86 35 3c
       0.04247026 0.06926325 -0.07627686 0.011079439
000080 8c e4 68 bd 8f ea 96 3c 37 8f e8 bd 70 bf 2b bd
       -0.056858584 0.018422393 -0.11355441 -0.041930616
000090 e3 af 11 3d 4f 21 3f 3d 63 5f 82 3d e7 df ec 3c
       0.03556813 0.046662625 0.0636585 0.028915359
0000a0 b3 0a ad b9 72 17 bb bd 54 a3 e5 bd fe 38 69 3d
       -0.00033005103 -0.09135331 -0.11212793 0.056939118
0000b0 91 cd b8 bd cc f4 b9 bd 09 d2 ac bd d8 41 5d bd
       -0.09023584 -0.090798944 -0.084384985 -0.05401787
0000c0 68 7b 87 3d 75 e5 91 3d b5 81 36 ba 12 73 c6 bb
       0.06615335 0.071238436 -0.0006962077 -0.006056198
0000d0 4b 16 c0 bd 74 ad 79 bd 92 f4 93 3d 42 68 f2 bd
       -0.09379252 -0.060956433 0.072243825 -0.11836292
0000e0 42 79 27 bd 99 cc 28 3d f4 36 94 bc 71 17 92 3c
       -0.040887125 0.041210745 -0.01809261 0.017833443
0000f0 9f 5e 51 3d 12 88 76 3d 77 ce e0 bc 6f 6f 25 3d
       0.05111563 0.06018836 -0.0274422 0.040389474
000100 ae ef 53 3d a4 55 f6 b9 b3 d3 94 bd 98 31 31 be
       0.05174225 -0.00046984584 -0.07266941 -0.17304075
000110 72 6c 11 be 12 0b 4a bd 6c 6e 06 bc 01 73 8e 3c
       -0.14201525 -0.049326964 -0.008205038 0.017388823
000120 54 03 00 be a0 87 06 3c 9e 80 52 be 6a aa 45 be
       -0.1250127 0.008211046 -0.20556876 -0.19303289
000130 54 f3 01 be 52 a8 e0 3c 6e a9 f9 bd 9b 77 f3 bd
       -0.12690479 0.027424011 -0.12190519 -0.11888047
000140 c3 fc 66 3c 46 34 a3 3c 29 9a b3 3c 14 d0 35 3c
       0.014098349 0.019922387 0.021924095 0.011096973
000150 a9 76 e8 bd bf 5e be 3c 1e d9 aa bc 94 2d db ba
       -0.11350758 0.023238538 -0.020855483 -0.0016721957
000160 72 cc 09 3c 4a ca 0a 3d b8 c5 0c bd 53 25 77 3d
       0.00841056 0.033884324 -0.034368247 0.06033833
000170 25 c6 af 3c 81 d4 15 bd 37 28 4e 3d ea 30 7f bd
       0.021456787 -0.036579613 0.05033132 -0.062302507
000180 4b 05 78 bd 79 99 58 be 57 b1 70 be 26 63 8b be
       -0.060551923 -0.21152295 -0.2350515 -0.27224082
000190 b0 3e 5d bd 49 f8 8b bd e9 0a db bd 12 3d 55 be
       -0.05401486 -0.06834466 -0.1069544 -0.20824078
0001a0 ed 05 0a be 42 cb a0 3d 20 fd fe 3c 3c 01 6d 3d
       -0.13478823 0.07851268 0.031126559 0.057862505
0001b0 d4 6b a9 bc d8 63 f9 bd 19 7f dd 3c d7 87 fb 3a
       -0.0206813 -0.12177247 0.027038144 0.0019190264
0001c0 be 16 89 bd 7f bb 87 3d 4f ec 67 3d f7 ac 32 bd
       -0.06693791 0.06627559 0.056621846 -0.043621983
0001d0 d8 18 bd bd 03 f3 58 bb 6e 1b 7b bd ef 8d 11 bc
       -0.09233254 -0.003310383 -0.061305456 -0.008883937
0001e0 9a a8 4d bd ac 1b f7 3d 04 d1 e0 3b 21 e9 9f bd
       -0.05020962 0.12065825 0.006860854 -0.07808138
0001f0 f3 fc 86 be 9b e3 cc be 55 99 bc be ed 04 35 be
       -0.2636486 -0.400174 -0.36835733 -0.1767766
000200 8e 5f 28 be 1e d2 12 be 8b c6 2e be 47 90 97 be
       -0.16442701 -0.14337966 -0.17067926 -0.29602262
000210 be 6e 18 be e9 49 8d bc db 2c f1 bc 0f 8e f3 3c
       -0.14885995 -0.017247157 -0.029440334 0.029730825
000220 ce 03 d3 bd 0d c0 da bd 3f 86 7c 3d ba 5c 54 3d
       -0.1030346 -0.10681162 0.061651465 0.051846243
000230 d1 7c 63 bd 2b 08 ba 3c d1 13 e5 bc bf af 5e bd
       -0.055538956 0.022708973 -0.02796355 -0.054366823
000240 a5 35 8a 3c eb 2b 0b 3c 76 55 81 3c bf 36 bc bc
       0.016871283 0.008494358 0.015787821 -0.022975324
000250 d2 93 c8 bd 75 68 fa bb 6d 63 d2 bd 63 43 81 bd
       -0.097938195 -0.007641847 -0.1027287 -0.06311681
000260 52 cd 9c bd 7d c0 97 be 19 0a 22 be 87 1e 4c bd
       -0.07656349 -0.29639044 -0.15824164 -0.0498338
000270 e3 9b 13 be 6e 37 8c 3c f2 87 a7 bd 21 fa ab be
       -0.14414935 0.017116275 -0.081802264 -0.3358927
000280 7a a9 a8 be 67 44 58 bd 3b ff 86 3d 53 d2 0f be
       -0.329418 -0.05279961 0.0659165 -0.14045076
000290 db b1 33 be a6 cf 8b bd 4a 59 90 bd 7d 9d d2 bd
       -0.17548315 -0.06826715 -0.070482805 -0.10283945
0002a0 2e 6b 4d 3d 57 07 04 3d 23 eb c0 bd 56 32 08 be
       0.050151043 0.032233562 -0.09419849 -0.13300452
0002b0 6f 9b c0 3d da 82 2c 3e f5 53 cf 3d 69 b2 24 bc
       0.094046466 0.16846791 0.101234354 -0.010052302
0002c0 cd 0d 0b 3c f4 b8 bd 3c a8 8e 51 be 69 d2 9a be
       0.008487177 0.023159482 -0.20464575 -0.30238655
0002d0 12 5d ee be 30 0d dc be 18 46 bc be e0 03 7f be
       -0.46555382 -0.4297881 -0.36772227 -0.24903822
0002e0 f8 3d 91 be 9e cb 80 be ec d9 a9 be cc e4 e5 be
       -0.2836759 -0.25155348 -0.33174074 -0.4490112
0002f0 5b 52 32 be 8f da a7 bc 1f 18 1f bd 95 38 52 3d
       -0.17414229 -0.020489959 -0.038841363 0.051323492
000300 6e e4 71 bc be 6d ce bd a8 85 0c be 0c 02 ec 3c
       -0.014763935 -0.100795254 -0.13722861 0.02880957
000310 6d 8b 94 bd 13 5f 15 3c a9 39 f8 bd 83 f0 64 bc
       -0.07253156 0.009116906 -0.12120373 -0.013973358
000320 e5 78 32 3d 2d e0 d9 bb 25 af 3b 3d 38 f6 cb 3d
       0.043572325 -0.0066490383 0.045821328 0.09959072
000330 16 21 b6 bc 5f 14 76 be 4f 6c 7d be 66 d4 07 bf
       -0.022232573 -0.24031208 -0.24748348 -0.5305847
000340 bd 59 18 bf 08 c2 08 bf 2f 50 04 bf 7f ba f9 be
       -0.5951193 -0.5342107 -0.5168485 -0.48775098
000350 a1 bc cb be 7c 82 8c be 1a 60 71 be 5b 09 cc be
       -0.3979235 -0.27443302 -0.23571816 -0.39850888
000360 84 98 83 be ad 3a 79 be 45 b2 bb bd 0d 53 75 3c
       -0.25702298 -0.2433879 -0.091648616 0.014973414
000370 5d bf 8a 3d 01 75 fb bc 01 b8 f0 39 63 b3 0f bd
       0.06774781 -0.03069544 0.0004591346 -0.035083186
000380 17 43 91 bd 93 f6 94 bd f2 8b b2 bd 2a e8 b1 bd
       -0.070928745 -0.07273593 -0.08718099 -0.0868686
000390 90 2c ca 3c bb 3b 02 be 7c 30 c0 3d a2 7a f5 bd
       0.024679452 -0.12718098 0.09384248 -0.11986281
0003a0 42 94 11 be c3 6a 59 be 8a 93 48 be 52 92 84 be
       -0.14216712 -0.21232133 -0.19587532 -0.25892884
0003b0 8e 42 1e be 46 62 b3 be 83 84 03 bf 09 6c 11 bf
       -0.15455076 -0.35035914 -0.5137407 -0.56805474
0003c0 3d f3 cc be 67 9e b0 be b2 1b 42 be 4b 4d 8d be
       -0.40029326 -0.3449585 -0.18955877 -0.27598032
0003d0 1b 59 b4 be c8 f1 9e be 3e 90 30 be 34 62 58 bc
       -0.35224232 -0.3104384 -0.17242524 -0.013207007
0003e0 42 76 03 be 60 17 78 bd f0 71 a6 bc f0 ad 6e 3c
       -0.1283808 -0.060569167 -0.020318002 0.014567837
0003f0 2b c6 0d bd 6f 43 18 3d 8f 97 eb ba 33 7d 2f bd
       -0.034612816 0.037173685 -0.0017974245 -0.04284401
